…
    MAX_SIZE: 4000
    SCALES: ()
    SCALE_H_FLIP: False
  DETECTIONS_PER_IMG: 100
  EXPECTED_RESULTS: []
  EXPECTED_RESULTS_SIGMA_TOL: 4
  IMS_PER_BATCH: 8
=======================================================================================================================================
Layer (type (var_name))                                 Input Shape          Output Shape         Param #              Trainable
=======================================================================================================================================
GeneralizedRCNN (GeneralizedRCNN)                       [8, 3, 768, 1344]    --                   --                   Partial
├─Sequential (backbone)                                 [8, 3, 768, 1344]    [8, 256, 96, 168]    --                   Partial
│    └─ResNet (body)                                    [8, 3, 768, 1344]    [8, 256, 192, 336]   --                   Partial
│    │    └─StemWithFixedBatchNorm (stem)               [8, 3, 768, 1344]    [8, 64, 192, 336]    (9,408)              False
│    │    └─RAStemWithFixedBatchNorm (ra_stem)          [8, 3, 768, 1344]    [8, 64, 192, 336]    9,408                True
│    │    └─Sequential (ra_block)                       [8, 64, 192, 336]    [8, 256, 192, 336]   73,728               True
│    │    └─Sequential (layer1)                         [8, 64, 192, 336]    [8, 256, 192, 336]   (212,992)            False
│    │    └─FusionAttMix (fusion)                       [8, 256, 192, 336]   [8, 256, 192, 336]   8,963                True
│    │    └─Sequential (layer2)                         [8, 256, 192, 336]   [8, 512, 96, 168]    1,212,416            True
│    │    └─Sequential (layer3)                         [8, 512, 96, 168]    [8, 1024, 48, 84]    26,017,792           True
│    │    └─Sequential (layer4)                         [8, 1024, 48, 84]    [8, 2048, 24, 42]    14,942,208           True
│    └─FPN (fpn)                                        [8, 256, 192, 336]   [8, 256, 96, 168]    --                   True
│    │    └─Conv2d (fpn_inner4)                         [8, 2048, 24, 42]    [8, 256, 24, 42]     524,544              True
│    │    └─Conv2d (fpn_layer4)                         [8, 256, 24, 42]     [8, 256, 24, 42]     590,080              True
│    │    └─Conv2d (fpn_inner3)                         [8, 1024, 48, 84]    [8, 256, 48, 84]     262,400              True
│    │    └─Conv2d (fpn_layer3)                         [8, 256, 48, 84]     [8, 256, 48, 84]     590,080              True
│    │    └─Conv2d (fpn_inner2)                         [8, 512, 96, 168]    [8, 256, 96, 168]    131,328              True
│    │    └─Conv2d (fpn_layer2)                         [8, 256, 96, 168]    [8, 256, 96, 168]    590,080              True
│    │    └─LastLevelP6P7 (top_blocks)                  [8, 2048, 24, 42]    [8, 256, 12, 21]     1,180,160            True
├─FCOSModule (rpn)                                      [8, 3, 768, 1344]    --                   --                   True
│    └─FCOSHead (head)                                  [8, 256, 96, 168]    [8, 1, 96, 168]      --                   True
│    │    └─Sequential (cls_tower)                      [8, 256, 96, 168]    [8, 256, 96, 168]    2,362,368            True
│    │    └─Sequential (bbox_tower)                     [8, 256, 96, 168]    [8, 256, 96, 168]    2,362,368            True
│    │    └─Conv2d (cls_logits)                         [8, 256, 96, 168]    [8, 1, 96, 168]      2,305                True
│    │    └─Conv2d (centerness)                         [8, 256, 96, 168]    [8, 1, 96, 168]      2,305                True
│    │    └─Conv2d (bbox_pred)                          [8, 256, 96, 168]    [8, 4, 96, 168]      9,220                True
│    │    └─ModuleList (scales)                         --                   --                   (recursive)          True
│    │    └─Sequential (cls_tower)                      [8, 256, 48, 84]     [8, 256, 48, 84]     (recursive)          True
│    │    └─Sequential (bbox_tower)                     [8, 256, 48, 84]     [8, 256, 48, 84]     (recursive)          True
│    │    └─Conv2d (cls_logits)                         [8, 256, 48, 84]     [8, 1, 48, 84]       (recursive)          True
…
