…
Layer (type (var_name))                                                     Input Shape          Output Shape         Param #              Param %              Trainable
===============================================================================================================================================================================
CascadeRCNN (CascadeRCNN)                                                   --                   --                   --                        --              True
├─HRFuserHRFormerBased (backbone)                                           [1, 3, 384, 640]     [1, 78, 96, 160]     --                        --              True
│    └─Conv2d (conv1)                                                       [1, 3, 384, 640]     [1, 64, 192, 320]    1,728                  0.00%              True
│    └─BatchNorm2d (bn1)                                                    [1, 64, 192, 320]    [1, 64, 192, 320]    128                    0.00%              True
│    └─ReLU (relu)                                                          [1, 64, 192, 320]    [1, 64, 192, 320]    --                        --              --
│    └─Conv2d (conv2)                                                       [1, 64, 192, 320]    [1, 64, 96, 160]     36,864                 0.03%              True
│    └─BatchNorm2d (bn2)                                                    [1, 64, 96, 160]     [1, 64, 96, 160]     128                    0.00%              True
│    └─ReLU (relu)                                                          [1, 64, 96, 160]     [1, 64, 96, 160]     --                   (recursive)          --
│    └─Sequential (layer1)                                                  [1, 64, 96, 160]     [1, 256, 96, 160]    --                        --              True
│    │    └─Bottleneck (0)                                                  [1, 64, 96, 160]     [1, 256, 96, 160]    --                        --              True
│    │    │    └─Conv2d (conv1)                                             [1, 64, 96, 160]     [1, 64, 96, 160]     4,096                  0.00%              True
│    │    │    └─BatchNorm2d (bn1)                                          [1, 64, 96, 160]     [1, 64, 96, 160]     128                    0.00%              True
│    │    │    └─ReLU (relu)                                                [1, 64, 96, 160]     [1, 64, 96, 160]     --                        --              --
│    │    │    └─Conv2d (conv2)                                             [1, 64, 96, 160]     [1, 64, 96, 160]     36,864                 0.03%              True
│    │    │    └─BatchNorm2d (bn2)                                          [1, 64, 96, 160]     [1, 64, 96, 160]     128                    0.00%              True
│    │    │    └─ReLU (relu)                                                [1, 64, 96, 160]     [1, 64, 96, 160]     --                   (recursive)          --
│    │    │    └─Conv2d (conv3)                                             [1, 64, 96, 160]     [1, 256, 96, 160]    16,384                 0.02%              True
│    │    │    └─BatchNorm2d (bn3)                                          [1, 256, 96, 160]    [1, 256, 96, 160]    512                    0.00%              True
│    │    │    └─Sequential (downsample)                                    [1, 64, 96, 160]     [1, 256, 96, 160]    --                        --              True
│    │    │    │    └─Conv2d (0)                                            [1, 64, 96, 160]     [1, 256, 96, 160]    16,384                 0.02%              True
│    │    │    │    └─BatchNorm2d (1)                                       [1, 256, 96, 160]    [1, 256, 96, 160]    512                    0.00%              True
│    │    │    └─ReLU (relu)                                                [1, 256, 96, 160]    [1, 256, 96, 160]    --                   (recursive)          --
│    │    └─Bottleneck (1)                                                  [1, 256, 96, 160]    [1, 256, 96, 160]    --                        --              True
│    │    │    └─Conv2d (conv1)                                             [1, 256, 96, 160]    [1, 64, 96, 160]     16,384                 0.02%              True
│    │    │    └─BatchNorm2d (bn1)                                          [1, 64, 96, 160]     [1, 64, 96, 160]     128                    0.00%              True
│    │    │    └─ReLU (relu)                                                [1, 64, 96, 160]     [1, 64, 96, 160]     --                        --              --
│    │    │    └─Conv2d (conv2)                                             [1, 64, 96, 160]     [1, 64, 96, 160]     36,864                 0.03%              True
│    │    │    └─BatchNorm2d (bn2)                                          [1, 64, 96, 160]     [1, 64, 96, 160]     128                    0.00%              True
│    │    │    └─ReLU (relu)                                                [1, 64, 96, 160]     [1, 64, 96, 160]     --                   (recursive)          --
│    │    │    └─Conv2d (conv3)                                             [1, 64, 96, 160]     [1, 256, 96, 160]    16,384                 0.02%              True
│    │    │    └─BatchNorm2d (bn3)                                          [1, 256, 96, 160]    [1, 256, 96, 160]    512                    0.00%              True
│    │    │    └─ReLU (relu)                                                [1, 256, 96, 160]    [1, 256, 96, 160]    --                   (recursive)          --
│    └─ModuleList (conv_a)                                                  --                   --                   (recursive)          (recursive)          True
│    │    └─Conv2d (0)                                                      [1, 3, 384, 640]     [1, 64, 192, 320]    1,728                  0.00%              True
│    └─ModuleList (norm_a)                                                  --                   --                   (recursive)          (recursive)          True
│    │    └─BatchNorm2d (0)                                                 [1, 64, 192, 320]    [1, 64, 192, 320]    128                    0.00%              True
│    └─ReLU (relu)                                                          [1, 64, 192, 320]    [1, 64, 192, 320]    --                   (recursive)          --
│    └─ModuleList (conv_b)                                                  --                   --                   (recursive)          (recursive)          True
│    │    └─Conv2d (0)                                                      [1, 64, 192, 320]    [1, 64, 96, 160]     36,864                 0.03%              True
│    └─ModuleList (norm_b)                                                  --                   --                   (recursive)          (recursive)          True
│    │    └─BatchNorm2d (0)                                                 [1, 64, 96, 160]     [1, 64, 96, 160]     128                    0.00%              True
│    └─ReLU (relu)                                                          [1, 64, 96, 160]     [1, 64, 96, 160]     --                   (recursive)          --
│    └─ModuleList (layer_a)                                                 --                   --                   (recursive)          (recursive)          True
│    │    └─Sequential (0)                                                  [1, 64, 96, 160]     [1, 256, 96, 160]    --                        --              True
│    │    │    └─Bottleneck (0)                                             [1, 64, 96, 160]     [1, 256, 96, 160]    --                        --              True
│    │    │    │    └─Conv2d (conv1)                                        [1, 64, 96, 160]     [1, 64, 96, 160]     4,096                  0.00%              True
│    │    │    │    └─BatchNorm2d (bn1)                                     [1, 64, 96, 160]     [1, 64, 96, 160]     128                    0.00%              True
│    │    │    │    └─ReLU (relu)                                           [1, 64, 96, 160]     [1, 64, 96, 160]     --                        --              --
│    │    │    │    └─Conv2d (conv2)                                        [1, 64, 96, 160]     [1, 64, 96, 160]     36,864                 0.03%              True
│    │    │    │    └─BatchNorm2d (bn2)                                     [1, 64, 96, 160]     [1, 64, 96, 160]     128                    0.00%              True
│    │    │    │    └─ReLU (relu)                                           [1, 64, 96, 160]     [1, 64, 96, 160]     --                   (recursive)          --
│    │    │    │    └─Conv2d (conv3)                                        [1, 64, 96, 160]     [1, 256, 96, 160]    16,384                 0.02%              True
│    │    │    │    └─BatchNorm2d (bn3)                                     [1, 256, 96, 160]    [1, 256, 96, 160]    512                    0.00%              True
│    │    │    │    └─Sequential (downsample)                               [1, 64, 96, 160]     [1, 256, 96, 160]    --                        --              True
│    │    │    │    │    └─Conv2d (0)                                       [1, 64, 96, 160]     [1, 256, 96, 160]    16,384                 0.02%              True
│    │    │    │    │    └─BatchNorm2d (1)                                  [1, 256, 96, 160]    [1, 256, 96, 160]    512                    0.00%              True
│    │    │    │    └─ReLU (relu)                                           [1, 256, 96, 160]    [1, 256, 96, 160]    --                   (recursive)          --
│    │    │    └─Bottleneck (1)                                             [1, 256, 96, 160]    [1, 256, 96, 160]    --                        --              True
│    │    │    │    └─Conv2d (conv1)                                        [1, 256, 96, 160]    [1, 64, 96, 160]     16,384                 0.02%              True
│    │    │    │    └─BatchNorm2d (bn1)                                     [1, 64, 96, 160]     [1, 64, 96, 160]     128                    0.00%              True
│    │    │    │    └─ReLU (relu)                                           [1, 64, 96, 160]     [1, 64, 96, 160]     --                        --              --
│    │    │    │    └─Conv2d (conv2)                                        [1, 64, 96, 160]     [1, 64, 96, 160]     36,864                 0.03%              True
│    │    │    │    └─BatchNorm2d (bn2)                                     [1, 64, 96, 160]     [1, 64, 96, 160]     128                    0.00%              True
│    │    │    │    └─ReLU (relu)                                           [1, 64, 96, 160]     [1, 64, 96, 160]     --                   (recursive)          --
│    │    │    │    └─Conv2d (conv3)                                        [1, 64, 96, 160]     [1, 256, 96, 160]    16,384                 0.02%              True
│    │    │    │    └─BatchNorm2d (bn3)                                     [1, 256, 96, 160]    [1, 256, 96, 160]    512                    0.00%              True
│    │    │    │    └─ReLU (relu)                                           [1, 256, 96, 160]    [1, 256, 96, 160]    --                   (recursive)          --
│    └─ModuleList (conv_a)                                                  --                   --                   (recursive)          (recursive)          True
│    │    └─Conv2d (1)                                                      [1, 3, 384, 640]     [1, 64, 192, 320]    1,728                  0.00%              True
│    └─ModuleList (norm_a)                                                  --                   --                   (recursive)          (recursive)          True
│    │    └─BatchNorm2d (1)                                                 [1, 64, 192, 320]    [1, 64, 192, 320]    128                    0.00%              True
│    └─ReLU (relu)                                                          [1, 64, 192, 320]    [1, 64, 192, 320]    --                   (recursive)          --
│    └─ModuleList (conv_b)                                                  --                   --                   (recursive)          (recursive)          True
│    │    └─Conv2d (1)                                                      [1, 64, 192, 320]    [1, 64, 96, 160]     36,864                 0.03%              True
│    └─ModuleList (norm_b)                                                  --                   --                   (recursive)          (recursive)          True
│    │    └─BatchNorm2d (1)                                                 [1, 64, 96, 160]     [1, 64, 96, 160]     128                    0.00%              True
│    └─ReLU (relu)                                                          [1, 64, 96, 160]     [1, 64, 96, 160]     --                   (recursive)          --
│    └─ModuleList (layer_a)                                                 --                   --                   (recursive)          (recursive)          True
│    │    └─Sequential (1)                                                  [1, 64, 96, 160]     [1, 256, 96, 160]    --                        --              True
│    │    │    └─Bottleneck (0)                                             [1, 64, 96, 160]     [1, 256, 96, 160]    --                        --              True
│    │    │    │    └─Conv2d (conv1)                                        [1, 64, 96, 160]     [1, 64, 96, 160]     4,096                  0.00%              True
│    │    │    │    └─BatchNorm2d (bn1)                                     [1, 64, 96, 160]     [1, 64, 96, 160]     128                    0.00%              True
│    │    │    │    └─ReLU (relu)                                           [1, 64, 96, 160]     [1, 64, 96, 160]     --                        --              --
│    │    │    │    └─Conv2d (conv2)                                        [1, 64, 96, 160]     [1, 64, 96, 160]     36,864                 0.03%              True
│    │    │    │    └─BatchNorm2d (bn2)                                     [1, 64, 96, 160]     [1, 64, 96, 160]     128                    0.00%              True
│    │    │    │    └─ReLU (relu)                                           [1, 64, 96, 160]     [1, 64, 96, 160]     --                   (recursive)          --
│    │    │    │    └─Conv2d (conv3)                                        [1, 64, 96, 160]     [1, 256, 96, 160]    16,384                 0.02%              True
│    │    │    │    └─BatchNorm2d (bn3)                                     [1, 256, 96, 160]    [1, 256, 96, 160]    512                    0.00%              True
│    │    │    │    └─Sequential (downsample)                               [1, 64, 96, 160]     [1, 256, 96, 160]    --                        --              True
│    │    │    │    │    └─Conv2d (0)                                       [1, 64, 96, 160]     [1, 256, 96, 160]    16,384                 0.02%              True
│    │    │    │    │    └─BatchNorm2d (1)                                  [1, 256, 96, 160]    [1, 256, 96, 160]    512                    0.00%              True
│    │    │    │    └─ReLU (relu)                                           [1, 256, 96, 160]    [1, 256, 96, 160]    --                   (recursive)          --
│    │    │    └─Bottleneck (1)                                             [1, 256, 96, 160]    [1, 256, 96, 160]    --                        --              True
│    │    │    │    └─Conv2d (conv1)                                        [1, 256, 96, 160]    [1, 64, 96, 160]     16,384                 0.02%              True
│    │    │    │    └─BatchNorm2d (bn1)                                     [1, 64, 96, 160]     [1, 64, 96, 160]     128                    0.00%              True
│    │    │    │    └─ReLU (relu)                                           [1, 64, 96, 160]     [1, 64, 96, 160]     --                        --              --
│    │    │    │    └─Conv2d (conv2)                                        [1, 64, 96, 160]     [1, 64, 96, 160]     36,864                 0.03%              True
│    │    │    │    └─BatchNorm2d (bn2)                                     [1, 64, 96, 160]     [1, 64, 96, 160]     128                    0.00%              True
│    │    │    │    └─ReLU (relu)                                           [1, 64, 96, 160]     [1, 64, 96, 160]     --                   (recursive)          --
│    │    │    │    └─Conv2d (conv3)                                        [1, 64, 96, 160]     [1, 256, 96, 160]    16,384                 0.02%              True
│    │    │    │    └─BatchNorm2d (bn3)                                     [1, 256, 96, 160]    [1, 256, 96, 160]    512                    0.00%              True
│    │    │    │    └─ReLU (relu)                                           [1, 256, 96, 160]    [1, 256, 96, 160]    --                   (recursive)          --
│    └─ModuleList (transition1)                                             --                   --                   (recursive)          (recursive)          True
│    │    └─Sequential (0)                                                  --                   --                   156                    0.00%              True
│    │    │    └─Conv2d (0)                                                 [1, 256, 96, 160]    [1, 78, 96, 160]     179,712                0.17%              True
│    └─ModuleList (transition_a)                                            --                   --                   (recursive)          (recursive)          True
│    │    └─ModuleList (0)                                                  --                   --                   (recursive)          (recursive)          True
│    │    │    └─Sequential (0)                                             [1, 256, 96, 160]    [1, 78, 96, 160]     --                        --              True
│    │    │    │    └─Conv2d (0)                                            [1, 256, 96, 160]    [1, 78, 96, 160]     179,712                0.17%              True
│    │    │    │    └─BatchNorm2d (1)                                       [1, 78, 96, 160]     [1, 78, 96, 160]     156                    0.00%              True
│    │    │    │    └─ReLU (2)                                              [1, 78, 96, 160]     [1, 78, 96, 160]     --                        --              --
│    │    └─ModuleList (1)                                                  --                   --                   (recursive)          (recursive)          True
│    │    │    └─Sequential (0)                                             [1, 256, 96, 160]    [1, 78, 96, 160]     --                        --              True
│    │    │    │    └─Conv2d (0)                                            [1, 256, 96, 160]    [1, 78, 96, 160]     179,712                0.17%              True
│    │    │    │    └─BatchNorm2d (1)                                       [1, 78, 96, 160]     [1, 78, 96, 160]     156                    0.00%              True
│    │    │    │    └─ReLU (2)                                              [1, 78, 96, 160]     [1, 78, 96, 160]     --                        --              --
│    └─ModuleList (fusion_a)                                                --                   --                   (recursive)          (recursive)          True
│    │    └─HRFuserFusionBlock (0)                                          [1, 78, 96, 160]     [1, 78, 96, 160]     --                        --              True
│    │    │    └─ModuleList (norm1)                                         --                   --                   (recursive)          (recursive)          True
│    │    │    │    └─LayerNorm (0)                                         [1, 15360, 78]       [1, 15360, 78]       156                    0.00%              True
│    │    │    └─ModuleList (norm2)                                         --                   --                   (recursive)          (recursive)          True
│    │    │    │    └─LayerNorm (0)                                         [1, 15360, 78]       [1, 15360, 78]       156                    0.00%              True
│    │    │    └─ModuleList (attn)                                          --                   --                   (recursive)          (recursive)          True
│    │    │    │    └─MultiWindowCrossAttention (0)                         [1, 15360, 78]       [1, 15360, 78]       --                        --              True
│    │    │    │    │    └─WindowMCA (attn)                                 [322, 49, 78]        [322, 49, 78]        338                    0.00%              True
│    │    │    │    │    │    └─Linear (q_proj)                             [322, 49, 78]        [322, 49, 78]        6,162                  0.01%              True
│    │    │    │    │    │    └─Linear (k_proj)                             [322, 49, 78]        [322, 49, 78]        6,162                  0.01%              True
│    │    │    │    │    │    └─Linear (v_proj)                             [322, 49, 78]        [322, 49, 78]        6,162                  0.01%              True
│    │    │    │    │    │    └─Softmax (softmax)                           [322, 2, 49, 49]     [322, 2, 49, 49]     --                        --              --
│    │    │    │    │    │    └─Dropout (attn_drop)                         [322, 2, 49, 49]     [322, 2, 49, 49]     --                        --              --
│    │    │    │    │    │    └─Linear (out_proj)                           [322, 49, 78]        [322, 49, 78]        6,162                  0.01%              True
│    │    │    │    │    │    └─Dropout (proj_drop)                         [322, 49, 78]        [322, 49, 78]        --                        --              --
│    │    │    └─DropPath (drop_path)                                       [1, 15360, 78]       [1, 15360, 78]       --                        --              --
│    │    │    └─ModuleList (norm1)                                         --                   --                   (recursive)          (recursive)          True
│    │    │    │    └─LayerNorm (1)                                         [1, 15360, 78]       [1, 15360, 78]       156                    0.00%              True
│    │    │    └─ModuleList (norm2)                                         --                   --                   (recursive)          (recursive)          True
│    │    │    │    └─LayerNorm (1)                                         [1, 15360, 78]       [1, 15360, 78]       156                    0.00%              True
│    │    │    └─ModuleList (attn)                                          --                   --                   (recursive)          (recursive)          True
│    │    │    │    └─MultiWindowCrossAttention (1)                         [1, 15360, 78]       [1, 15360, 78]       --                        --              True
│    │    │    │    │    └─WindowMCA (attn)                                 [322, 49, 78]        [322, 49, 78]        338                    0.00%              True
│    │    │    │    │    │    └─Linear (q_proj)                             [322, 49, 78]        [322, 49, 78]        6,162                  0.01%              True
│    │    │    │    │    │    └─Linear (k_proj)                             [322, 49, 78]        [322, 49, 78]        6,162                  0.01%              True
│    │    │    │    │    │    └─Linear (v_proj)                             [322, 49, 78]        [322, 49, 78]        6,162                  0.01%              True
│    │    │    │    │    │    └─Softmax (softmax)                           [322, 2, 49, 49]     [322, 2, 49, 49]     --                        --              --
│    │    │    │    │    │    └─Dropout (attn_drop)                         [322, 2, 49, 49]     [322, 2, 49, 49]     --                        --              --
│    │    │    │    │    │    └─Linear (out_proj)                           [322, 49, 78]        [322, 49, 78]        6,162                  0.01%              True
│    │    │    │    │    │    └─Dropout (proj_drop)                         [322, 49, 78]        [322, 49, 78]        --                        --              --
│    │    │    └─DropPath (drop_path)                                       [1, 15360, 78]       [1, 15360, 78]       --                   (recursive)          --
│    │    │    └─LayerNorm (norm3)                                          [1, 15360, 78]       [1, 15360, 78]       156                    0.00%              True
│    │    │    └─CrossFFN (ffn)                                             [1, 15360, 78]       [1, 15360, 78]       --                        --              True
│    │    │    │    └─Sequential (layers)                                   [1, 78, 96, 160]     [1, 78, 96, 160]     --                        --              True
│    │    │    │    │    └─Conv2d (0)                                       [1, 78, 96, 160]     [1, 312, 96, 160]    24,648                 0.02%              True
│    │    │    │    │    └─BatchNorm2d (1)                                  [1, 312, 96, 160]    [1, 312, 96, 160]    624                    0.00%              True
│    │    │    │    │    └─GELU (2)                                         [1, 312, 96, 160]    [1, 312, 96, 160]    --                        --              --
│    │    │    │    │    └─Conv2d (3)                                       [1, 312, 96, 160]    [1, 312, 96, 160]    3,120                  0.00%              True
│    │    │    │    │    └─BatchNorm2d (4)                                  [1, 312, 96, 160]    [1, 312, 96, 160]    624                    0.00%              True
│    │    │    │    │    └─GELU (5)                                         [1, 312, 96, 160]    [1, 312, 96, 160]    --                        --              --
│    │    │    │    │    └─Conv2d (6)                                       [1, 312, 96, 160]    [1, 78, 96, 160]     24,414                 0.02%              True
│    │    │    │    │    └─BatchNorm2d (7)                                  [1, 78, 96, 160]     [1, 78, 96, 160]     156                    0.00%              True
│    │    │    │    │    └─GELU (8)                                         [1, 78, 96, 160]     [1, 78, 96, 160]     --                        --              --
│    │    │    └─DropPath (drop_path)                                       [1, 15360, 78]       [1, 15360, 78]       --                   (recursive)          --
│    └─ModuleList (transition1)                                             --                   --                   (recursive)          (recursive)          True
│    │    └─Sequential (1)                                                  --                   --                   --                        --              True
│    │    │    └─Sequential (0)                                             [1, 256, 96, 160]    [1, 156, 48, 80]     --                        --              True
│    │    │    │    └─Conv2d (0)                                            [1, 256, 96, 160]    [1, 156, 48, 80]     359,424                0.34%              True
│    │    │    │    └─BatchNorm2d (1)                                       [1, 156, 48, 80]     [1, 156, 48, 80]     312                    0.00%              True
│    │    │    │    └─ReLU (2)                                              [1, 156, 48, 80]     [1, 156, 48, 80]     --                        --              --
│    └─ModuleList (transition_a)                                            --                   --                   (recursive)          (recursive)          True
│    │    └─ModuleList (0)                                                  --                   --                   (recursive)          (recursive)          True
│    │    │    └─Sequential (1)                                             [1, 256, 96, 160]    [1, 156, 48, 80]     --                        --              True
│    │    │    │    └─Sequential (0)                                        [1, 256, 96, 160]    [1, 156, 48, 80]     --                        --              True
│    │    │    │    │    └─Conv2d (0)                                       [1, 256, 96, 160]    [1, 156, 48, 80]     359,424                0.34%              True
│    │    │    │    │    └─BatchNorm2d (1)                                  [1, 156, 48, 80]     [1, 156, 48, 80]     312                    0.00%              True
│    │    │    │    │    └─ReLU (2)                                         [1, 156, 48, 80]     [1, 156, 48, 80]     --                        --              --
│    │    └─ModuleList (1)                                                  --                   --                   (recursive)          (recursive)          True
│    │    │    └─Sequential (1)                                             [1, 256, 96, 160]    [1, 156, 48, 80]     --                        --              True
│    │    │    │    └─Sequential (0)                                        [1, 256, 96, 160]    [1, 156, 48, 80]     --                        --              True
│    │    │    │    │    └─Conv2d (0)                                       [1, 256, 96, 160]    [1, 156, 48, 80]     359,424                0.34%              True
│    │    │    │    │    └─BatchNorm2d (1)                                  [1, 156, 48, 80]     [1, 156, 48, 80]     312                    0.00%              True
│    │    │    │    │    └─ReLU (2)                                         [1, 156, 48, 80]     [1, 156, 48, 80]     --                        --              --
│    └─ModuleList (fusion_a)                                                --                   --                   (recursive)          (recursive)          True
│    │    └─HRFuserFusionBlock (1)                                          [1, 156, 48, 80]     [1, 156, 48, 80]     --                        --              True
│    │    │    └─ModuleList (norm1)                                         --                   --                   (recursive)          (recursive)          True
│    │    │    │    └─LayerNorm (0)                                         [1, 3840, 156]       [1, 3840, 156]       312                    0.00%              True
│    │    │    └─ModuleList (norm2)                                         --                   --                   (recursive)          (recursive)          True
│    │    │    │    └─LayerNorm (0)                                         [1, 3840, 156]       [1, 3840, 156]       312                    0.00%              True
│    │    │    └─ModuleList (attn)                                          --                   --                   (recursive)          (recursive)          True
│    │    │    │    └─MultiWindowCrossAttention (0)                         [1, 3840, 156]       [1, 3840, 156]       --                        --              True
│    │    │    │    │    └─WindowMCA (attn)                                 [84, 49, 156]        [84, 49, 156]        676                    0.00%              True
│    │    │    │    │    │    └─Linear (q_proj)                             [84, 49, 156]        [84, 49, 156]        24,492                 0.02%              True
│    │    │    │    │    │    └─Linear (k_proj)                             [84, 49, 156]        [84, 49, 156]        24,492                 0.02%              True
│    │    │    │    │    │    └─Linear (v_proj)                             [84, 49, 156]        [84, 49, 156]        24,492                 0.02%              True
│    │    │    │    │    │    └─Softmax (softmax)                           [84, 4, 49, 49]      [84, 4, 49, 49]      --                        --              --
│    │    │    │    │    │    └─Dropout (attn_drop)                         [84, 4, 49, 49]      [84, 4, 49, 49]      --                        --              --
│    │    │    │    │    │    └─Linear (out_proj)                           [84, 49, 156]        [84, 49, 156]        24,492                 0.02%              True
│    │    │    │    │    │    └─Dropout (proj_drop)                         [84, 49, 156]        [84, 49, 156]        --                        --              --
│    │    │    └─DropPath (drop_path)                                       [1, 3840, 156]       [1, 3840, 156]       --                        --              --
│    │    │    └─ModuleList (norm1)                                         --                   --                   (recursive)          (recursive)          True
│    │    │    │    └─LayerNorm (1)                                         [1, 3840, 156]       [1, 3840, 156]       312                    0.00%              True
│    │    │    └─ModuleList (norm2)                                         --                   --                   (recursive)          (recursive)          True
│    │    │    │    └─LayerNorm (1)                                         [1, 3840, 156]       [1, 3840, 156]       312                    0.00%              True
│    │    │    └─ModuleList (attn)                                          --                   --                   (recursive)          (recursive)          True
│    │    │    │    └─MultiWindowCrossAttention (1)                         [1, 3840, 156]       [1, 3840, 156]       --                        --              True
│    │    │    │    │    └─WindowMCA (attn)                                 [84, 49, 156]        [84, 49, 156]        676                    0.00%              True
│    │    │    │    │    │    └─Linear (q_proj)                             [84, 49, 156]        [84, 49, 156]        24,492                 0.02%              True
│    │    │    │    │    │    └─Linear (k_proj)                             [84, 49, 156]        [84, 49, 156]        24,492                 0.02%              True
│    │    │    │    │    │    └─Linear (v_proj)                             [84, 49, 156]        [84, 49, 156]        24,492                 0.02%              True
│    │    │    │    │    │    └─Softmax (softmax)                           [84, 4, 49, 49]      [84, 4, 49, 49]      --                        --              --
│    │    │    │    │    │    └─Dropout (attn_drop)                         [84, 4, 49, 49]      [84, 4, 49, 49]      --                        --              --
│    │    │    │    │    │    └─Linear (out_proj)                           [84, 49, 156]        [84, 49, 156]        24,492                 0.02%              True
│    │    │    │    │    │    └─Dropout (proj_drop)                         [84, 49, 156]        [84, 49, 156]        --                        --              --
│    │    │    └─DropPath (drop_path)                                       [1, 3840, 156]       [1, 3840, 156]       --                   (recursive)          --
│    │    │    └─LayerNorm (norm3)                                          [1, 3840, 156]       [1, 3840, 156]       312                    0.00%              True
│    │    │    └─CrossFFN (ffn)                                             [1, 3840, 156]       [1, 3840, 156]       --                        --              True
│    │    │    │    └─Sequential (layers)                                   [1, 156, 48, 80]     [1, 156, 48, 80]     --                        --              True
│    │    │    │    │    └─Conv2d (0)                                       [1, 156, 48, 80]     [1, 624, 48, 80]     97,968                 0.09%              True
│    │    │    │    │    └─BatchNorm2d (1)                                  [1, 624, 48, 80]     [1, 624, 48, 80]     1,248                  0.00%              True
│    │    │    │    │    └─GELU (2)                                         [1, 624, 48, 80]     [1, 624, 48, 80]     --                        --              --
│    │    │    │    │    └─Conv2d (3)                                       [1, 624, 48, 80]     [1, 624, 48, 80]     6,240                  0.01%              True
│    │    │    │    │    └─BatchNorm2d (4)                                  [1, 624, 48, 80]     [1, 624, 48, 80]     1,248                  0.00%              True
│    │    │    │    │    └─GELU (5)                                         [1, 624, 48, 80]     [1, 624, 48, 80]     --                        --              --
│    │    │    │    │    └─Conv2d (6)                                       [1, 624, 48, 80]     [1, 156, 48, 80]     97,500                 0.09%              True
│    │    │    │    │    └─BatchNorm2d (7)                                  [1, 156, 48, 80]     [1, 156, 48, 80]     312                    0.00%              True
│    │    │    │    │    └─GELU (8)                                         [1, 156, 48, 80]     [1, 156, 48, 80]     --                        --              --
│    │    │    └─DropPath (drop_path)                                       [1, 3840, 156]       [1, 3840, 156]       --                   (recursive)          --
│    └─Sequential (stage2)                                                  [1, 78, 96, 160]     [1, 78, 96, 160]     --                        --              True
│    │    └─HRFomerModule (0)                                               [1, 78, 96, 160]     [1, 78, 96, 160]     --                        --              True
│    │    │    └─ModuleList (branches)                                      --                   --                   --                        --              True
│    │    │    │    └─Sequential (0)                                        [1, 78, 96, 160]     [1, 78, 96, 160]     --                        --              True
│    │    │    │    │    └─HRFormerBlock (0)                                [1, 78, 96, 160]     [1, 78, 96, 160]     --                        --              True
│    │    │    │    │    │    └─LayerNorm (norm1)                           [1, 15360, 78]       [1, 15360, 78]       156                    0.00%              True
│    │    │    │    │    │    └─LocalWindowSelfAttention (attn)             [1, 15360, 78]       [1, 15360, 78]       --                        --              True
│    │    │    │    │    │    │    └─WindowMSA (attn)                       [322, 49, 78]        [322, 49, 78]        338                    0.00%              True
│    │    │    │    │    │    │    │    └─Linear (qkv)                      [322, 49, 78]        [322, 49, 234]       18,486                 0.02%              True
│    │    │    │    │    │    │    │    └─Softmax (softmax)                 [322, 2, 49, 49]     [322, 2, 49, 49]     --                        --              --
│    │    │    │    │    │    │    │    └─Dropout (attn_drop)               [322, 2, 49, 49]     [322, 2, 49, 49]     --                        --              --
│    │    │    │    │    │    │    │    └─Linear (out_proj)                 [322, 49, 78]        [322, 49, 78]        6,162                  0.01%              True
│    │    │    │    │    │    │    │    └─Dropout (proj_drop)               [322, 49, 78]        [322, 49, 78]        --                        --              --
│    │    │    │    │    │    └─Identity (drop_path)                        [1, 15360, 78]       [1, 15360, 78]       --                        --              --
│    │    │    │    │    │    └─LayerNorm (norm2)                           [1, 15360, 78]       [1, 15360, 78]       156                    0.00%              True
│    │    │    │    │    │    └─CrossFFN (ffn)                              [1, 15360, 78]       [1, 15360, 78]       --                        --              True
│    │    │    │    │    │    │    └─Sequential (layers)                    [1, 78, 96, 160]     [1, 78, 96, 160]     --                        --              True
│    │    │    │    │    │    │    │    └─Conv2d (0)                        [1, 78, 96, 160]     [1, 312, 96, 160]    24,648                 0.02%              True
│    │    │    │    │    │    │    │    └─BatchNorm2d (1)                   [1, 312, 96, 160]    [1, 312, 96, 160]    624                    0.00%              True
│    │    │    │    │    │    │    │    └─GELU (2)                          [1, 312, 96, 160]    [1, 312, 96, 160]    --                        --              --
│    │    │    │    │    │    │    │    └─Conv2d (3)                        [1, 312, 96, 160]    [1, 312, 96, 160]    3,120                  0.00%              True
│    │    │    │    │    │    │    │    └─BatchNorm2d (4)                   [1, 312, 96, 160]    [1, 312, 96, 160]    624                    0.00%              True
│    │    │    │    │    │    │    │    └─GELU (5)                          [1, 312, 96, 160]    [1, 312, 96, 160]    --                        --              --
│    │    │    │    │    │    │    │    └─Conv2d (6)                        [1, 312, 96, 160]    [1, 78, 96, 160]     24,414                 0.02%              True
│    │    │    │    │    │    │    │    └─BatchNorm2d (7)                   [1, 78, 96, 160]     [1, 78, 96, 160]     156                    0.00%              True
│    │    │    │    │    │    │    │    └─GELU (8)                          [1, 78, 96, 160]     [1, 78, 96, 160]     --                        --              --
│    │    │    │    │    │    └─Identity (drop_path)                        [1, 15360, 78]       [1, 15360, 78]       --                   (recursive)          --
│    │    │    │    │    └─HRFormerBlock (1)                                [1, 78, 96, 160]     [1, 78, 96, 160]     --                        --              True
│    │    │    │    │    │    └─LayerNorm (norm1)                           [1, 15360, 78]       [1, 15360, 78]       156                    0.00%              True
│    │    │    │    │    │    └─LocalWindowSelfAttention (attn)             [1, 15360, 78]       [1, 15360, 78]       --                        --              True
│    │    │    │    │    │    │    └─WindowMSA (attn)                       [322, 49, 78]        [322, 49, 78]        338                    0.00%              True
│    │    │    │    │    │    │    │    └─Linear (qkv)                      [322, 49, 78]        [322, 49, 234]       18,486                 0.02%              True
│    │    │    │    │    │    │    │    └─Softmax (softmax)                 [322, 2, 49, 49]     [322, 2, 49, 49]     --                        --              --
│    │    │    │    │    │    │    │    └─Dropout (attn_drop)               [322, 2, 49, 49]     [322, 2, 49, 49]     --                        --              --
│    │    │    │    │    │    │    │    └─Linear (out_proj)                 [322, 49, 78]        [322, 49, 78]        6,162                  0.01%              True
│    │    │    │    │    │    │    │    └─Dropout (proj_drop)               [322, 49, 78]        [322, 49, 78]        --                        --              --
│    │    │    │    │    │    └─Identity (drop_path)                        [1, 15360, 78]       [1, 15360, 78]       --                        --              --
│    │    │    │    │    │    └─LayerNorm (norm2)                           [1, 15360, 78]       [1, 15360, 78]       156                    0.00%              True
│    │    │    │    │    │    └─CrossFFN (ffn)                              [1, 15360, 78]       [1, 15360, 78]       --                        --              True
│    │    │    │    │    │    │    └─Sequential (layers)                    [1, 78, 96, 160]     [1, 78, 96, 160]     --                        --              True
│    │    │    │    │    │    │    │    └─Conv2d (0)                        [1, 78, 96, 160]     [1, 312, 96, 160]    24,648                 0.02%              True
│    │    │    │    │    │    │    │    └─BatchNorm2d (1)                   [1, 312, 96, 160]    [1, 312, 96, 160]    624                    0.00%              True
│    │    │    │    │    │    │    │    └─GELU (2)                          [1, 312, 96, 160]    [1, 312, 96, 160]    --                        --              --
│    │    │    │    │    │    │    │    └─Conv2d (3)                        [1, 312, 96, 160]    [1, 312, 96, 160]    3,120                  0.00%              True
│    │    │    │    │    │    │    │    └─BatchNorm2d (4)                   [1, 312, 96, 160]    [1, 312, 96, 160]    624                    0.00%              True
│    │    │    │    │    │    │    │    └─GELU (5)                          [1, 312, 96, 160]    [1, 312, 96, 160]    --                        --              --
│    │    │    │    │    │    │    │    └─Conv2d (6)                        [1, 312, 96, 160]    [1, 78, 96, 160]     24,414                 0.02%              True
│    │    │    │    │    │    │    │    └─BatchNorm2d (7)                   [1, 78, 96, 160]     [1, 78, 96, 160]     156                    0.00%              True
│    │    │    │    │    │    │    │    └─GELU (8)                          [1, 78, 96, 160]     [1, 78, 96, 160]     --                        --              --
│    │    │    │    │    │    └─Identity (drop_path)                        [1, 15360, 78]       [1, 15360, 78]       --                   (recursive)          --
│    │    │    │    └─Sequential (1)                                        [1, 156, 48, 80]     [1, 156, 48, 80]     --                        --              True
│    │    │    │    │    └─HRFormerBlock (0)                                [1, 156, 48, 80]     [1, 156, 48, 80]     --                        --              True
│    │    │    │    │    │    └─LayerNorm (norm1)                           [1, 3840, 156]       [1, 3840, 156]       312                    0.00%              True
│    │    │    │    │    │    └─LocalWindowSelfAttention (attn)             [1, 3840, 156]       [1, 3840, 156]       --                        --              True
│    │    │    │    │    │    │    └─WindowMSA (attn)                       [84, 49, 156]        [84, 49, 156]        676                    0.00%              True
│    │    │    │    │    │    │    │    └─Linear (qkv)                      [84, 49, 156]        [84, 49, 468]        73,476                 0.07%              True
│    │    │    │    │    │    │    │    └─Softmax (softmax)                 [84, 4, 49, 49]      [84, 4, 49, 49]      --                        --              --
│    │    │    │    │    │    │    │    └─Dropout (attn_drop)               [84, 4, 49, 49]      [84, 4, 49, 49]      --                        --              --
│    │    │    │    │    │    │    │    └─Linear (out_proj)                 [84, 49, 156]        [84, 49, 156]        24,492                 0.02%              True
│    │    │    │    │    │    │    │    └─Dropout (proj_drop)               [84, 49, 156]        [84, 49, 156]        --                        --              --
│    │    │    │    │    │    └─Identity (drop_path)                        [1, 3840, 156]       [1, 3840, 156]       --                        --              --
│    │    │    │    │    │    └─LayerNorm (norm2)                           [1, 3840, 156]       [1, 3840, 156]       312                    0.00%              True
│    │    │    │    │    │    └─CrossFFN (ffn)                              [1, 3840, 156]       [1, 3840, 156]       --                        --              True
│    │    │    │    │    │    │    └─Sequential (layers)                    [1, 156, 48, 80]     [1, 156, 48, 80]     --                        --              True
│    │    │    │    │    │    │    │    └─Conv2d (0)                        [1, 156, 48, 80]     [1, 624, 48, 80]     97,968                 0.09%              True
│    │    │    │    │    │    │    │    └─BatchNorm2d (1)                   [1, 624, 48, 80]     [1, 624, 48, 80]     1,248                  0.00%              True
│    │    │    │    │    │    │    │    └─GELU (2)                          [1, 624, 48, 80]     [1, 624, 48, 80]     --                        --              --
│    │    │    │    │    │    │    │    └─Conv2d (3)                        [1, 624, 48, 80]     [1, 624, 48, 80]     6,240                  0.01%              True
│    │    │    │    │    │    │    │    └─BatchNorm2d (4)                   [1, 624, 48, 80]     [1, 624, 48, 80]     1,248                  0.00%              True
│    │    │    │    │    │    │    │    └─GELU (5)                          [1, 624, 48, 80]     [1, 624, 48, 80]     --                        --              --
│    │    │    │    │    │    │    │    └─Conv2d (6)                        [1, 624, 48, 80]     [1, 156, 48, 80]     97,500                 0.09%              True
│    │    │    │    │    │    │    │    └─BatchNorm2d (7)                   [1, 156, 48, 80]     [1, 156, 48, 80]     312                    0.00%              True
│    │    │    │    │    │    │    │    └─GELU (8)                          [1, 156, 48, 80]     [1, 156, 48, 80]     --                        --              --
│    │    │    │    │    │    └─Identity (drop_path)                        [1, 3840, 156]       [1, 3840, 156]       --                   (recursive)          --
│    │    │    │    │    └─HRFormerBlock (1)                                [1, 156, 48, 80]     [1, 156, 48, 80]     --                        --              True
│    │    │    │    │    │    └─LayerNorm (norm1)                           [1, 3840, 156]       [1, 3840, 156]       312                    0.00%              True
│    │    │    │    │    │    └─LocalWindowSelfAttention (attn)             [1, 3840, 156]       [1, 3840, 156]       --                        --              True
│    │    │    │    │    │    │    └─WindowMSA (attn)                       [84, 49, 156]        [84, 49, 156]        676                    0.00%              True
│    │    │    │    │    │    │    │    └─Linear (qkv)                      [84, 49, 156]        [84, 49, 468]        73,476                 0.07%              True
│    │    │    │    │    │    │    │    └─Softmax (softmax)                 [84, 4, 49, 49]      [84, 4, 49, 49]      --                        --              --
│    │    │    │    │    │    │    │    └─Dropout (attn_drop)               [84, 4, 49, 49]      [84, 4, 49, 49]      --                        --              --
│    │    │    │    │    │    │    │    └─Linear (out_proj)                 [84, 49, 156]        [84, 49, 156]        24,492                 0.02%              True
│    │    │    │    │    │    │    │    └─Dropout (proj_drop)               [84, 49, 156]        [84, 49, 156]        --                        --              --
│    │    │    │    │    │    └─Identity (drop_path)                        [1, 3840, 156]       [1, 3840, 156]       --                        --              --
│    │    │    │    │    │    └─LayerNorm (norm2)                           [1, 3840, 156]       [1, 3840, 156]       312                    0.00%              True
│    │    │    │    │    │    └─CrossFFN (ffn)                              [1, 3840, 156]       [1, 3840, 156]       --                        --              True
│    │    │    │    │    │    │    └─Sequential (layers)                    [1, 156, 48, 80]     [1, 156, 48, 80]     --                        --              True
│    │    │    │    │    │    │    │    └─Conv2d (0)                        [1, 156, 48, 80]     [1, 624, 48, 80]     97,968                 0.09%              True
│    │    │    │    │    │    │    │    └─BatchNorm2d (1)                   [1, 624, 48, 80]     [1, 624, 48, 80]     1,248                  0.00%              True
│    │    │    │    │    │    │    │    └─GELU (2)                          [1, 624, 48, 80]     [1, 624, 48, 80]     --                        --              --
│    │    │    │    │    │    │    │    └─Conv2d (3)                        [1, 624, 48, 80]     [1, 624, 48, 80]     6,240                  0.01%              True
│    │    │    │    │    │    │    │    └─BatchNorm2d (4)                   [1, 624, 48, 80]     [1, 624, 48, 80]     1,248                  0.00%              True
│    │    │    │    │    │    │    │    └─GELU (5)                          [1, 624, 48, 80]     [1, 624, 48, 80]     --                        --              --
│    │    │    │    │    │    │    │    └─Conv2d (6)                        [1, 624, 48, 80]     [1, 156, 48, 80]     97,500                 0.09%              True
│    │    │    │    │    │    │    │    └─BatchNorm2d (7)                   [1, 156, 48, 80]     [1, 156, 48, 80]     312                    0.00%              True
│    │    │    │    │    │    │    │    └─GELU (8)                          [1, 156, 48, 80]     [1, 156, 48, 80]     --                        --              --
│    │    │    │    │    │    └─Identity (drop_path)                        [1, 3840, 156]       [1, 3840, 156]       --                   (recursive)          --
│    │    │    └─ModuleList (fuse_layers)                                   --                   --                   (recursive)          (recursive)          True
│    │    │    │    └─ModuleList (0)                                        --                   --                   --                        --              True
│    │    │    │    │    └─Sequential (1)                                   [1, 156, 48, 80]     [1, 78, 48, 80]      --                        --              True
│    │    │    │    │    │    └─Conv2d (0)                                  [1, 156, 48, 80]     [1, 78, 48, 80]      12,168                 0.01%              True
│    │    │    │    │    │    └─BatchNorm2d (1)                             [1, 78, 48, 80]      [1, 78, 48, 80]      156                    0.00%              True
│    │    │    └─ReLU (relu)                                                [1, 78, 96, 160]     [1, 78, 96, 160]     --                        --              --
│    │    │    └─ModuleList (fuse_layers)                                   --                   --                   (recursive)          (recursive)          True
│    │    │    │    └─ModuleList (1)                                        --                   --                   --                        --              True
│    │    │    │    │    └─Sequential (0)                                   [1, 78, 96, 160]     [1, 156, 48, 80]     --                        --              True
│    │    │    │    │    │    └─Sequential (0)                              [1, 78, 96, 160]     [1, 156, 48, 80]     --                        --              True
│    │    │    │    │    │    │    └─Conv2d (0)                             [1, 78, 96, 160]     [1, 78, 48, 80]      702                    0.00%              True
│    │    │    │    │    │    │    └─BatchNorm2d (1)                        [1, 78, 48, 80]      [1, 78, 48, 80]      156                    0.00%              True
│    │    │    │    │    │    │    └─Conv2d (2)                             [1, 78, 48, 80]      [1, 156, 48, 80]     12,168                 0.01%              True
│    │    │    │    │    │    │    └─BatchNorm2d (3)                        [1, 156, 48, 80]     [1, 156, 48, 80]     312                    0.00%              True
│    │    │    └─ReLU (relu)                                                [1, 156, 48, 80]     [1, 156, 48, 80]     --                   (recursive)          --
│    └─ModuleList (stage_b)                                                 --                   --                   --                        --              True
│    │    └─Sequential (0)                                                  [1, 78, 96, 160]     [1, 78, 96, 160]     --                        --              True
│    │    │    └─HRFomerModule (0)                                          [1, 78, 96, 160]     [1, 78, 96, 160]     --                        --              True
│    │    │    │    └─ModuleList (branches)                                 --                   --                   --                        --              True
│    │    │    │    │    └─Sequential (0)                                   [1, 78, 96, 160]     [1, 78, 96, 160]     --                        --              True
│    │    │    │    │    │    └─HRFormerBlock (0)                           [1, 78, 96, 160]     [1, 78, 96, 160]     --                        --              True
│    │    │    │    │    │    │    └─LayerNorm (norm1)                      [1, 15360, 78]       [1, 15360, 78]       156                    0.00%              True
│    │    │    │    │    │    │    └─LocalWindowSelfAttention (attn)        [1, 15360, 78]       [1, 15360, 78]       --                        --              True
│    │    │    │    │    │    │    │    └─WindowMSA (attn)                  [322, 49, 78]        [322, 49, 78]        338                    0.00%              True
│    │    │    │    │    │    │    │    │    └─Linear (qkv)                 [322, 49, 78]        [322, 49, 234]       18,486                 0.02%              True
│    │    │    │    │    │    │    │    │    └─Softmax (softmax)            [322, 2, 49, 49]     [322, 2, 49, 49]     --                        --              --
│    │    │    │    │    │    │    │    │    └─Dropout (attn_drop)          [322, 2, 49, 49]     [322, 2, 49, 49]     --                        --              --
│    │    │    │    │    │    │    │    │    └─Linear (out_proj)            [322, 49, 78]        [322, 49, 78]        6,162                  0.01%              True
│    │    │    │    │    │    │    │    │    └─Dropout (proj_drop)          [322, 49, 78]        [322, 49, 78]        --                        --              --
│    │    │    │    │    │    │    └─Identity (drop_path)                   [1, 15360, 78]       [1, 15360, 78]       --                        --              --
│    │    │    │    │    │    │    └─LayerNorm (norm2)                      [1, 15360, 78]       [1, 15360, 78]       156                    0.00%              True
│    │    │    │    │    │    │    └─CrossFFN (ffn)                         [1, 15360, 78]       [1, 15360, 78]       --                        --              True
│    │    │    │    │    │    │    │    └─Sequential (layers)               [1, 78, 96, 160]     [1, 78, 96, 160]     --                        --              True
│    │    │    │    │    │    │    │    │    └─Conv2d (0)                   [1, 78, 96, 160]     [1, 312, 96, 160]    24,648                 0.02%              True
│    │    │    │    │    │    │    │    │    └─BatchNorm2d (1)              [1, 312, 96, 160]    [1, 312, 96, 160]    624                    0.00%              True
│    │    │    │    │    │    │    │    │    └─GELU (2)                     [1, 312, 96, 160]    [1, 312, 96, 160]    --                        --              --
│    │    │    │    │    │    │    │    │    └─Conv2d (3)                   [1, 312, 96, 160]    [1, 312, 96, 160]    3,120                  0.00%              True
│    │    │    │    │    │    │    │    │    └─BatchNorm2d (4)              [1, 312, 96, 160]    [1, 312, 96, 160]    624                    0.00%              True
│    │    │    │    │    │    │    │    │    └─GELU (5)                     [1, 312, 96, 160]    [1, 312, 96, 160]    --                        --              --
│    │    │    │    │    │    │    │    │    └─Conv2d (6)                   [1, 312, 96, 160]    [1, 78, 96, 160]     24,414                 0.02%              True
│    │    │    │    │    │    │    │    │    └─BatchNorm2d (7)              [1, 78, 96, 160]     [1, 78, 96, 160]     156                    0.00%              True
│    │    │    │    │    │    │    │    │    └─GELU (8)                     [1, 78, 96, 160]     [1, 78, 96, 160]     --                        --              --
│    │    │    │    │    │    │    └─Identity (drop_path)                   [1, 15360, 78]       [1, 15360, 78]       --                   (recursive)          --
│    │    │    │    │    │    └─HRFormerBlock (1)                           [1, 78, 96, 160]     [1, 78, 96, 160]     --                        --              True
│    │    │    │    │    │    │    └─LayerNorm (norm1)                      [1, 15360, 78]       [1, 15360, 78]       156                    0.00%              True
│    │    │    │    │    │    │    └─LocalWindowSelfAttention (attn)        [1, 15360, 78]       [1, 15360, 78]       --                        --              True
│    │    │    │    │    │    │    │    └─WindowMSA (attn)                  [322, 49, 78]        [322, 49, 78]        338                    0.00%              True
│    │    │    │    │    │    │    │    │    └─Linear (qkv)                 [322, 49, 78]        [322, 49, 234]       18,486                 0.02%              True
│    │    │    │    │    │    │    │    │    └─Softmax (softmax)            [322, 2, 49, 49]     [322, 2, 49, 49]     --                        --              --
│    │    │    │    │    │    │    │    │    └─Dropout (attn_drop)          [322, 2, 49, 49]     [322, 2, 49, 49]     --                        --              --
│    │    │    │    │    │    │    │    │    └─Linear (out_proj)            [322, 49, 78]        [322, 49, 78]        6,162                  0.01%              True
│    │    │    │    │    │    │    │    │    └─Dropout (proj_drop)          [322, 49, 78]        [322, 49, 78]        --                        --              --
│    │    │    │    │    │    │    └─Identity (drop_path)                   [1, 15360, 78]       [1, 15360, 78]       --                        --              --
│    │    │    │    │    │    │    └─LayerNorm (norm2)                      [1, 15360, 78]       [1, 15360, 78]       156                    0.00%              True
│    │    │    │    │    │    │    └─CrossFFN (ffn)                         [1, 15360, 78]       [1, 15360, 78]       --                        --              True
│    │    │    │    │    │    │    │    └─Sequential (layers)               [1, 78, 96, 160]     [1, 78, 96, 160]     --                        --              True
│    │    │    │    │    │    │    │    │    └─Conv2d (0)                   [1, 78, 96, 160]     [1, 312, 96, 160]    24,648                 0.02%              True
│    │    │    │    │    │    │    │    │    └─BatchNorm2d (1)              [1, 312, 96, 160]    [1, 312, 96, 160]    624                    0.00%              True
│    │    │    │    │    │    │    │    │    └─GELU (2)                     [1, 312, 96, 160]    [1, 312, 96, 160]    --                        --              --
│    │    │    │    │    │    │    │    │    └─Conv2d (3)                   [1, 312, 96, 160]    [1, 312, 96, 160]    3,120                  0.00%              True
│    │    │    │    │    │    │    │    │    └─BatchNorm2d (4)              [1, 312, 96, 160]    [1, 312, 96, 160]    624                    0.00%              True
│    │    │    │    │    │    │    │    │    └─GELU (5)                     [1, 312, 96, 160]    [1, 312, 96, 160]    --                        --              --
│    │    │    │    │    │    │    │    │    └─Conv2d (6)                   [1, 312, 96, 160]    [1, 78, 96, 160]     24,414                 0.02%              True
│    │    │    │    │    │    │    │    │    └─BatchNorm2d (7)              [1, 78, 96, 160]     [1, 78, 96, 160]     156                    0.00%              True
│    │    │    │    │    │    │    │    │    └─GELU (8)                     [1, 78, 96, 160]     [1, 78, 96, 160]     --                        --              --
│    │    │    │    │    │    │    └─Identity (drop_path)                   [1, 15360, 78]       [1, 15360, 78]       --                   (recursive)          --
│    │    └─Sequential (1)                                                  [1, 78, 96, 160]     [1, 78, 96, 160]     --                        --              True
│    │    │    └─HRFomerModule (0)                                          [1, 78, 96, 160]     [1, 78, 96, 160]     --                        --              True
│    │    │    │    └─ModuleList (branches)                                 --                   --                   --                        --              True
│    │    │    │    │    └─Sequential (0)                                   [1, 78, 96, 160]     [1, 78, 96, 160]     --                        --              True
│    │    │    │    │    │    └─HRFormerBlock (0)                           [1, 78, 96, 160]     [1, 78, 96, 160]     --                        --              True
│    │    │    │    │    │    │    └─LayerNorm (norm1)                      [1, 15360, 78]       [1, 15360, 78]       156                    0.00%              True
│    │    │    │    │    │    │    └─LocalWindowSelfAttention (attn)        [1, 15360, 78]       [1, 15360, 78]       --                        --              True
│    │    │    │    │    │    │    │    └─WindowMSA (attn)                  [322, 49, 78]        [322, 49, 78]        338                    0.00%              True
│    │    │    │    │    │    │    │    │    └─Linear (qkv)                 [322, 49, 78]        [322, 49, 234]       18,486                 0.02%              True
│    │    │    │    │    │    │    │    │    └─Softmax (softmax)            [322, 2, 49, 49]     [322, 2, 49, 49]     --                        --              --
│    │    │    │    │    │    │    │    │    └─Dropout (attn_drop)          [322, 2, 49, 49]     [322, 2, 49, 49]     --                        --              --
│    │    │    │    │    │    │    │    │    └─Linear (out_proj)            [322, 49, 78]        [322, 49, 78]        6,162                  0.01%              True
│    │    │    │    │    │    │    │    │    └─Dropout (proj_drop)          [322, 49, 78]        [322, 49, 78]        --                        --              --
│    │    │    │    │    │    │    └─Identity (drop_path)                   [1, 15360, 78]       [1, 15360, 78]       --                        --              --
│    │    │    │    │    │    │    └─LayerNorm (norm2)                      [1, 15360, 78]       [1, 15360, 78]       156                    0.00%              True
│    │    │    │    │    │    │    └─CrossFFN (ffn)                         [1, 15360, 78]       [1, 15360, 78]       --                        --              True
│    │    │    │    │    │    │    │    └─Sequential (layers)               [1, 78, 96, 160]     [1, 78, 96, 160]     --                        --              True
│    │    │    │    │    │    │    │    │    └─Conv2d (0)                   [1, 78, 96, 160]     [1, 312, 96, 160]    24,648                 0.02%              True
│    │    │    │    │    │    │    │    │    └─BatchNorm2d (1)              [1, 312, 96, 160]    [1, 312, 96, 160]    624                    0.00%              True
│    │    │    │    │    │    │    │    │    └─GELU (2)                     [1, 312, 96, 160]    [1, 312, 96, 160]    --                        --              --
│    │    │    │    │    │    │    │    │    └─Conv2d (3)                   [1, 312, 96, 160]    [1, 312, 96, 160]    3,120                  0.00%              True
│    │    │    │    │    │    │    │    │    └─BatchNorm2d (4)              [1, 312, 96, 160]    [1, 312, 96, 160]    624                    0.00%              True
│    │    │    │    │    │    │    │    │    └─GELU (5)                     [1, 312, 96, 160]    [1, 312, 96, 160]    --                        --              --
│    │    │    │    │    │    │    │    │    └─Conv2d (6)                   [1, 312, 96, 160]    [1, 78, 96, 160]     24,414                 0.02%              True
│    │    │    │    │    │    │    │    │    └─BatchNorm2d (7)              [1, 78, 96, 160]     [1, 78, 96, 160]     156                    0.00%              True
│    │    │    │    │    │    │    │    │    └─GELU (8)                     [1, 78, 96, 160]     [1, 78, 96, 160]     --                        --              --
│    │    │    │    │    │    │    └─Identity (drop_path)                   [1, 15360, 78]       [1, 15360, 78]       --                   (recursive)          --
│    │    │    │    │    │    └─HRFormerBlock (1)                           [1, 78, 96, 160]     [1, 78, 96, 160]     --                        --              True
│    │    │    │    │    │    │    └─LayerNorm (norm1)                      [1, 15360, 78]       [1, 15360, 78]       156                    0.00%              True
│    │    │    │    │    │    │    └─LocalWindowSelfAttention (attn)        [1, 15360, 78]       [1, 15360, 78]       --                        --              True
│    │    │    │    │    │    │    │    └─WindowMSA (attn)                  [322, 49, 78]        [322, 49, 78]        338                    0.00%              True
│    │    │    │    │    │    │    │    │    └─Linear (qkv)                 [322, 49, 78]        [322, 49, 234]       18,486                 0.02%              True
│    │    │    │    │    │    │    │    │    └─Softmax (softmax)            [322, 2, 49, 49]     [322, 2, 49, 49]     --                        --              --
│    │    │    │    │    │    │    │    │    └─Dropout (attn_drop)          [322, 2, 49, 49]     [322, 2, 49, 49]     --                        --              --
│    │    │    │    │    │    │    │    │    └─Linear (out_proj)            [322, 49, 78]        [322, 49, 78]        6,162                  0.01%              True
│    │    │    │    │    │    │    │    │    └─Dropout (proj_drop)          [322, 49, 78]        [322, 49, 78]        --                        --              --
│    │    │    │    │    │    │    └─Identity (drop_path)                   [1, 15360, 78]       [1, 15360, 78]       --                        --              --
│    │    │    │    │    │    │    └─LayerNorm (norm2)                      [1, 15360, 78]       [1, 15360, 78]       156                    0.00%              True
│    │    │    │    │    │    │    └─CrossFFN (ffn)                         [1, 15360, 78]       [1, 15360, 78]       --                        --              True
│    │    │    │    │    │    │    │    └─Sequential (layers)               [1, 78, 96, 160]     [1, 78, 96, 160]     --                        --              True
│    │    │    │    │    │    │    │    │    └─Conv2d (0)                   [1, 78, 96, 160]     [1, 312, 96, 160]    24,648                 0.02%              True
│    │    │    │    │    │    │    │    │    └─BatchNorm2d (1)              [1, 312, 96, 160]    [1, 312, 96, 160]    624                    0.00%              True
│    │    │    │    │    │    │    │    │    └─GELU (2)                     [1, 312, 96, 160]    [1, 312, 96, 160]    --                        --              --
│    │    │    │    │    │    │    │    │    └─Conv2d (3)                   [1, 312, 96, 160]    [1, 312, 96, 160]    3,120                  0.00%              True
│    │    │    │    │    │    │    │    │    └─BatchNorm2d (4)              [1, 312, 96, 160]    [1, 312, 96, 160]    624                    0.00%              True
│    │    │    │    │    │    │    │    │    └─GELU (5)                     [1, 312, 96, 160]    [1, 312, 96, 160]    --                        --              --
│    │    │    │    │    │    │    │    │    └─Conv2d (6)                   [1, 312, 96, 160]    [1, 78, 96, 160]     24,414                 0.02%              True
│    │    │    │    │    │    │    │    │    └─BatchNorm2d (7)              [1, 78, 96, 160]     [1, 78, 96, 160]     156                    0.00%              True
│    │    │    │    │    │    │    │    │    └─GELU (8)                     [1, 78, 96, 160]     [1, 78, 96, 160]     --                        --              --
│    │    │    │    │    │    │    └─Identity (drop_path)                   [1, 15360, 78]       [1, 15360, 78]       --                   (recursive)          --
│    └─ModuleList (fusion_b)                                                --                   --                   (recursive)          (recursive)          True
│    │    └─HRFuserFusionBlock (0)                                          [1, 78, 96, 160]     [1, 78, 96, 160]     --                        --              True
│    │    │    └─ModuleList (norm1)                                         --                   --                   (recursive)          (recursive)          True
│    │    │    │    └─LayerNorm (0)                                         [1, 15360, 78]       [1, 15360, 78]       156                    0.00%              True
│    │    │    └─ModuleList (norm2)                                         --                   --                   (recursive)          (recursive)          True
│    │    │    │    └─LayerNorm (0)                                         [1, 15360, 78]       [1, 15360, 78]       156                    0.00%              True
│    │    │    └─ModuleList (attn)                                          --                   --                   (recursive)          (recursive)          True
│    │    │    │    └─MultiWindowCrossAttention (0)                         [1, 15360, 78]       [1, 15360, 78]       --                        --              True
│    │    │    │    │    └─WindowMCA (attn)                                 [322, 49, 78]        [322, 49, 78]        338                    0.00%              True
│    │    │    │    │    │    └─Linear (q_proj)                             [322, 49, 78]        [322, 49, 78]        6,162                  0.01%              True
│    │    │    │    │    │    └─Linear (k_proj)                             [322, 49, 78]        [322, 49, 78]        6,162                  0.01%              True
│    │    │    │    │    │    └─Linear (v_proj)                             [322, 49, 78]        [322, 49, 78]        6,162                  0.01%              True
│    │    │    │    │    │    └─Softmax (softmax)                           [322, 2, 49, 49]     [322, 2, 49, 49]     --                        --              --
│    │    │    │    │    │    └─Dropout (attn_drop)                         [322, 2, 49, 49]     [322, 2, 49, 49]     --                        --              --
│    │    │    │    │    │    └─Linear (out_proj)                           [322, 49, 78]        [322, 49, 78]        6,162                  0.01%              True
│    │    │    │    │    │    └─Dropout (proj_drop)                         [322, 49, 78]        [322, 49, 78]        --                        --              --
│    │    │    └─DropPath (drop_path)                                       [1, 15360, 78]       [1, 15360, 78]       --                        --              --
│    │    │    └─ModuleList (norm1)                                         --                   --                   (recursive)          (recursive)          True
│    │    │    │    └─LayerNorm (1)                                         [1, 15360, 78]       [1, 15360, 78]       156                    0.00%              True
│    │    │    └─ModuleList (norm2)                                         --                   --                   (recursive)          (recursive)          True
│    │    │    │    └─LayerNorm (1)                                         [1, 15360, 78]       [1, 15360, 78]       156                    0.00%              True
│    │    │    └─ModuleList (attn)                                          --                   --                   (recursive)          (recursive)          True
│    │    │    │    └─MultiWindowCrossAttention (1)                         [1, 15360, 78]       [1, 15360, 78]       --                        --              True
│    │    │    │    │    └─WindowMCA (attn)                                 [322, 49, 78]        [322, 49, 78]        338                    0.00%              True
│    │    │    │    │    │    └─Linear (q_proj)                             [322, 49, 78]        [322, 49, 78]        6,162                  0.01%              True
│    │    │    │    │    │    └─Linear (k_proj)                             [322, 49, 78]        [322, 49, 78]        6,162                  0.01%              True
│    │    │    │    │    │    └─Linear (v_proj)                             [322, 49, 78]        [322, 49, 78]        6,162                  0.01%              True
│    │    │    │    │    │    └─Softmax (softmax)                           [322, 2, 49, 49]     [322, 2, 49, 49]     --                        --              --
│    │    │    │    │    │    └─Dropout (attn_drop)                         [322, 2, 49, 49]     [322, 2, 49, 49]     --                        --              --
│    │    │    │    │    │    └─Linear (out_proj)                           [322, 49, 78]        [322, 49, 78]        6,162                  0.01%              True
│    │    │    │    │    │    └─Dropout (proj_drop)                         [322, 49, 78]        [322, 49, 78]        --                        --              --
│    │    │    └─DropPath (drop_path)                                       [1, 15360, 78]       [1, 15360, 78]       --                   (recursive)          --
│    │    │    └─LayerNorm (norm3)                                          [1, 15360, 78]       [1, 15360, 78]       156                    0.00%              True
│    │    │    └─CrossFFN (ffn)                                             [1, 15360, 78]       [1, 15360, 78]       --                        --              True
│    │    │    │    └─Sequential (layers)                                   [1, 78, 96, 160]     [1, 78, 96, 160]     --                        --              True
│    │    │    │    │    └─Conv2d (0)                                       [1, 78, 96, 160]     [1, 312, 96, 160]    24,648                 0.02%              True
│    │    │    │    │    └─BatchNorm2d (1)                                  [1, 312, 96, 160]    [1, 312, 96, 160]    624                    0.00%              True
│    │    │    │    │    └─GELU (2)                                         [1, 312, 96, 160]    [1, 312, 96, 160]    --                        --              --
│    │    │    │    │    └─Conv2d (3)                                       [1, 312, 96, 160]    [1, 312, 96, 160]    3,120                  0.00%              True
│    │    │    │    │    └─BatchNorm2d (4)                                  [1, 312, 96, 160]    [1, 312, 96, 160]    624                    0.00%              True
│    │    │    │    │    └─GELU (5)                                         [1, 312, 96, 160]    [1, 312, 96, 160]    --                        --              --
│    │    │    │    │    └─Conv2d (6)                                       [1, 312, 96, 160]    [1, 78, 96, 160]     24,414                 0.02%              True
│    │    │    │    │    └─BatchNorm2d (7)                                  [1, 78, 96, 160]     [1, 78, 96, 160]     156                    0.00%              True
│    │    │    │    │    └─GELU (8)                                         [1, 78, 96, 160]     [1, 78, 96, 160]     --                        --              --
│    │    │    └─DropPath (drop_path)                                       [1, 15360, 78]       [1, 15360, 78]       --                   (recursive)          --
│    └─ModuleList (transition_b)                                            --                   --                   (recursive)          (recursive)          True
│    │    └─ModuleList (0)                                                  --                   --                   (recursive)          (recursive)          True
│    │    │    └─Sequential (1)                                             [1, 78, 96, 160]     [1, 156, 48, 80]     --                        --              True
│    │    │    │    └─Sequential (0)                                        [1, 78, 96, 160]     [1, 156, 48, 80]     --                        --              True
│    │    │    │    │    └─Conv2d (0)                                       [1, 78, 96, 160]     [1, 156, 48, 80]     109,512                0.10%              True
│    │    │    │    │    └─BatchNorm2d (1)                                  [1, 156, 48, 80]     [1, 156, 48, 80]     312                    0.00%              True
│    │    │    │    │    └─ReLU (2)                                         [1, 156, 48, 80]     [1, 156, 48, 80]     --                        --              --
│    │    └─ModuleList (1)                                                  --                   --                   (recursive)          (recursive)          True
│    │    │    └─Sequential (1)                                             [1, 78, 96, 160]     [1, 156, 48, 80]     --                        --              True
│    │    │    │    └─Sequential (0)                                        [1, 78, 96, 160]     [1, 156, 48, 80]     --                        --              True
│    │    │    │    │    └─Conv2d (0)                                       [1, 78, 96, 160]     [1, 156, 48, 80]     109,512                0.10%              True
│    │    │    │    │    └─BatchNorm2d (1)                                  [1, 156, 48, 80]     [1, 156, 48, 80]     312                    0.00%              True
│    │    │    │    │    └─ReLU (2)                                         [1, 156, 48, 80]     [1, 156, 48, 80]     --                        --              --
│    └─ModuleList (fusion_b)                                                --                   --                   (recursive)          (recursive)          True
│    │    └─HRFuserFusionBlock (1)                                          [1, 156, 48, 80]     [1, 156, 48, 80]     --                        --              True
│    │    │    └─ModuleList (norm1)                                         --                   --                   (recursive)          (recursive)          True
│    │    │    │    └─LayerNorm (0)                                         [1, 3840, 156]       [1, 3840, 156]       312                    0.00%              True
│    │    │    └─ModuleList (norm2)                                         --                   --                   (recursive)          (recursive)          True
│    │    │    │    └─LayerNorm (0)                                         [1, 3840, 156]       [1, 3840, 156]       312                    0.00%              True
│    │    │    └─ModuleList (attn)                                          --                   --                   (recursive)          (recursive)          True
│    │    │    │    └─MultiWindowCrossAttention (0)                         [1, 3840, 156]       [1, 3840, 156]       --                        --              True
│    │    │    │    │    └─WindowMCA (attn)                                 [84, 49, 156]        [84, 49, 156]        676                    0.00%              True
│    │    │    │    │    │    └─Linear (q_proj)                             [84, 49, 156]        [84, 49, 156]        24,492                 0.02%              True
│    │    │    │    │    │    └─Linear (k_proj)                             [84, 49, 156]        [84, 49, 156]        24,492                 0.02%              True
│    │    │    │    │    │    └─Linear (v_proj)                             [84, 49, 156]        [84, 49, 156]        24,492                 0.02%              True
│    │    │    │    │    │    └─Softmax (softmax)                           [84, 4, 49, 49]      [84, 4, 49, 49]      --                        --              --
│    │    │    │    │    │    └─Dropout (attn_drop)                         [84, 4, 49, 49]      [84, 4, 49, 49]      --                        --              --
│    │    │    │    │    │    └─Linear (out_proj)                           [84, 49, 156]        [84, 49, 156]        24,492                 0.02%              True
│    │    │    │    │    │    └─Dropout (proj_drop)                         [84, 49, 156]        [84, 49, 156]        --                        --              --
│    │    │    └─DropPath (drop_path)                                       [1, 3840, 156]       [1, 3840, 156]       --                        --              --
│    │    │    └─ModuleList (norm1)                                         --                   --                   (recursive)          (recursive)          True
│    │    │    │    └─LayerNorm (1)                                         [1, 3840, 156]       [1, 3840, 156]       312                    0.00%              True
│    │    │    └─ModuleList (norm2)                                         --                   --                   (recursive)          (recursive)          True
│    │    │    │    └─LayerNorm (1)                                         [1, 3840, 156]       [1, 3840, 156]       312                    0.00%              True
│    │    │    └─ModuleList (attn)                                          --                   --                   (recursive)          (recursive)          True
│    │    │    │    └─MultiWindowCrossAttention (1)                         [1, 3840, 156]       [1, 3840, 156]       --                        --              True
│    │    │    │    │    └─WindowMCA (attn)                                 [84, 49, 156]        [84, 49, 156]        676                    0.00%              True
│    │    │    │    │    │    └─Linear (q_proj)                             [84, 49, 156]        [84, 49, 156]        24,492                 0.02%              True
│    │    │    │    │    │    └─Linear (k_proj)                             [84, 49, 156]        [84, 49, 156]        24,492                 0.02%              True
│    │    │    │    │    │    └─Linear (v_proj)                             [84, 49, 156]        [84, 49, 156]        24,492                 0.02%              True
│    │    │    │    │    │    └─Softmax (softmax)                           [84, 4, 49, 49]      [84, 4, 49, 49]      --                        --              --
│    │    │    │    │    │    └─Dropout (attn_drop)                         [84, 4, 49, 49]      [84, 4, 49, 49]      --                        --              --
│    │    │    │    │    │    └─Linear (out_proj)                           [84, 49, 156]        [84, 49, 156]        24,492                 0.02%              True
│    │    │    │    │    │    └─Dropout (proj_drop)                         [84, 49, 156]        [84, 49, 156]        --                        --              --
│    │    │    └─DropPath (drop_path)                                       [1, 3840, 156]       [1, 3840, 156]       --                   (recursive)          --
│    │    │    └─LayerNorm (norm3)                                          [1, 3840, 156]       [1, 3840, 156]       312                    0.00%              True
│    │    │    └─CrossFFN (ffn)                                             [1, 3840, 156]       [1, 3840, 156]       --                        --              True
│    │    │    │    └─Sequential (layers)                                   [1, 156, 48, 80]     [1, 156, 48, 80]     --                        --              True
│    │    │    │    │    └─Conv2d (0)                                       [1, 156, 48, 80]     [1, 624, 48, 80]     97,968                 0.09%              True
│    │    │    │    │    └─BatchNorm2d (1)                                  [1, 624, 48, 80]     [1, 624, 48, 80]     1,248                  0.00%              True
│    │    │    │    │    └─GELU (2)                                         [1, 624, 48, 80]     [1, 624, 48, 80]     --                        --              --
│    │    │    │    │    └─Conv2d (3)                                       [1, 624, 48, 80]     [1, 624, 48, 80]     6,240                  0.01%              True
│    │    │    │    │    └─BatchNorm2d (4)                                  [1, 624, 48, 80]     [1, 624, 48, 80]     1,248                  0.00%              True
│    │    │    │    │    └─GELU (5)                                         [1, 624, 48, 80]     [1, 624, 48, 80]     --                        --              --
│    │    │    │    │    └─Conv2d (6)                                       [1, 624, 48, 80]     [1, 156, 48, 80]     97,500                 0.09%              True
│    │    │    │    │    └─BatchNorm2d (7)                                  [1, 156, 48, 80]     [1, 156, 48, 80]     312                    0.00%              True
│    │    │    │    │    └─GELU (8)                                         [1, 156, 48, 80]     [1, 156, 48, 80]     --                        --              --
│    │    │    └─DropPath (drop_path)                                       [1, 3840, 156]       [1, 3840, 156]       --                   (recursive)          --
│    └─ModuleList (transition2)                                             --                   --                   --                        --              True
│    │    └─Sequential (2)                                                  [1, 156, 48, 80]     [1, 312, 24, 40]     --                        --              True
│    │    │    └─Sequential (0)                                             [1, 156, 48, 80]     [1, 312, 24, 40]     --                        --              True
│    │    │    │    └─Conv2d (0)                                            [1, 156, 48, 80]     [1, 312, 24, 40]     438,048                0.41%              True
│    │    │    │    └─BatchNorm2d (1)                                       [1, 312, 24, 40]     [1, 312, 24, 40]     624                    0.00%              True
│    │    │    │    └─ReLU (2)                                              [1, 312, 24, 40]     [1, 312, 24, 40]     --                        --              --
│    └─ModuleList (transition_b)                                            --                   --                   (recursive)          (recursive)          True
│    │    └─ModuleList (0)                                                  --                   --                   (recursive)          (recursive)          True
│    │    │    └─Sequential (2)                                             [1, 78, 96, 160]     [1, 312, 24, 40]     --                        --              True
│    │    │    │    └─Sequential (0)                                        [1, 78, 96, 160]     [1, 78, 48, 80]      --                        --              True
│    │    │    │    │    └─Conv2d (0)                                       [1, 78, 96, 160]     [1, 78, 48, 80]      54,756                 0.05%              True
│    │    │    │    │    └─BatchNorm2d (1)                                  [1, 78, 48, 80]      [1, 78, 48, 80]      156                    0.00%              True
│    │    │    │    │    └─ReLU (2)                                         [1, 78, 48, 80]      [1, 78, 48, 80]      --                        --              --
│    │    │    │    └─Sequential (1)                                        [1, 78, 48, 80]      [1, 312, 24, 40]     --                        --              True
│    │    │    │    │    └─Conv2d (0)                                       [1, 78, 48, 80]      [1, 312, 24, 40]     219,024                0.21%              True
│    │    │    │    │    └─BatchNorm2d (1)                                  [1, 312, 24, 40]     [1, 312, 24, 40]     624                    0.00%              True
│    │    │    │    │    └─ReLU (2)                                         [1, 312, 24, 40]     [1, 312, 24, 40]     --                        --              --
│    │    └─ModuleList (1)                                                  --                   --                   (recursive)          (recursive)          True
│    │    │    └─Sequential (2)                                             [1, 78, 96, 160]     [1, 312, 24, 40]     --                        --              True
│    │    │    │    └─Sequential (0)                                        [1, 78, 96, 160]     [1, 78, 48, 80]      --                        --              True
│    │    │    │    │    └─Conv2d (0)                                       [1, 78, 96, 160]     [1, 78, 48, 80]      54,756                 0.05%              True
│    │    │    │    │    └─BatchNorm2d (1)                                  [1, 78, 48, 80]      [1, 78, 48, 80]      156                    0.00%              True
│    │    │    │    │    └─ReLU (2)                                         [1, 78, 48, 80]      [1, 78, 48, 80]      --                        --              --
│    │    │    │    └─Sequential (1)                                        [1, 78, 48, 80]      [1, 312, 24, 40]     --                        --              True
│    │    │    │    │    └─Conv2d (0)                                       [1, 78, 48, 80]      [1, 312, 24, 40]     219,024                0.21%              True
│    │    │    │    │    └─BatchNorm2d (1)                                  [1, 312, 24, 40]     [1, 312, 24, 40]     624                    0.00%              True
│    │    │    │    │    └─ReLU (2)                                         [1, 312, 24, 40]     [1, 312, 24, 40]     --                        --              --
│    └─ModuleList (fusion_b)                                                --                   --                   (recursive)          (recursive)          True
│    │    └─HRFuserFusionBlock (2)                                          [1, 312, 24, 40]     [1, 312, 24, 40]     --                        --              True
│    │    │    └─ModuleList (norm1)                                         --                   --                   (recursive)          (recursive)          True
│    │    │    │    └─LayerNorm (0)                                         [1, 960, 312]        [1, 960, 312]        624                    0.00%              True
│    │    │    └─ModuleList (norm2)                                         --                   --                   (recursive)          (recursive)          True
│    │    │    │    └─LayerNorm (0)                                         [1, 960, 312]        [1, 960, 312]        624                    0.00%              True
│    │    │    └─ModuleList (attn)                                          --                   --                   (recursive)          (recursive)          True
│    │    │    │    └─MultiWindowCrossAttention (0)                         [1, 960, 312]        [1, 960, 312]        --                        --              True
│    │    │    │    │    └─WindowMCA (attn)                                 [24, 49, 312]        [24, 49, 312]        1,352                  0.00%              True
│    │    │    │    │    │    └─Linear (q_proj)                             [24, 49, 312]        [24, 49, 312]        97,656                 0.09%              True
│    │    │    │    │    │    └─Linear (k_proj)                             [24, 49, 312]        [24, 49, 312]        97,656                 0.09%              True
│    │    │    │    │    │    └─Linear (v_proj)                             [24, 49, 312]        [24, 49, 312]        97,656                 0.09%              True
│    │    │    │    │    │    └─Softmax (softmax)                           [24, 8, 49, 49]      [24, 8, 49, 49]      --                        --              --
│    │    │    │    │    │    └─Dropout (attn_drop)                         [24, 8, 49, 49]      [24, 8, 49, 49]      --                        --              --
│    │    │    │    │    │    └─Linear (out_proj)                           [24, 49, 312]        [24, 49, 312]        97,656                 0.09%              True
│    │    │    │    │    │    └─Dropout (proj_drop)                         [24, 49, 312]        [24, 49, 312]        --                        --              --
│    │    │    └─DropPath (drop_path)                                       [1, 960, 312]        [1, 960, 312]        --                        --              --
│    │    │    └─ModuleList (norm1)                                         --                   --                   (recursive)          (recursive)          True
│    │    │    │    └─LayerNorm (1)                                         [1, 960, 312]        [1, 960, 312]        624                    0.00%              True
│    │    │    └─ModuleList (norm2)                                         --                   --                   (recursive)          (recursive)          True
│    │    │    │    └─LayerNorm (1)                                         [1, 960, 312]        [1, 960, 312]        624                    0.00%              True
│    │    │    └─ModuleList (attn)                                          --                   --                   (recursive)          (recursive)          True
│    │    │    │    └─MultiWindowCrossAttention (1)                         [1, 960, 312]        [1, 960, 312]        --                        --              True
│    │    │    │    │    └─WindowMCA (attn)                                 [24, 49, 312]        [24, 49, 312]        1,352                  0.00%              True
│    │    │    │    │    │    └─Linear (q_proj)                             [24, 49, 312]        [24, 49, 312]        97,656                 0.09%              True
│    │    │    │    │    │    └─Linear (k_proj)                             [24, 49, 312]        [24, 49, 312]        97,656                 0.09%              True
│    │    │    │    │    │    └─Linear (v_proj)                             [24, 49, 312]        [24, 49, 312]        97,656                 0.09%              True
│    │    │    │    │    │    └─Softmax (softmax)                           [24, 8, 49, 49]      [24, 8, 49, 49]      --                        --              --
│    │    │    │    │    │    └─Dropout (attn_drop)                         [24, 8, 49, 49]      [24, 8, 49, 49]      --                        --              --
│    │    │    │    │    │    └─Linear (out_proj)                           [24, 49, 312]        [24, 49, 312]        97,656                 0.09%              True
│    │    │    │    │    │    └─Dropout (proj_drop)                         [24, 49, 312]        [24, 49, 312]        --                        --              --
│    │    │    └─DropPath (drop_path)                                       [1, 960, 312]        [1, 960, 312]        --                   (recursive)          --
│    │    │    └─LayerNorm (norm3)                                          [1, 960, 312]        [1, 960, 312]        624                    0.00%              True
│    │    │    └─CrossFFN (ffn)                                             [1, 960, 312]        [1, 960, 312]        --                        --              True
│    │    │    │    └─Sequential (layers)                                   [1, 312, 24, 40]     [1, 312, 24, 40]     --                        --              True
│    │    │    │    │    └─Conv2d (0)                                       [1, 312, 24, 40]     [1, 1248, 24, 40]    390,624                0.37%              True
│    │    │    │    │    └─BatchNorm2d (1)                                  [1, 1248, 24, 40]    [1, 1248, 24, 40]    2,496                  0.00%              True
│    │    │    │    │    └─GELU (2)                                         [1, 1248, 24, 40]    [1, 1248, 24, 40]    --                        --              --
│    │    │    │    │    └─Conv2d (3)                                       [1, 1248, 24, 40]    [1, 1248, 24, 40]    12,480                 0.01%              True
│    │    │    │    │    └─BatchNorm2d (4)                                  [1, 1248, 24, 40]    [1, 1248, 24, 40]    2,496                  0.00%              True
│    │    │    │    │    └─GELU (5)                                         [1, 1248, 24, 40]    [1, 1248, 24, 40]    --                        --              --
│    │    │    │    │    └─Conv2d (6)                                       [1, 1248, 24, 40]    [1, 312, 24, 40]     389,688                0.37%              True
│    │    │    │    │    └─BatchNorm2d (7)                                  [1, 312, 24, 40]     [1, 312, 24, 40]     624                    0.00%              True
│    │    │    │    │    └─GELU (8)                                         [1, 312, 24, 40]     [1, 312, 24, 40]     --                        --              --
│    │    │    └─DropPath (drop_path)                                       [1, 960, 312]        [1, 960, 312]        --                   (recursive)          --
│    └─Sequential (stage3)                                                  [1, 78, 96, 160]     [1, 78, 96, 160]     --                        --              True
│    │    └─HRFomerModule (0)                                               [1, 78, 96, 160]     [1, 78, 96, 160]     --                        --              True
│    │    │    └─ModuleList (branches)                                      --                   --                   --                        --              True
│    │    │    │    └─Sequential (0)                                        [1, 78, 96, 160]     [1, 78, 96, 160]     --                        --              True
│    │    │    │    │    └─HRFormerBlock (0)                                [1, 78, 96, 160]     [1, 78, 96, 160]     --                        --              True
│    │    │    │    │    │    └─LayerNorm (norm1)                           [1, 15360, 78]       [1, 15360, 78]       156                    0.00%              True
│    │    │    │    │    │    └─LocalWindowSelfAttention (attn)             [1, 15360, 78]       [1, 15360, 78]       --                        --              True
│    │    │    │    │    │    │    └─WindowMSA (attn)                       [322, 49, 78]        [322, 49, 78]        338                    0.00%              True
│    │    │    │    │    │    │    │    └─Linear (qkv)                      [322, 49, 78]        [322, 49, 234]       18,486                 0.02%              True
│    │    │    │    │    │    │    │    └─Softmax (softmax)                 [322, 2, 49, 49]     [322, 2, 49, 49]     --                        --              --
│    │    │    │    │    │    │    │    └─Dropout (attn_drop)               [322, 2, 49, 49]     [322, 2, 49, 49]     --                        --              --
│    │    │    │    │    │    │    │    └─Linear (out_proj)                 [322, 49, 78]        [322, 49, 78]        6,162                  0.01%              True
│    │    │    │    │    │    │    │    └─Dropout (proj_drop)               [322, 49, 78]        [322, 49, 78]        --                        --              --
│    │    │    │    │    │    └─Identity (drop_path)                        [1, 15360, 78]       [1, 15360, 78]       --                        --              --
│    │    │    │    │    │    └─LayerNorm (norm2)                           [1, 15360, 78]       [1, 15360, 78]       156                    0.00%              True
│    │    │    │    │    │    └─CrossFFN (ffn)                              [1, 15360, 78]       [1, 15360, 78]       --                        --              True
│    │    │    │    │    │    │    └─Sequential (layers)                    [1, 78, 96, 160]     [1, 78, 96, 160]     --                        --              True
│    │    │    │    │    │    │    │    └─Conv2d (0)                        [1, 78, 96, 160]     [1, 312, 96, 160]    24,648                 0.02%              True
│    │    │    │    │    │    │    │    └─BatchNorm2d (1)                   [1, 312, 96, 160]    [1, 312, 96, 160]    624                    0.00%              True
│    │    │    │    │    │    │    │    └─GELU (2)                          [1, 312, 96, 160]    [1, 312, 96, 160]    --                        --              --
│    │    │    │    │    │    │    │    └─Conv2d (3)                        [1, 312, 96, 160]    [1, 312, 96, 160]    3,120                  0.00%              True
│    │    │    │    │    │    │    │    └─BatchNorm2d (4)                   [1, 312, 96, 160]    [1, 312, 96, 160]    624                    0.00%              True
│    │    │    │    │    │    │    │    └─GELU (5)                          [1, 312, 96, 160]    [1, 312, 96, 160]    --                        --              --
│    │    │    │    │    │    │    │    └─Conv2d (6)                        [1, 312, 96, 160]    [1, 78, 96, 160]     24,414                 0.02%              True
│    │    │    │    │    │    │    │    └─BatchNorm2d (7)                   [1, 78, 96, 160]     [1, 78, 96, 160]     156                    0.00%              True
│    │    │    │    │    │    │    │    └─GELU (8)                          [1, 78, 96, 160]     [1, 78, 96, 160]     --                        --              --
│    │    │    │    │    │    └─Identity (drop_path)                        [1, 15360, 78]       [1, 15360, 78]       --                   (recursive)          --
│    │    │    │    │    └─HRFormerBlock (1)                                [1, 78, 96, 160]     [1, 78, 96, 160]     --                        --              True
│    │    │    │    │    │    └─LayerNorm (norm1)                           [1, 15360, 78]       [1, 15360, 78]       156                    0.00%              True
│    │    │    │    │    │    └─LocalWindowSelfAttention (attn)             [1, 15360, 78]       [1, 15360, 78]       --                        --              True
│    │    │    │    │    │    │    └─WindowMSA (attn)                       [322, 49, 78]        [322, 49, 78]        338                    0.00%              True
│    │    │    │    │    │    │    │    └─Linear (qkv)                      [322, 49, 78]        [322, 49, 234]       18,486                 0.02%              True
│    │    │    │    │    │    │    │    └─Softmax (softmax)                 [322, 2, 49, 49]     [322, 2, 49, 49]     --                        --              --
│    │    │    │    │    │    │    │    └─Dropout (attn_drop)               [322, 2, 49, 49]     [322, 2, 49, 49]     --                        --              --
│    │    │    │    │    │    │    │    └─Linear (out_proj)                 [322, 49, 78]        [322, 49, 78]        6,162                  0.01%              True
│    │    │    │    │    │    │    │    └─Dropout (proj_drop)               [322, 49, 78]        [322, 49, 78]        --                        --              --
│    │    │    │    │    │    └─Identity (drop_path)                        [1, 15360, 78]       [1, 15360, 78]       --                        --              --
│    │    │    │    │    │    └─LayerNorm (norm2)                           [1, 15360, 78]       [1, 15360, 78]       156                    0.00%              True
│    │    │    │    │    │    └─CrossFFN (ffn)                              [1, 15360, 78]       [1, 15360, 78]       --                        --              True
│    │    │    │    │    │    │    └─Sequential (layers)                    [1, 78, 96, 160]     [1, 78, 96, 160]     --                        --              True
│    │    │    │    │    │    │    │    └─Conv2d (0)                        [1, 78, 96, 160]     [1, 312, 96, 160]    24,648                 0.02%              True
│    │    │    │    │    │    │    │    └─BatchNorm2d (1)                   [1, 312, 96, 160]    [1, 312, 96, 160]    624                    0.00%              True
│    │    │    │    │    │    │    │    └─GELU (2)                          [1, 312, 96, 160]    [1, 312, 96, 160]    --                        --              --
│    │    │    │    │    │    │    │    └─Conv2d (3)                        [1, 312, 96, 160]    [1, 312, 96, 160]    3,120                  0.00%              True
│    │    │    │    │    │    │    │    └─BatchNorm2d (4)                   [1, 312, 96, 160]    [1, 312, 96, 160]    624                    0.00%              True
│    │    │    │    │    │    │    │    └─GELU (5)                          [1, 312, 96, 160]    [1, 312, 96, 160]    --                        --              --
│    │    │    │    │    │    │    │    └─Conv2d (6)                        [1, 312, 96, 160]    [1, 78, 96, 160]     24,414                 0.02%              True
│    │    │    │    │    │    │    │    └─BatchNorm2d (7)                   [1, 78, 96, 160]     [1, 78, 96, 160]     156                    0.00%              True
│    │    │    │    │    │    │    │    └─GELU (8)                          [1, 78, 96, 160]     [1, 78, 96, 160]     --                        --              --
│    │    │    │    │    │    └─Identity (drop_path)                        [1, 15360, 78]       [1, 15360, 78]       --                   (recursive)          --
│    │    │    │    └─Sequential (1)                                        [1, 156, 48, 80]     [1, 156, 48, 80]     --                        --              True
│    │    │    │    │    └─HRFormerBlock (0)                                [1, 156, 48, 80]     [1, 156, 48, 80]     --                        --              True
│    │    │    │    │    │    └─LayerNorm (norm1)                           [1, 3840, 156]       [1, 3840, 156]       312                    0.00%              True
│    │    │    │    │    │    └─LocalWindowSelfAttention (attn)             [1, 3840, 156]       [1, 3840, 156]       --                        --              True
│    │    │    │    │    │    │    └─WindowMSA (attn)                       [84, 49, 156]        [84, 49, 156]        676                    0.00%              True
│    │    │    │    │    │    │    │    └─Linear (qkv)                      [84, 49, 156]        [84, 49, 468]        73,476                 0.07%              True
│    │    │    │    │    │    │    │    └─Softmax (softmax)                 [84, 4, 49, 49]      [84, 4, 49, 49]      --                        --              --
│    │    │    │    │    │    │    │    └─Dropout (attn_drop)               [84, 4, 49, 49]      [84, 4, 49, 49]      --                        --              --
│    │    │    │    │    │    │    │    └─Linear (out_proj)                 [84, 49, 156]        [84, 49, 156]        24,492                 0.02%              True
│    │    │    │    │    │    │    │    └─Dropout (proj_drop)               [84, 49, 156]        [84, 49, 156]        --                        --              --
│    │    │    │    │    │    └─Identity (drop_path)                        [1, 3840, 156]       [1, 3840, 156]       --                        --              --
│    │    │    │    │    │    └─LayerNorm (norm2)                           [1, 3840, 156]       [1, 3840, 156]       312                    0.00%              True
│    │    │    │    │    │    └─CrossFFN (ffn)                              [1, 3840, 156]       [1, 3840, 156]       --                        --              True
│    │    │    │    │    │    │    └─Sequential (layers)                    [1, 156, 48, 80]     [1, 156, 48, 80]     --                        --              True
│    │    │    │    │    │    │    │    └─Conv2d (0)                        [1, 156, 48, 80]     [1, 624, 48, 80]     97,968                 0.09%              True
│    │    │    │    │    │    │    │    └─BatchNorm2d (1)                   [1, 624, 48, 80]     [1, 624, 48, 80]     1,248                  0.00%              True
│    │    │    │    │    │    │    │    └─GELU (2)                          [1, 624, 48, 80]     [1, 624, 48, 80]     --                        --              --
│    │    │    │    │    │    │    │    └─Conv2d (3)                        [1, 624, 48, 80]     [1, 624, 48, 80]     6,240                  0.01%              True
│    │    │    │    │    │    │    │    └─BatchNorm2d (4)                   [1, 624, 48, 80]     [1, 624, 48, 80]     1,248                  0.00%              True
│    │    │    │    │    │    │    │    └─GELU (5)                          [1, 624, 48, 80]     [1, 624, 48, 80]     --                        --              --
│    │    │    │    │    │    │    │    └─Conv2d (6)                        [1, 624, 48, 80]     [1, 156, 48, 80]     97,500                 0.09%              True
│    │    │    │    │    │    │    │    └─BatchNorm2d (7)                   [1, 156, 48, 80]     [1, 156, 48, 80]     312                    0.00%              True
│    │    │    │    │    │    │    │    └─GELU (8)                          [1, 156, 48, 80]     [1, 156, 48, 80]     --                        --              --
│    │    │    │    │    │    └─Identity (drop_path)                        [1, 3840, 156]       [1, 3840, 156]       --                   (recursive)          --
│    │    │    │    │    └─HRFormerBlock (1)                                [1, 156, 48, 80]     [1, 156, 48, 80]     --                        --              True
│    │    │    │    │    │    └─LayerNorm (norm1)                           [1, 3840, 156]       [1, 3840, 156]       312                    0.00%              True
│    │    │    │    │    │    └─LocalWindowSelfAttention (attn)             [1, 3840, 156]       [1, 3840, 156]       --                        --              True
│    │    │    │    │    │    │    └─WindowMSA (attn)                       [84, 49, 156]        [84, 49, 156]        676                    0.00%              True
│    │    │    │    │    │    │    │    └─Linear (qkv)                      [84, 49, 156]        [84, 49, 468]        73,476                 0.07%              True
│    │    │    │    │    │    │    │    └─Softmax (softmax)                 [84, 4, 49, 49]      [84, 4, 49, 49]      --                        --              --
│    │    │    │    │    │    │    │    └─Dropout (attn_drop)               [84, 4, 49, 49]      [84, 4, 49, 49]      --                        --              --
│    │    │    │    │    │    │    │    └─Linear (out_proj)                 [84, 49, 156]        [84, 49, 156]        24,492                 0.02%              True
│    │    │    │    │    │    │    │    └─Dropout (proj_drop)               [84, 49, 156]        [84, 49, 156]        --                        --              --
│    │    │    │    │    │    └─Identity (drop_path)                        [1, 3840, 156]       [1, 3840, 156]       --                        --              --
│    │    │    │    │    │    └─LayerNorm (norm2)                           [1, 3840, 156]       [1, 3840, 156]       312                    0.00%              True
│    │    │    │    │    │    └─CrossFFN (ffn)                              [1, 3840, 156]       [1, 3840, 156]       --                        --              True
│    │    │    │    │    │    │    └─Sequential (layers)                    [1, 156, 48, 80]     [1, 156, 48, 80]     --                        --              True
│    │    │    │    │    │    │    │    └─Conv2d (0)                        [1, 156, 48, 80]     [1, 624, 48, 80]     97,968                 0.09%              True
│    │    │    │    │    │    │    │    └─BatchNorm2d (1)                   [1, 624, 48, 80]     [1, 624, 48, 80]     1,248                  0.00%              True
│    │    │    │    │    │    │    │    └─GELU (2)                          [1, 624, 48, 80]     [1, 624, 48, 80]     --                        --              --
│    │    │    │    │    │    │    │    └─Conv2d (3)                        [1, 624, 48, 80]     [1, 624, 48, 80]     6,240                  0.01%              True
│    │    │    │    │    │    │    │    └─BatchNorm2d (4)                   [1, 624, 48, 80]     [1, 624, 48, 80]     1,248                  0.00%              True
│    │    │    │    │    │    │    │    └─GELU (5)                          [1, 624, 48, 80]     [1, 624, 48, 80]     --                        --              --
│    │    │    │    │    │    │    │    └─Conv2d (6)                        [1, 624, 48, 80]     [1, 156, 48, 80]     97,500                 0.09%              True
│    │    │    │    │    │    │    │    └─BatchNorm2d (7)                   [1, 156, 48, 80]     [1, 156, 48, 80]     312                    0.00%              True
│    │    │    │    │    │    │    │    └─GELU (8)                          [1, 156, 48, 80]     [1, 156, 48, 80]     --                        --              --
│    │    │    │    │    │    └─Identity (drop_path)                        [1, 3840, 156]       [1, 3840, 156]       --                   (recursive)          --
│    │    │    │    └─Sequential (2)                                        [1, 312, 24, 40]     [1, 312, 24, 40]     --                        --              True
│    │    │    │    │    └─HRFormerBlock (0)                                [1, 312, 24, 40]     [1, 312, 24, 40]     --                        --              True
│    │    │    │    │    │    └─LayerNorm (norm1)                           [1, 960, 312]        [1, 960, 312]        624                    0.00%              True
│    │    │    │    │    │    └─LocalWindowSelfAttention (attn)             [1, 960, 312]        [1, 960, 312]        --                        --              True
│    │    │    │    │    │    │    └─WindowMSA (attn)                       [24, 49, 312]        [24, 49, 312]        1,352                  0.00%              True
│    │    │    │    │    │    │    │    └─Linear (qkv)                      [24, 49, 312]        [24, 49, 936]        292,968                0.28%              True
│    │    │    │    │    │    │    │    └─Softmax (softmax)                 [24, 8, 49, 49]      [24, 8, 49, 49]      --                        --              --
│    │    │    │    │    │    │    │    └─Dropout (attn_drop)               [24, 8, 49, 49]      [24, 8, 49, 49]      --                        --              --
│    │    │    │    │    │    │    │    └─Linear (out_proj)                 [24, 49, 312]        [24, 49, 312]        97,656                 0.09%              True
│    │    │    │    │    │    │    │    └─Dropout (proj_drop)               [24, 49, 312]        [24, 49, 312]        --                        --              --
│    │    │    │    │    │    └─Identity (drop_path)                        [1, 960, 312]        [1, 960, 312]        --                        --              --
│    │    │    │    │    │    └─LayerNorm (norm2)                           [1, 960, 312]        [1, 960, 312]        624                    0.00%              True
│    │    │    │    │    │    └─CrossFFN (ffn)                              [1, 960, 312]        [1, 960, 312]        --                        --              True
│    │    │    │    │    │    │    └─Sequential (layers)                    [1, 312, 24, 40]     [1, 312, 24, 40]     --                        --              True
│    │    │    │    │    │    │    │    └─Conv2d (0)                        [1, 312, 24, 40]     [1, 1248, 24, 40]    390,624                0.37%              True
│    │    │    │    │    │    │    │    └─BatchNorm2d (1)                   [1, 1248, 24, 40]    [1, 1248, 24, 40]    2,496                  0.00%              True
│    │    │    │    │    │    │    │    └─GELU (2)                          [1, 1248, 24, 40]    [1, 1248, 24, 40]    --                        --              --
│    │    │    │    │    │    │    │    └─Conv2d (3)                        [1, 1248, 24, 40]    [1, 1248, 24, 40]    12,480                 0.01%              True
│    │    │    │    │    │    │    │    └─BatchNorm2d (4)                   [1, 1248, 24, 40]    [1, 1248, 24, 40]    2,496                  0.00%              True
│    │    │    │    │    │    │    │    └─GELU (5)                          [1, 1248, 24, 40]    [1, 1248, 24, 40]    --                        --              --
│    │    │    │    │    │    │    │    └─Conv2d (6)                        [1, 1248, 24, 40]    [1, 312, 24, 40]     389,688                0.37%              True
│    │    │    │    │    │    │    │    └─BatchNorm2d (7)                   [1, 312, 24, 40]     [1, 312, 24, 40]     624                    0.00%              True
│    │    │    │    │    │    │    │    └─GELU (8)                          [1, 312, 24, 40]     [1, 312, 24, 40]     --                        --              --
│    │    │    │    │    │    └─Identity (drop_path)                        [1, 960, 312]        [1, 960, 312]        --                   (recursive)          --
│    │    │    │    │    └─HRFormerBlock (1)                                [1, 312, 24, 40]     [1, 312, 24, 40]     --                        --              True
│    │    │    │    │    │    └─LayerNorm (norm1)                           [1, 960, 312]        [1, 960, 312]        624                    0.00%              True
│    │    │    │    │    │    └─LocalWindowSelfAttention (attn)             [1, 960, 312]        [1, 960, 312]        --                        --              True
│    │    │    │    │    │    │    └─WindowMSA (attn)                       [24, 49, 312]        [24, 49, 312]        1,352                  0.00%              True
│    │    │    │    │    │    │    │    └─Linear (qkv)                      [24, 49, 312]        [24, 49, 936]        292,968                0.28%              True
│    │    │    │    │    │    │    │    └─Softmax (softmax)                 [24, 8, 49, 49]      [24, 8, 49, 49]      --                        --              --
│    │    │    │    │    │    │    │    └─Dropout (attn_drop)               [24, 8, 49, 49]      [24, 8, 49, 49]      --                        --              --
│    │    │    │    │    │    │    │    └─Linear (out_proj)                 [24, 49, 312]        [24, 49, 312]        97,656                 0.09%              True
│    │    │    │    │    │    │    │    └─Dropout (proj_drop)               [24, 49, 312]        [24, 49, 312]        --                        --              --
│    │    │    │    │    │    └─Identity (drop_path)                        [1, 960, 312]        [1, 960, 312]        --                        --              --
│    │    │    │    │    │    └─LayerNorm (norm2)                           [1, 960, 312]        [1, 960, 312]        624                    0.00%              True
│    │    │    │    │    │    └─CrossFFN (ffn)                              [1, 960, 312]        [1, 960, 312]        --                        --              True
│    │    │    │    │    │    │    └─Sequential (layers)                    [1, 312, 24, 40]     [1, 312, 24, 40]     --                        --              True
│    │    │    │    │    │    │    │    └─Conv2d (0)                        [1, 312, 24, 40]     [1, 1248, 24, 40]    390,624                0.37%              True
│    │    │    │    │    │    │    │    └─BatchNorm2d (1)                   [1, 1248, 24, 40]    [1, 1248, 24, 40]    2,496                  0.00%              True
│    │    │    │    │    │    │    │    └─GELU (2)                          [1, 1248, 24, 40]    [1, 1248, 24, 40]    --                        --              --
│    │    │    │    │    │    │    │    └─Conv2d (3)                        [1, 1248, 24, 40]    [1, 1248, 24, 40]    12,480                 0.01%              True
│    │    │    │    │    │    │    │    └─BatchNorm2d (4)                   [1, 1248, 24, 40]    [1, 1248, 24, 40]    2,496                  0.00%              True
│    │    │    │    │    │    │    │    └─GELU (5)                          [1, 1248, 24, 40]    [1, 1248, 24, 40]    --                        --              --
│    │    │    │    │    │    │    │    └─Conv2d (6)                        [1, 1248, 24, 40]    [1, 312, 24, 40]     389,688                0.37%              True
│    │    │    │    │    │    │    │    └─BatchNorm2d (7)                   [1, 312, 24, 40]     [1, 312, 24, 40]     624                    0.00%              True
│    │    │    │    │    │    │    │    └─GELU (8)                          [1, 312, 24, 40]     [1, 312, 24, 40]     --                        --              --
│    │    │    │    │    │    └─Identity (drop_path)                        [1, 960, 312]        [1, 960, 312]        --                   (recursive)          --
│    │    │    └─ModuleList (fuse_layers)                                   --                   --                   (recursive)          (recursive)          True
│    │    │    │    └─ModuleList (0)                                        --                   --                   --                        --              True
│    │    │    │    │    └─Sequential (1)                                   [1, 156, 48, 80]     [1, 78, 48, 80]      --                        --              True
│    │    │    │    │    │    └─Conv2d (0)                                  [1, 156, 48, 80]     [1, 78, 48, 80]      12,168                 0.01%              True
│    │    │    │    │    │    └─BatchNorm2d (1)                             [1, 78, 48, 80]      [1, 78, 48, 80]      156                    0.00%              True
│    │    │    │    │    └─Sequential (2)                                   [1, 312, 24, 40]     [1, 78, 24, 40]      --                        --              True
│    │    │    │    │    │    └─Conv2d (0)                                  [1, 312, 24, 40]     [1, 78, 24, 40]      24,336                 0.02%              True
│    │    │    │    │    │    └─BatchNorm2d (1)                             [1, 78, 24, 40]      [1, 78, 24, 40]      156                    0.00%              True
│    │    │    └─ReLU (relu)                                                [1, 78, 96, 160]     [1, 78, 96, 160]     --                        --              --
│    │    │    └─ModuleList (fuse_layers)                                   --                   --                   (recursive)          (recursive)          True
│    │    │    │    └─ModuleList (1)                                        --                   --                   --                        --              True
│    │    │    │    │    └─Sequential (0)                                   [1, 78, 96, 160]     [1, 156, 48, 80]     --                        --              True
│    │    │    │    │    │    └─Sequential (0)                              [1, 78, 96, 160]     [1, 156, 48, 80]     --                        --              True
│    │    │    │    │    │    │    └─Conv2d (0)                             [1, 78, 96, 160]     [1, 78, 48, 80]      702                    0.00%              True
│    │    │    │    │    │    │    └─BatchNorm2d (1)                        [1, 78, 48, 80]      [1, 78, 48, 80]      156                    0.00%              True
│    │    │    │    │    │    │    └─Conv2d (2)                             [1, 78, 48, 80]      [1, 156, 48, 80]     12,168                 0.01%              True
│    │    │    │    │    │    │    └─BatchNorm2d (3)                        [1, 156, 48, 80]     [1, 156, 48, 80]     312                    0.00%              True
│    │    │    │    │    └─Sequential (2)                                   [1, 312, 24, 40]     [1, 156, 24, 40]     --                        --              True
│    │    │    │    │    │    └─Conv2d (0)                                  [1, 312, 24, 40]     [1, 156, 24, 40]     48,672                 0.05%              True
│    │    │    │    │    │    └─BatchNorm2d (1)                             [1, 156, 24, 40]     [1, 156, 24, 40]     312                    0.00%              True
│    │    │    └─ReLU (relu)                                                [1, 156, 48, 80]     [1, 156, 48, 80]     --                   (recursive)          --
│    │    │    └─ModuleList (fuse_layers)                                   --                   --                   (recursive)          (recursive)          True
│    │    │    │    └─ModuleList (2)                                        --                   --                   --                        --              True
│    │    │    │    │    └─Sequential (0)                                   [1, 78, 96, 160]     [1, 312, 24, 40]     --                        --              True
│    │    │    │    │    │    └─Sequential (0)                              [1, 78, 96, 160]     [1, 78, 48, 80]      --                        --              True
│    │    │    │    │    │    │    └─Conv2d (0)                             [1, 78, 96, 160]     [1, 78, 48, 80]      702                    0.00%              True
│    │    │    │    │    │    │    └─BatchNorm2d (1)                        [1, 78, 48, 80]      [1, 78, 48, 80]      156                    0.00%              True
│    │    │    │    │    │    │    └─Conv2d (2)                             [1, 78, 48, 80]      [1, 78, 48, 80]      6,084                  0.01%              True
│    │    │    │    │    │    │    └─BatchNorm2d (3)                        [1, 78, 48, 80]      [1, 78, 48, 80]      156                    0.00%              True
│    │    │    │    │    │    │    └─ReLU (4)                               [1, 78, 48, 80]      [1, 78, 48, 80]      --                        --              --
│    │    │    │    │    │    └─Sequential (1)                              [1, 78, 48, 80]      [1, 312, 24, 40]     --                        --              True
│    │    │    │    │    │    │    └─Conv2d (0)                             [1, 78, 48, 80]      [1, 78, 24, 40]      702                    0.00%              True
│    │    │    │    │    │    │    └─BatchNorm2d (1)                        [1, 78, 24, 40]      [1, 78, 24, 40]      156                    0.00%              True
│    │    │    │    │    │    │    └─Conv2d (2)                             [1, 78, 24, 40]      [1, 312, 24, 40]     24,336                 0.02%              True
│    │    │    │    │    │    │    └─BatchNorm2d (3)                        [1, 312, 24, 40]     [1, 312, 24, 40]     624                    0.00%              True
│    │    │    │    │    └─Sequential (1)                                   [1, 156, 48, 80]     [1, 312, 24, 40]     --                        --              True
│    │    │    │    │    │    └─Sequential (0)                              [1, 156, 48, 80]     [1, 312, 24, 40]     --                        --              True
│    │    │    │    │    │    │    └─Conv2d (0)                             [1, 156, 48, 80]     [1, 156, 24, 40]     1,404                  0.00%              True
│    │    │    │    │    │    │    └─BatchNorm2d (1)                        [1, 156, 24, 40]     [1, 156, 24, 40]     312                    0.00%              True
│    │    │    │    │    │    │    └─Conv2d (2)                             [1, 156, 24, 40]     [1, 312, 24, 40]     48,672                 0.05%              True
│    │    │    │    │    │    │    └─BatchNorm2d (3)                        [1, 312, 24, 40]     [1, 312, 24, 40]     624                    0.00%              True
│    │    │    └─ReLU (relu)                                                [1, 312, 24, 40]     [1, 312, 24, 40]     --                   (recursive)          --
│    │    └─HRFomerModule (1)                                               [1, 78, 96, 160]     [1, 78, 96, 160]     --                        --              True
│    │    │    └─ModuleList (branches)                                      --                   --                   --                        --              True
│    │    │    │    └─Sequential (0)                                        [1, 78, 96, 160]     [1, 78, 96, 160]     --                        --              True
│    │    │    │    │    └─HRFormerBlock (0)                                [1, 78, 96, 160]     [1, 78, 96, 160]     --                        --              True
│    │    │    │    │    │    └─LayerNorm (norm1)                           [1, 15360, 78]       [1, 15360, 78]       156                    0.00%              True
│    │    │    │    │    │    └─LocalWindowSelfAttention (attn)             [1, 15360, 78]       [1, 15360, 78]       --                        --              True
│    │    │    │    │    │    │    └─WindowMSA (attn)                       [322, 49, 78]        [322, 49, 78]        338                    0.00%              True
│    │    │    │    │    │    │    │    └─Linear (qkv)                      [322, 49, 78]        [322, 49, 234]       18,486                 0.02%              True
│    │    │    │    │    │    │    │    └─Softmax (softmax)                 [322, 2, 49, 49]     [322, 2, 49, 49]     --                        --              --
│    │    │    │    │    │    │    │    └─Dropout (attn_drop)               [322, 2, 49, 49]     [322, 2, 49, 49]     --                        --              --
│    │    │    │    │    │    │    │    └─Linear (out_proj)                 [322, 49, 78]        [322, 49, 78]        6,162                  0.01%              True
│    │    │    │    │    │    │    │    └─Dropout (proj_drop)               [322, 49, 78]        [322, 49, 78]        --                        --              --
│    │    │    │    │    │    └─Identity (drop_path)                        [1, 15360, 78]       [1, 15360, 78]       --                        --              --
│    │    │    │    │    │    └─LayerNorm (norm2)                           [1, 15360, 78]       [1, 15360, 78]       156                    0.00%              True
│    │    │    │    │    │    └─CrossFFN (ffn)                              [1, 15360, 78]       [1, 15360, 78]       --                        --              True
│    │    │    │    │    │    │    └─Sequential (layers)                    [1, 78, 96, 160]     [1, 78, 96, 160]     --                        --              True
│    │    │    │    │    │    │    │    └─Conv2d (0)                        [1, 78, 96, 160]     [1, 312, 96, 160]    24,648                 0.02%              True
│    │    │    │    │    │    │    │    └─BatchNorm2d (1)                   [1, 312, 96, 160]    [1, 312, 96, 160]    624                    0.00%              True
│    │    │    │    │    │    │    │    └─GELU (2)                          [1, 312, 96, 160]    [1, 312, 96, 160]    --                        --              --
│    │    │    │    │    │    │    │    └─Conv2d (3)                        [1, 312, 96, 160]    [1, 312, 96, 160]    3,120                  0.00%              True
│    │    │    │    │    │    │    │    └─BatchNorm2d (4)                   [1, 312, 96, 160]    [1, 312, 96, 160]    624                    0.00%              True
│    │    │    │    │    │    │    │    └─GELU (5)                          [1, 312, 96, 160]    [1, 312, 96, 160]    --                        --              --
│    │    │    │    │    │    │    │    └─Conv2d (6)                        [1, 312, 96, 160]    [1, 78, 96, 160]     24,414                 0.02%              True
│    │    │    │    │    │    │    │    └─BatchNorm2d (7)                   [1, 78, 96, 160]     [1, 78, 96, 160]     156                    0.00%              True
│    │    │    │    │    │    │    │    └─GELU (8)                          [1, 78, 96, 160]     [1, 78, 96, 160]     --                        --              --
│    │    │    │    │    │    └─Identity (drop_path)                        [1, 15360, 78]       [1, 15360, 78]       --                   (recursive)          --
│    │    │    │    │    └─HRFormerBlock (1)                                [1, 78, 96, 160]     [1, 78, 96, 160]     --                        --              True
│    │    │    │    │    │    └─LayerNorm (norm1)                           [1, 15360, 78]       [1, 15360, 78]       156                    0.00%              True
│    │    │    │    │    │    └─LocalWindowSelfAttention (attn)             [1, 15360, 78]       [1, 15360, 78]       --                        --              True
│    │    │    │    │    │    │    └─WindowMSA (attn)                       [322, 49, 78]        [322, 49, 78]        338                    0.00%              True
│    │    │    │    │    │    │    │    └─Linear (qkv)                      [322, 49, 78]        [322, 49, 234]       18,486                 0.02%              True
│    │    │    │    │    │    │    │    └─Softmax (softmax)                 [322, 2, 49, 49]     [322, 2, 49, 49]     --                        --              --
│    │    │    │    │    │    │    │    └─Dropout (attn_drop)               [322, 2, 49, 49]     [322, 2, 49, 49]     --                        --              --
│    │    │    │    │    │    │    │    └─Linear (out_proj)                 [322, 49, 78]        [322, 49, 78]        6,162                  0.01%              True
│    │    │    │    │    │    │    │    └─Dropout (proj_drop)               [322, 49, 78]        [322, 49, 78]        --                        --              --
│    │    │    │    │    │    └─Identity (drop_path)                        [1, 15360, 78]       [1, 15360, 78]       --                        --              --
│    │    │    │    │    │    └─LayerNorm (norm2)                           [1, 15360, 78]       [1, 15360, 78]       156                    0.00%              True
│    │    │    │    │    │    └─CrossFFN (ffn)                              [1, 15360, 78]       [1, 15360, 78]       --                        --              True
│    │    │    │    │    │    │    └─Sequential (layers)                    [1, 78, 96, 160]     [1, 78, 96, 160]     --                        --              True
│    │    │    │    │    │    │    │    └─Conv2d (0)                        [1, 78, 96, 160]     [1, 312, 96, 160]    24,648                 0.02%              True
│    │    │    │    │    │    │    │    └─BatchNorm2d (1)                   [1, 312, 96, 160]    [1, 312, 96, 160]    624                    0.00%              True
│    │    │    │    │    │    │    │    └─GELU (2)                          [1, 312, 96, 160]    [1, 312, 96, 160]    --                        --              --
│    │    │    │    │    │    │    │    └─Conv2d (3)                        [1, 312, 96, 160]    [1, 312, 96, 160]    3,120                  0.00%              True
│    │    │    │    │    │    │    │    └─BatchNorm2d (4)                   [1, 312, 96, 160]    [1, 312, 96, 160]    624                    0.00%              True
│    │    │    │    │    │    │    │    └─GELU (5)                          [1, 312, 96, 160]    [1, 312, 96, 160]    --                        --              --
│    │    │    │    │    │    │    │    └─Conv2d (6)                        [1, 312, 96, 160]    [1, 78, 96, 160]     24,414                 0.02%              True
│    │    │    │    │    │    │    │    └─BatchNorm2d (7)                   [1, 78, 96, 160]     [1, 78, 96, 160]     156                    0.00%              True
│    │    │    │    │    │    │    │    └─GELU (8)                          [1, 78, 96, 160]     [1, 78, 96, 160]     --                        --              --
│    │    │    │    │    │    └─Identity (drop_path)                        [1, 15360, 78]       [1, 15360, 78]       --                   (recursive)          --
│    │    │    │    └─Sequential (1)                                        [1, 156, 48, 80]     [1, 156, 48, 80]     --                        --              True
│    │    │    │    │    └─HRFormerBlock (0)                                [1, 156, 48, 80]     [1, 156, 48, 80]     --                        --              True
│    │    │    │    │    │    └─LayerNorm (norm1)                           [1, 3840, 156]       [1, 3840, 156]       312                    0.00%              True
│    │    │    │    │    │    └─LocalWindowSelfAttention (attn)             [1, 3840, 156]       [1, 3840, 156]       --                        --              True
│    │    │    │    │    │    │    └─WindowMSA (attn)                       [84, 49, 156]        [84, 49, 156]        676                    0.00%              True
│    │    │    │    │    │    │    │    └─Linear (qkv)                      [84, 49, 156]        [84, 49, 468]        73,476                 0.07%              True
│    │    │    │    │    │    │    │    └─Softmax (softmax)                 [84, 4, 49, 49]      [84, 4, 49, 49]      --                        --              --
│    │    │    │    │    │    │    │    └─Dropout (attn_drop)               [84, 4, 49, 49]      [84, 4, 49, 49]      --                        --              --
│    │    │    │    │    │    │    │    └─Linear (out_proj)                 [84, 49, 156]        [84, 49, 156]        24,492                 0.02%              True
│    │    │    │    │    │    │    │    └─Dropout (proj_drop)               [84, 49, 156]        [84, 49, 156]        --                        --              --
│    │    │    │    │    │    └─Identity (drop_path)                        [1, 3840, 156]       [1, 3840, 156]       --                        --              --
│    │    │    │    │    │    └─LayerNorm (norm2)                           [1, 3840, 156]       [1, 3840, 156]       312                    0.00%              True
│    │    │    │    │    │    └─CrossFFN (ffn)                              [1, 3840, 156]       [1, 3840, 156]       --                        --              True
│    │    │    │    │    │    │    └─Sequential (layers)                    [1, 156, 48, 80]     [1, 156, 48, 80]     --                        --              True
│    │    │    │    │    │    │    │    └─Conv2d (0)                        [1, 156, 48, 80]     [1, 624, 48, 80]     97,968                 0.09%              True
│    │    │    │    │    │    │    │    └─BatchNorm2d (1)                   [1, 624, 48, 80]     [1, 624, 48, 80]     1,248                  0.00%              True
│    │    │    │    │    │    │    │    └─GELU (2)                          [1, 624, 48, 80]     [1, 624, 48, 80]     --                        --              --
│    │    │    │    │    │    │    │    └─Conv2d (3)                        [1, 624, 48, 80]     [1, 624, 48, 80]     6,240                  0.01%              True
│    │    │    │    │    │    │    │    └─BatchNorm2d (4)                   [1, 624, 48, 80]     [1, 624, 48, 80]     1,248                  0.00%              True
│    │    │    │    │    │    │    │    └─GELU (5)                          [1, 624, 48, 80]     [1, 624, 48, 80]     --                        --              --
│    │    │    │    │    │    │    │    └─Conv2d (6)                        [1, 624, 48, 80]     [1, 156, 48, 80]     97,500                 0.09%              True
│    │    │    │    │    │    │    │    └─BatchNorm2d (7)                   [1, 156, 48, 80]     [1, 156, 48, 80]     312                    0.00%              True
│    │    │    │    │    │    │    │    └─GELU (8)                          [1, 156, 48, 80]     [1, 156, 48, 80]     --                        --              --
│    │    │    │    │    │    └─Identity (drop_path)                        [1, 3840, 156]       [1, 3840, 156]       --                   (recursive)          --
│    │    │    │    │    └─HRFormerBlock (1)                                [1, 156, 48, 80]     [1, 156, 48, 80]     --                        --              True
│    │    │    │    │    │    └─LayerNorm (norm1)                           [1, 3840, 156]       [1, 3840, 156]       312                    0.00%              True
│    │    │    │    │    │    └─LocalWindowSelfAttention (attn)             [1, 3840, 156]       [1, 3840, 156]       --                        --              True
│    │    │    │    │    │    │    └─WindowMSA (attn)                       [84, 49, 156]        [84, 49, 156]        676                    0.00%              True
│    │    │    │    │    │    │    │    └─Linear (qkv)                      [84, 49, 156]        [84, 49, 468]        73,476                 0.07%              True
│    │    │    │    │    │    │    │    └─Softmax (softmax)                 [84, 4, 49, 49]      [84, 4, 49, 49]      --                        --              --
│    │    │    │    │    │    │    │    └─Dropout (attn_drop)               [84, 4, 49, 49]      [84, 4, 49, 49]      --                        --              --
│    │    │    │    │    │    │    │    └─Linear (out_proj)                 [84, 49, 156]        [84, 49, 156]        24,492                 0.02%              True
│    │    │    │    │    │    │    │    └─Dropout (proj_drop)               [84, 49, 156]        [84, 49, 156]        --                        --              --
│    │    │    │    │    │    └─Identity (drop_path)                        [1, 3840, 156]       [1, 3840, 156]       --                        --              --
│    │    │    │    │    │    └─LayerNorm (norm2)                           [1, 3840, 156]       [1, 3840, 156]       312                    0.00%              True
│    │    │    │    │    │    └─CrossFFN (ffn)                              [1, 3840, 156]       [1, 3840, 156]       --                        --              True
│    │    │    │    │    │    │    └─Sequential (layers)                    [1, 156, 48, 80]     [1, 156, 48, 80]     --                        --              True
│    │    │    │    │    │    │    │    └─Conv2d (0)                        [1, 156, 48, 80]     [1, 624, 48, 80]     97,968                 0.09%              True
│    │    │    │    │    │    │    │    └─BatchNorm2d (1)                   [1, 624, 48, 80]     [1, 624, 48, 80]     1,248                  0.00%              True
│    │    │    │    │    │    │    │    └─GELU (2)                          [1, 624, 48, 80]     [1, 624, 48, 80]     --                        --              --
│    │    │    │    │    │    │    │    └─Conv2d (3)                        [1, 624, 48, 80]     [1, 624, 48, 80]     6,240                  0.01%              True
│    │    │    │    │    │    │    │    └─BatchNorm2d (4)                   [1, 624, 48, 80]     [1, 624, 48, 80]     1,248                  0.00%              True
│    │    │    │    │    │    │    │    └─GELU (5)                          [1, 624, 48, 80]     [1, 624, 48, 80]     --                        --              --
│    │    │    │    │    │    │    │    └─Conv2d (6)                        [1, 624, 48, 80]     [1, 156, 48, 80]     97,500                 0.09%              True
│    │    │    │    │    │    │    │    └─BatchNorm2d (7)                   [1, 156, 48, 80]     [1, 156, 48, 80]     312                    0.00%              True
│    │    │    │    │    │    │    │    └─GELU (8)                          [1, 156, 48, 80]     [1, 156, 48, 80]     --                        --              --
│    │    │    │    │    │    └─Identity (drop_path)                        [1, 3840, 156]       [1, 3840, 156]       --                   (recursive)          --
│    │    │    │    └─Sequential (2)                                        [1, 312, 24, 40]     [1, 312, 24, 40]     --                        --              True
│    │    │    │    │    └─HRFormerBlock (0)                                [1, 312, 24, 40]     [1, 312, 24, 40]     --                        --              True
│    │    │    │    │    │    └─LayerNorm (norm1)                           [1, 960, 312]        [1, 960, 312]        624                    0.00%              True
│    │    │    │    │    │    └─LocalWindowSelfAttention (attn)             [1, 960, 312]        [1, 960, 312]        --                        --              True
│    │    │    │    │    │    │    └─WindowMSA (attn)                       [24, 49, 312]        [24, 49, 312]        1,352                  0.00%              True
│    │    │    │    │    │    │    │    └─Linear (qkv)                      [24, 49, 312]        [24, 49, 936]        292,968                0.28%              True
│    │    │    │    │    │    │    │    └─Softmax (softmax)                 [24, 8, 49, 49]      [24, 8, 49, 49]      --                        --              --
│    │    │    │    │    │    │    │    └─Dropout (attn_drop)               [24, 8, 49, 49]      [24, 8, 49, 49]      --                        --              --
│    │    │    │    │    │    │    │    └─Linear (out_proj)                 [24, 49, 312]        [24, 49, 312]        97,656                 0.09%              True
│    │    │    │    │    │    │    │    └─Dropout (proj_drop)               [24, 49, 312]        [24, 49, 312]        --                        --              --
│    │    │    │    │    │    └─Identity (drop_path)                        [1, 960, 312]        [1, 960, 312]        --                        --              --
│    │    │    │    │    │    └─LayerNorm (norm2)                           [1, 960, 312]        [1, 960, 312]        624                    0.00%              True
│    │    │    │    │    │    └─CrossFFN (ffn)                              [1, 960, 312]        [1, 960, 312]        --                        --              True
│    │    │    │    │    │    │    └─Sequential (layers)                    [1, 312, 24, 40]     [1, 312, 24, 40]     --                        --              True
│    │    │    │    │    │    │    │    └─Conv2d (0)                        [1, 312, 24, 40]     [1, 1248, 24, 40]    390,624                0.37%              True
…
│    │    │    │    │    │    │    │    └─GELU (5)                          [1, 624, 48, 80]     [1, 624, 48, 80]     --                        --              --
│    │    │    │    │    │    │    │    └─Conv2d (6)                        [1, 624, 48, 80]     [1, 156, 48, 80]     97,500                 0.09%              True
│    │    │    │    │    │    │    │    └─BatchNorm2d (7)                   [1, 156, 48, 80]     [1, 156, 48, 80]     312                    0.00%              True
│    │    │    │    │    │    │    │    └─GELU (8)                          [1, 156, 48, 80]     [1, 156, 48, 80]     --                        --              --
│    │    │    │    │    │    └─Identity (drop_path)                        [1, 3840, 156]       [1, 3840, 156]       --                   (recursive)          --
│    │    │    │    │    └─HRFormerBlock (1)                                [1, 156, 48, 80]     [1, 156, 48, 80]     --                        --              True
│    │    │    │    │    │    └─LayerNorm (norm1)                           [1, 3840, 156]       [1, 3840, 156]       312                    0.00%              True
│    │    │    │    │    │    └─LocalWindowSelfAttention (attn)             [1, 3840, 156]       [1, 3840, 156]       --                        --              True
│    │    │    │    │    │    │    └─WindowMSA (attn)                       [84, 49, 156]        [84, 49, 156]        676                    0.00%              True
│    │    │    │    │    │    │    │    └─Linear (qkv)                      [84, 49, 156]        [84, 49, 468]        73,476                 0.07%              True
│    │    │    │    │    │    │    │    └─Softmax (softmax)                 [84, 4, 49, 49]      [84, 4, 49, 49]      --                        --              --
│    │    │    │    │    │    │    │    └─Dropout (attn_drop)               [84, 4, 49, 49]      [84, 4, 49, 49]      --                        --              --
│    │    │    │    │    │    │    │    └─Linear (out_proj)                 [84, 49, 156]        [84, 49, 156]        24,492                 0.02%              True
│    │    │    │    │    │    │    │    └─Dropout (proj_drop)               [84, 49, 156]        [84, 49, 156]        --                        --              --
│    │    │    │    │    │    └─Identity (drop_path)                        [1, 3840, 156]       [1, 3840, 156]       --                        --              --
│    │    │    │    │    │    └─LayerNorm (norm2)                           [1, 3840, 156]       [1, 3840, 156]       312                    0.00%              True
│    │    │    │    │    │    └─CrossFFN (ffn)                              [1, 3840, 156]       [1, 3840, 156]       --                        --              True
│    │    │    │    │    │    │    └─Sequential (layers)                    [1, 156, 48, 80]     [1, 156, 48, 80]     --                        --              True
│    │    │    │    │    │    │    │    └─Conv2d (0)                        [1, 156, 48, 80]     [1, 624, 48, 80]     97,968                 0.09%              True
│    │    │    │    │    │    │    │    └─BatchNorm2d (1)                   [1, 624, 48, 80]     [1, 624, 48, 80]     1,248                  0.00%              True
│    │    │    │    │    │    │    │    └─GELU (2)                          [1, 624, 48, 80]     [1, 624, 48, 80]     --                        --              --
│    │    │    │    │    │    │    │    └─Conv2d (3)                        [1, 624, 48, 80]     [1, 624, 48, 80]     6,240                  0.01%              True
│    │    │    │    │    │    │    │    └─BatchNorm2d (4)                   [1, 624, 48, 80]     [1, 624, 48, 80]     1,248                  0.00%              True
│    │    │    │    │    │    │    │    └─GELU (5)                          [1, 624, 48, 80]     [1, 624, 48, 80]     --                        --              --
│    │    │    │    │    │    │    │    └─Conv2d (6)                        [1, 624, 48, 80]     [1, 156, 48, 80]     97,500                 0.09%              True
│    │    │    │    │    │    │    │    └─BatchNorm2d (7)                   [1, 156, 48, 80]     [1, 156, 48, 80]     312                    0.00%              True
│    │    │    │    │    │    │    │    └─GELU (8)                          [1, 156, 48, 80]     [1, 156, 48, 80]     --                        --              --
│    │    │    │    │    │    └─Identity (drop_path)                        [1, 3840, 156]       [1, 3840, 156]       --                   (recursive)          --
│    │    │    │    └─Sequential (2)                                        [1, 312, 24, 40]     [1, 312, 24, 40]     --                        --              True
│    │    │    │    │    └─HRFormerBlock (0)                                [1, 312, 24, 40]     [1, 312, 24, 40]     --                        --              True
│    │    │    │    │    │    └─LayerNorm (norm1)                           [1, 960, 312]        [1, 960, 312]        624                    0.00%              True
│    │    │    │    │    │    └─LocalWindowSelfAttention (attn)             [1, 960, 312]        [1, 960, 312]        --                        --              True
│    │    │    │    │    │    │    └─WindowMSA (attn)                       [24, 49, 312]        [24, 49, 312]        1,352                  0.00%              True
│    │    │    │    │    │    │    │    └─Linear (qkv)                      [24, 49, 312]        [24, 49, 936]        292,968                0.28%              True
│    │    │    │    │    │    │    │    └─Softmax (softmax)                 [24, 8, 49, 49]      [24, 8, 49, 49]      --                        --              --
│    │    │    │    │    │    │    │    └─Dropout (attn_drop)               [24, 8, 49, 49]      [24, 8, 49, 49]      --                        --              --
│    │    │    │    │    │    │    │    └─Linear (out_proj)                 [24, 49, 312]        [24, 49, 312]        97,656                 0.09%              True
│    │    │    │    │    │    │    │    └─Dropout (proj_drop)               [24, 49, 312]        [24, 49, 312]        --                        --              --
│    │    │    │    │    │    └─Identity (drop_path)                        [1, 960, 312]        [1, 960, 312]        --                        --              --
│    │    │    │    │    │    └─LayerNorm (norm2)                           [1, 960, 312]        [1, 960, 312]        624                    0.00%              True
│    │    │    │    │    │    └─CrossFFN (ffn)                              [1, 960, 312]        [1, 960, 312]        --                        --              True
│    │    │    │    │    │    │    └─Sequential (layers)                    [1, 312, 24, 40]     [1, 312, 24, 40]     --                        --              True
│    │    │    │    │    │    │    │    └─Conv2d (0)                        [1, 312, 24, 40]     [1, 1248, 24, 40]    390,624                0.37%              True
│    │    │    │    │    │    │    │    └─BatchNorm2d (1)                   [1, 1248, 24, 40]    [1, 1248, 24, 40]    2,496                  0.00%              True
│    │    │    │    │    │    │    │    └─GELU (2)                          [1, 1248, 24, 40]    [1, 1248, 24, 40]    --                        --              --
│    │    │    │    │    │    │    │    └─Conv2d (3)                        [1, 1248, 24, 40]    [1, 1248, 24, 40]    12,480                 0.01%              True
│    │    │    │    │    │    │    │    └─BatchNorm2d (4)                   [1, 1248, 24, 40]    [1, 1248, 24, 40]    2,496                  0.00%              True
│    │    │    │    │    │    │    │    └─GELU (5)                          [1, 1248, 24, 40]    [1, 1248, 24, 40]    --                        --              --
│    │    │    │    │    │    │    │    └─Conv2d (6)                        [1, 1248, 24, 40]    [1, 312, 24, 40]     389,688                0.37%              True
│    │    │    │    │    │    │    │    └─BatchNorm2d (7)                   [1, 312, 24, 40]     [1, 312, 24, 40]     624                    0.00%              True
│    │    │    │    │    │    │    │    └─GELU (8)                          [1, 312, 24, 40]     [1, 312, 24, 40]     --                        --              --
│    │    │    │    │    │    └─Identity (drop_path)                        [1, 960, 312]        [1, 960, 312]        --                   (recursive)          --
│    │    │    │    │    └─HRFormerBlock (1)                                [1, 312, 24, 40]     [1, 312, 24, 40]     --                        --              True
│    │    │    │    │    │    └─LayerNorm (norm1)                           [1, 960, 312]        [1, 960, 312]        624                    0.00%              True
│    │    │    │    │    │    └─LocalWindowSelfAttention (attn)             [1, 960, 312]        [1, 960, 312]        --                        --              True
│    │    │    │    │    │    │    └─WindowMSA (attn)                       [24, 49, 312]        [24, 49, 312]        1,352                  0.00%              True
│    │    │    │    │    │    │    │    └─Linear (qkv)                      [24, 49, 312]        [24, 49, 936]        292,968                0.28%              True
│    │    │    │    │    │    │    │    └─Softmax (softmax)                 [24, 8, 49, 49]      [24, 8, 49, 49]      --                        --              --
│    │    │    │    │    │    │    │    └─Dropout (attn_drop)               [24, 8, 49, 49]      [24, 8, 49, 49]      --                        --              --
│    │    │    │    │    │    │    │    └─Linear (out_proj)                 [24, 49, 312]        [24, 49, 312]        97,656                 0.09%              True
│    │    │    │    │    │    │    │    └─Dropout (proj_drop)               [24, 49, 312]        [24, 49, 312]        --                        --              --
│    │    │    │    │    │    └─Identity (drop_path)                        [1, 960, 312]        [1, 960, 312]        --                        --              --
│    │    │    │    │    │    └─LayerNorm (norm2)                           [1, 960, 312]        [1, 960, 312]        624                    0.00%              True
│    │    │    │    │    │    └─CrossFFN (ffn)                              [1, 960, 312]        [1, 960, 312]        --                        --              True
│    │    │    │    │    │    │    └─Sequential (layers)                    [1, 312, 24, 40]     [1, 312, 24, 40]     --                        --              True
│    │    │    │    │    │    │    │    └─Conv2d (0)                        [1, 312, 24, 40]     [1, 1248, 24, 40]    390,624                0.37%              True
│    │    │    │    │    │    │    │    └─BatchNorm2d (1)                   [1, 1248, 24, 40]    [1, 1248, 24, 40]    2,496                  0.00%              True
│    │    │    │    │    │    │    │    └─GELU (2)                          [1, 1248, 24, 40]    [1, 1248, 24, 40]    --                        --              --
│    │    │    │    │    │    │    │    └─Conv2d (3)                        [1, 1248, 24, 40]    [1, 1248, 24, 40]    12,480                 0.01%              True
│    │    │    │    │    │    │    │    └─BatchNorm2d (4)                   [1, 1248, 24, 40]    [1, 1248, 24, 40]    2,496                  0.00%              True
│    │    │    │    │    │    │    │    └─GELU (5)                          [1, 1248, 24, 40]    [1, 1248, 24, 40]    --                        --              --
│    │    │    │    │    │    │    │    └─Conv2d (6)                        [1, 1248, 24, 40]    [1, 312, 24, 40]     389,688                0.37%              True
│    │    │    │    │    │    │    │    └─BatchNorm2d (7)                   [1, 312, 24, 40]     [1, 312, 24, 40]     624                    0.00%              True
│    │    │    │    │    │    │    │    └─GELU (8)                          [1, 312, 24, 40]     [1, 312, 24, 40]     --                        --              --
│    │    │    │    │    │    └─Identity (drop_path)                        [1, 960, 312]        [1, 960, 312]        --                   (recursive)          --
│    │    │    │    └─Sequential (3)                                        [1, 624, 12, 20]     [1, 624, 12, 20]     --                        --              True
│    │    │    │    │    └─HRFormerBlock (0)                                [1, 624, 12, 20]     [1, 624, 12, 20]     --                        --              True
│    │    │    │    │    │    └─LayerNorm (norm1)                           [1, 240, 624]        [1, 240, 624]        1,248                  0.00%              True
│    │    │    │    │    │    └─LocalWindowSelfAttention (attn)             [1, 240, 624]        [1, 240, 624]        --                        --              True
│    │    │    │    │    │    │    └─WindowMSA (attn)                       [6, 49, 624]         [6, 49, 624]         2,704                  0.00%              True
│    │    │    │    │    │    │    │    └─Linear (qkv)                      [6, 49, 624]         [6, 49, 1872]        1,170,000              1.10%              True
│    │    │    │    │    │    │    │    └─Softmax (softmax)                 [6, 16, 49, 49]      [6, 16, 49, 49]      --                        --              --
│    │    │    │    │    │    │    │    └─Dropout (attn_drop)               [6, 16, 49, 49]      [6, 16, 49, 49]      --                        --              --
│    │    │    │    │    │    │    │    └─Linear (out_proj)                 [6, 49, 624]         [6, 49, 624]         390,000                0.37%              True
│    │    │    │    │    │    │    │    └─Dropout (proj_drop)               [6, 49, 624]         [6, 49, 624]         --                        --              --
│    │    │    │    │    │    └─Identity (drop_path)                        [1, 240, 624]        [1, 240, 624]        --                        --              --
│    │    │    │    │    │    └─LayerNorm (norm2)                           [1, 240, 624]        [1, 240, 624]        1,248                  0.00%              True
│    │    │    │    │    │    └─CrossFFN (ffn)                              [1, 240, 624]        [1, 240, 624]        --                        --              True
│    │    │    │    │    │    │    └─Sequential (layers)                    [1, 624, 12, 20]     [1, 624, 12, 20]     --                        --              True
│    │    │    │    │    │    │    │    └─Conv2d (0)                        [1, 624, 12, 20]     [1, 2496, 12, 20]    1,560,000              1.47%              True
│    │    │    │    │    │    │    │    └─BatchNorm2d (1)                   [1, 2496, 12, 20]    [1, 2496, 12, 20]    4,992                  0.00%              True
│    │    │    │    │    │    │    │    └─GELU (2)                          [1, 2496, 12, 20]    [1, 2496, 12, 20]    --                        --              --
│    │    │    │    │    │    │    │    └─Conv2d (3)                        [1, 2496, 12, 20]    [1, 2496, 12, 20]    24,960                 0.02%              True
│    │    │    │    │    │    │    │    └─BatchNorm2d (4)                   [1, 2496, 12, 20]    [1, 2496, 12, 20]    4,992                  0.00%              True
│    │    │    │    │    │    │    │    └─GELU (5)                          [1, 2496, 12, 20]    [1, 2496, 12, 20]    --                        --              --
│    │    │    │    │    │    │    │    └─Conv2d (6)                        [1, 2496, 12, 20]    [1, 624, 12, 20]     1,558,128              1.47%              True
│    │    │    │    │    │    │    │    └─BatchNorm2d (7)                   [1, 624, 12, 20]     [1, 624, 12, 20]     1,248                  0.00%              True
│    │    │    │    │    │    │    │    └─GELU (8)                          [1, 624, 12, 20]     [1, 624, 12, 20]     --                        --              --
│    │    │    │    │    │    └─Identity (drop_path)                        [1, 240, 624]        [1, 240, 624]        --                   (recursive)          --
│    │    │    │    │    └─HRFormerBlock (1)                                [1, 624, 12, 20]     [1, 624, 12, 20]     --                        --              True
│    │    │    │    │    │    └─LayerNorm (norm1)                           [1, 240, 624]        [1, 240, 624]        1,248                  0.00%              True
│    │    │    │    │    │    └─LocalWindowSelfAttention (attn)             [1, 240, 624]        [1, 240, 624]        --                        --              True
│    │    │    │    │    │    │    └─WindowMSA (attn)                       [6, 49, 624]         [6, 49, 624]         2,704                  0.00%              True
│    │    │    │    │    │    │    │    └─Linear (qkv)                      [6, 49, 624]         [6, 49, 1872]        1,170,000              1.10%              True
│    │    │    │    │    │    │    │    └─Softmax (softmax)                 [6, 16, 49, 49]      [6, 16, 49, 49]      --                        --              --
│    │    │    │    │    │    │    │    └─Dropout (attn_drop)               [6, 16, 49, 49]      [6, 16, 49, 49]      --                        --              --
│    │    │    │    │    │    │    │    └─Linear (out_proj)                 [6, 49, 624]         [6, 49, 624]         390,000                0.37%              True
│    │    │    │    │    │    │    │    └─Dropout (proj_drop)               [6, 49, 624]         [6, 49, 624]         --                        --              --
│    │    │    │    │    │    └─Identity (drop_path)                        [1, 240, 624]        [1, 240, 624]        --                        --              --
│    │    │    │    │    │    └─LayerNorm (norm2)                           [1, 240, 624]        [1, 240, 624]        1,248                  0.00%              True
│    │    │    │    │    │    └─CrossFFN (ffn)                              [1, 240, 624]        [1, 240, 624]        --                        --              True
│    │    │    │    │    │    │    └─Sequential (layers)                    [1, 624, 12, 20]     [1, 624, 12, 20]     --                        --              True
│    │    │    │    │    │    │    │    └─Conv2d (0)                        [1, 624, 12, 20]     [1, 2496, 12, 20]    1,560,000              1.47%              True
│    │    │    │    │    │    │    │    └─BatchNorm2d (1)                   [1, 2496, 12, 20]    [1, 2496, 12, 20]    4,992                  0.00%              True
│    │    │    │    │    │    │    │    └─GELU (2)                          [1, 2496, 12, 20]    [1, 2496, 12, 20]    --                        --              --
│    │    │    │    │    │    │    │    └─Conv2d (3)                        [1, 2496, 12, 20]    [1, 2496, 12, 20]    24,960                 0.02%              True
│    │    │    │    │    │    │    │    └─BatchNorm2d (4)                   [1, 2496, 12, 20]    [1, 2496, 12, 20]    4,992                  0.00%              True
│    │    │    │    │    │    │    │    └─GELU (5)                          [1, 2496, 12, 20]    [1, 2496, 12, 20]    --                        --              --
│    │    │    │    │    │    │    │    └─Conv2d (6)                        [1, 2496, 12, 20]    [1, 624, 12, 20]     1,558,128              1.47%              True
│    │    │    │    │    │    │    │    └─BatchNorm2d (7)                   [1, 624, 12, 20]     [1, 624, 12, 20]     1,248                  0.00%              True
│    │    │    │    │    │    │    │    └─GELU (8)                          [1, 624, 12, 20]     [1, 624, 12, 20]     --                        --              --
│    │    │    │    │    │    └─Identity (drop_path)                        [1, 240, 624]        [1, 240, 624]        --                   (recursive)          --
│    │    │    └─ModuleList (fuse_layers)                                   --                   --                   (recursive)          (recursive)          True
│    │    │    │    └─ModuleList (0)                                        --                   --                   --                        --              True
│    │    │    │    │    └─Sequential (1)                                   [1, 156, 48, 80]     [1, 78, 48, 80]      --                        --              True
│    │    │    │    │    │    └─Conv2d (0)                                  [1, 156, 48, 80]     [1, 78, 48, 80]      12,168                 0.01%              True
│    │    │    │    │    │    └─BatchNorm2d (1)                             [1, 78, 48, 80]      [1, 78, 48, 80]      156                    0.00%              True
│    │    │    │    │    └─Sequential (2)                                   [1, 312, 24, 40]     [1, 78, 24, 40]      --                        --              True
│    │    │    │    │    │    └─Conv2d (0)                                  [1, 312, 24, 40]     [1, 78, 24, 40]      24,336                 0.02%              True
│    │    │    │    │    │    └─BatchNorm2d (1)                             [1, 78, 24, 40]      [1, 78, 24, 40]      156                    0.00%              True
│    │    │    │    │    └─Sequential (3)                                   [1, 624, 12, 20]     [1, 78, 12, 20]      --                        --              True
│    │    │    │    │    │    └─Conv2d (0)                                  [1, 624, 12, 20]     [1, 78, 12, 20]      48,672                 0.05%              True
│    │    │    │    │    │    └─BatchNorm2d (1)                             [1, 78, 12, 20]      [1, 78, 12, 20]      156                    0.00%              True
│    │    │    └─ReLU (relu)                                                [1, 78, 96, 160]     [1, 78, 96, 160]     --                        --              --
│    │    │    └─ModuleList (fuse_layers)                                   --                   --                   (recursive)          (recursive)          True
│    │    │    │    └─ModuleList (1)                                        --                   --                   --                        --              True
│    │    │    │    │    └─Sequential (0)                                   [1, 78, 96, 160]     [1, 156, 48, 80]     --                        --              True
│    │    │    │    │    │    └─Sequential (0)                              [1, 78, 96, 160]     [1, 156, 48, 80]     --                        --              True
│    │    │    │    │    │    │    └─Conv2d (0)                             [1, 78, 96, 160]     [1, 78, 48, 80]      702                    0.00%              True
│    │    │    │    │    │    │    └─BatchNorm2d (1)                        [1, 78, 48, 80]      [1, 78, 48, 80]      156                    0.00%              True
│    │    │    │    │    │    │    └─Conv2d (2)                             [1, 78, 48, 80]      [1, 156, 48, 80]     12,168                 0.01%              True
│    │    │    │    │    │    │    └─BatchNorm2d (3)                        [1, 156, 48, 80]     [1, 156, 48, 80]     312                    0.00%              True
│    │    │    │    │    └─Sequential (2)                                   [1, 312, 24, 40]     [1, 156, 24, 40]     --                        --              True
│    │    │    │    │    │    └─Conv2d (0)                                  [1, 312, 24, 40]     [1, 156, 24, 40]     48,672                 0.05%              True
│    │    │    │    │    │    └─BatchNorm2d (1)                             [1, 156, 24, 40]     [1, 156, 24, 40]     312                    0.00%              True
│    │    │    │    │    └─Sequential (3)                                   [1, 624, 12, 20]     [1, 156, 12, 20]     --                        --              True
│    │    │    │    │    │    └─Conv2d (0)                                  [1, 624, 12, 20]     [1, 156, 12, 20]     97,344                 0.09%              True
│    │    │    │    │    │    └─BatchNorm2d (1)                             [1, 156, 12, 20]     [1, 156, 12, 20]     312                    0.00%              True
│    │    │    └─ReLU (relu)                                                [1, 156, 48, 80]     [1, 156, 48, 80]     --                   (recursive)          --
│    │    │    └─ModuleList (fuse_layers)                                   --                   --                   (recursive)          (recursive)          True
│    │    │    │    └─ModuleList (2)                                        --                   --                   --                        --              True
│    │    │    │    │    └─Sequential (0)                                   [1, 78, 96, 160]     [1, 312, 24, 40]     --                        --              True
│    │    │    │    │    │    └─Sequential (0)                              [1, 78, 96, 160]     [1, 78, 48, 80]      --                        --              True
│    │    │    │    │    │    │    └─Conv2d (0)                             [1, 78, 96, 160]     [1, 78, 48, 80]      702                    0.00%              True
│    │    │    │    │    │    │    └─BatchNorm2d (1)                        [1, 78, 48, 80]      [1, 78, 48, 80]      156                    0.00%              True
│    │    │    │    │    │    │    └─Conv2d (2)                             [1, 78, 48, 80]      [1, 78, 48, 80]      6,084                  0.01%              True
│    │    │    │    │    │    │    └─BatchNorm2d (3)                        [1, 78, 48, 80]      [1, 78, 48, 80]      156                    0.00%              True
│    │    │    │    │    │    │    └─ReLU (4)                               [1, 78, 48, 80]      [1, 78, 48, 80]      --                        --              --
│    │    │    │    │    │    └─Sequential (1)                              [1, 78, 48, 80]      [1, 312, 24, 40]     --                        --              True
│    │    │    │    │    │    │    └─Conv2d (0)                             [1, 78, 48, 80]      [1, 78, 24, 40]      702                    0.00%              True
│    │    │    │    │    │    │    └─BatchNorm2d (1)                        [1, 78, 24, 40]      [1, 78, 24, 40]      156                    0.00%              True
│    │    │    │    │    │    │    └─Conv2d (2)                             [1, 78, 24, 40]      [1, 312, 24, 40]     24,336                 0.02%              True
│    │    │    │    │    │    │    └─BatchNorm2d (3)                        [1, 312, 24, 40]     [1, 312, 24, 40]     624                    0.00%              True
│    │    │    │    │    └─Sequential (1)                                   [1, 156, 48, 80]     [1, 312, 24, 40]     --                        --              True
│    │    │    │    │    │    └─Sequential (0)                              [1, 156, 48, 80]     [1, 312, 24, 40]     --                        --              True
│    │    │    │    │    │    │    └─Conv2d (0)                             [1, 156, 48, 80]     [1, 156, 24, 40]     1,404                  0.00%              True
│    │    │    │    │    │    │    └─BatchNorm2d (1)                        [1, 156, 24, 40]     [1, 156, 24, 40]     312                    0.00%              True
│    │    │    │    │    │    │    └─Conv2d (2)                             [1, 156, 24, 40]     [1, 312, 24, 40]     48,672                 0.05%              True
│    │    │    │    │    │    │    └─BatchNorm2d (3)                        [1, 312, 24, 40]     [1, 312, 24, 40]     624                    0.00%              True
│    │    │    │    │    └─Sequential (3)                                   [1, 624, 12, 20]     [1, 312, 12, 20]     --                        --              True
│    │    │    │    │    │    └─Conv2d (0)                                  [1, 624, 12, 20]     [1, 312, 12, 20]     194,688                0.18%              True
│    │    │    │    │    │    └─BatchNorm2d (1)                             [1, 312, 12, 20]     [1, 312, 12, 20]     624                    0.00%              True
│    │    │    └─ReLU (relu)                                                [1, 312, 24, 40]     [1, 312, 24, 40]     --                   (recursive)          --
│    │    │    └─ModuleList (fuse_layers)                                   --                   --                   (recursive)          (recursive)          True
│    │    │    │    └─ModuleList (3)                                        --                   --                   --                        --              True
│    │    │    │    │    └─Sequential (0)                                   [1, 78, 96, 160]     [1, 624, 12, 20]     --                        --              True
│    │    │    │    │    │    └─Sequential (0)                              [1, 78, 96, 160]     [1, 78, 48, 80]      --                        --              True
│    │    │    │    │    │    │    └─Conv2d (0)                             [1, 78, 96, 160]     [1, 78, 48, 80]      702                    0.00%              True
│    │    │    │    │    │    │    └─BatchNorm2d (1)                        [1, 78, 48, 80]      [1, 78, 48, 80]      156                    0.00%              True
│    │    │    │    │    │    │    └─Conv2d (2)                             [1, 78, 48, 80]      [1, 78, 48, 80]      6,084                  0.01%              True
│    │    │    │    │    │    │    └─BatchNorm2d (3)                        [1, 78, 48, 80]      [1, 78, 48, 80]      156                    0.00%              True
│    │    │    │    │    │    │    └─ReLU (4)                               [1, 78, 48, 80]      [1, 78, 48, 80]      --                        --              --
│    │    │    │    │    │    └─Sequential (1)                              [1, 78, 48, 80]      [1, 78, 24, 40]      --                        --              True
│    │    │    │    │    │    │    └─Conv2d (0)                             [1, 78, 48, 80]      [1, 78, 24, 40]      702                    0.00%              True
│    │    │    │    │    │    │    └─BatchNorm2d (1)                        [1, 78, 24, 40]      [1, 78, 24, 40]      156                    0.00%              True
│    │    │    │    │    │    │    └─Conv2d (2)                             [1, 78, 24, 40]      [1, 78, 24, 40]      6,084                  0.01%              True
│    │    │    │    │    │    │    └─BatchNorm2d (3)                        [1, 78, 24, 40]      [1, 78, 24, 40]      156                    0.00%              True
│    │    │    │    │    │    │    └─ReLU (4)                               [1, 78, 24, 40]      [1, 78, 24, 40]      --                        --              --
│    │    │    │    │    │    └─Sequential (2)                              [1, 78, 24, 40]      [1, 624, 12, 20]     --                        --              True
│    │    │    │    │    │    │    └─Conv2d (0)                             [1, 78, 24, 40]      [1, 78, 12, 20]      702                    0.00%              True
│    │    │    │    │    │    │    └─BatchNorm2d (1)                        [1, 78, 12, 20]      [1, 78, 12, 20]      156                    0.00%              True
│    │    │    │    │    │    │    └─Conv2d (2)                             [1, 78, 12, 20]      [1, 624, 12, 20]     48,672                 0.05%              True
│    │    │    │    │    │    │    └─BatchNorm2d (3)                        [1, 624, 12, 20]     [1, 624, 12, 20]     1,248                  0.00%              True
│    │    │    │    │    └─Sequential (1)                                   [1, 156, 48, 80]     [1, 624, 12, 20]     --                        --              True
│    │    │    │    │    │    └─Sequential (0)                              [1, 156, 48, 80]     [1, 156, 24, 40]     --                        --              True
│    │    │    │    │    │    │    └─Conv2d (0)                             [1, 156, 48, 80]     [1, 156, 24, 40]     1,404                  0.00%              True
│    │    │    │    │    │    │    └─BatchNorm2d (1)                        [1, 156, 24, 40]     [1, 156, 24, 40]     312                    0.00%              True
│    │    │    │    │    │    │    └─Conv2d (2)                             [1, 156, 24, 40]     [1, 156, 24, 40]     24,336                 0.02%              True
│    │    │    │    │    │    │    └─BatchNorm2d (3)                        [1, 156, 24, 40]     [1, 156, 24, 40]     312                    0.00%              True
│    │    │    │    │    │    │    └─ReLU (4)                               [1, 156, 24, 40]     [1, 156, 24, 40]     --                        --              --
│    │    │    │    │    │    └─Sequential (1)                              [1, 156, 24, 40]     [1, 624, 12, 20]     --                        --              True
│    │    │    │    │    │    │    └─Conv2d (0)                             [1, 156, 24, 40]     [1, 156, 12, 20]     1,404                  0.00%              True
│    │    │    │    │    │    │    └─BatchNorm2d (1)                        [1, 156, 12, 20]     [1, 156, 12, 20]     312                    0.00%              True
│    │    │    │    │    │    │    └─Conv2d (2)                             [1, 156, 12, 20]     [1, 624, 12, 20]     97,344                 0.09%              True
│    │    │    │    │    │    │    └─BatchNorm2d (3)                        [1, 624, 12, 20]     [1, 624, 12, 20]     1,248                  0.00%              True
│    │    │    │    │    └─Sequential (2)                                   [1, 312, 24, 40]     [1, 624, 12, 20]     --                        --              True
│    │    │    │    │    │    └─Sequential (0)                              [1, 312, 24, 40]     [1, 624, 12, 20]     --                        --              True
│    │    │    │    │    │    │    └─Conv2d (0)                             [1, 312, 24, 40]     [1, 312, 12, 20]     2,808                  0.00%              True
│    │    │    │    │    │    │    └─BatchNorm2d (1)                        [1, 312, 12, 20]     [1, 312, 12, 20]     624                    0.00%              True
│    │    │    │    │    │    │    └─Conv2d (2)                             [1, 312, 12, 20]     [1, 624, 12, 20]     194,688                0.18%              True
│    │    │    │    │    │    │    └─BatchNorm2d (3)                        [1, 624, 12, 20]     [1, 624, 12, 20]     1,248                  0.00%              True
│    │    │    └─ReLU (relu)                                                [1, 624, 12, 20]     [1, 624, 12, 20]     --                   (recursive)          --
├─HRFPN (neck)                                                              [1, 78, 96, 160]     [1, 256, 96, 160]    --                        --              True
│    └─ConvModule (reduction_conv)                                          [1, 1170, 96, 160]   [1, 256, 96, 160]    --                        --              True
│    │    └─Conv2d (conv)                                                   [1, 1170, 96, 160]   [1, 256, 96, 160]    299,776                0.28%              True
│    └─ModuleList (fpn_convs)                                               --                   --                   --                        --              True
│    │    └─ConvModule (0)                                                  [1, 256, 96, 160]    [1, 256, 96, 160]    --                        --              True
│    │    │    └─Conv2d (conv)                                              [1, 256, 96, 160]    [1, 256, 96, 160]    590,080                0.56%              True
│    │    └─ConvModule (1)                                                  [1, 256, 48, 80]     [1, 256, 48, 80]     --                        --              True
│    │    │    └─Conv2d (conv)                                              [1, 256, 48, 80]     [1, 256, 48, 80]     590,080                0.56%              True
│    │    └─ConvModule (2)                                                  [1, 256, 24, 40]     [1, 256, 24, 40]     --                        --              True
│    │    │    └─Conv2d (conv)                                              [1, 256, 24, 40]     [1, 256, 24, 40]     590,080                0.56%              True
│    │    └─ConvModule (3)                                                  [1, 256, 12, 20]     [1, 256, 12, 20]     --                        --              True
│    │    │    └─Conv2d (conv)                                              [1, 256, 12, 20]     [1, 256, 12, 20]     590,080                0.56%              True
│    │    └─ConvModule (4)                                                  [1, 256, 6, 10]      [1, 256, 6, 10]      --                        --              True
│    │    │    └─Conv2d (conv)                                              [1, 256, 6, 10]      [1, 256, 6, 10]      590,080                0.56%              True
├─RPNHead (rpn_head)                                                        [1, 256, 96, 160]    [1, 3, 96, 160]      --                        --              True
│    └─Conv2d (rpn_conv)                                                    [1, 256, 96, 160]    [1, 256, 96, 160]    590,080                0.56%              True
│    └─Conv2d (rpn_cls)                                                     [1, 256, 96, 160]    [1, 3, 96, 160]      771                    0.00%              True
│    └─Conv2d (rpn_reg)                                                     [1, 256, 96, 160]    [1, 12, 96, 160]     3,084                  0.00%              True
│    └─Conv2d (rpn_conv)                                                    [1, 256, 48, 80]     [1, 256, 48, 80]     (recursive)          (recursive)          True
│    └─Conv2d (rpn_cls)                                                     [1, 256, 48, 80]     [1, 3, 48, 80]       (recursive)          (recursive)          True
│    └─Conv2d (rpn_reg)                                                     [1, 256, 48, 80]     [1, 12, 48, 80]      (recursive)          (recursive)          True
…
│    └─Conv2d (rpn_reg)                                                     [1, 256, 12, 20]     [1, 12, 12, 20]      (recursive)          (recursive)          True
│    └─Conv2d (rpn_conv)                                                    [1, 256, 6, 10]      [1, 256, 6, 10]      (recursive)          (recursive)          True
│    └─Conv2d (rpn_cls)                                                     [1, 256, 6, 10]      [1, 3, 6, 10]        (recursive)          (recursive)          True
│    └─Conv2d (rpn_reg)                                                     [1, 256, 6, 10]      [1, 12, 6, 10]       (recursive)          (recursive)          True
│    └─CrossEntropyLoss (loss_cls)                                          [46080, 1]           --                   --                        --              --
│    └─SmoothL1Loss (loss_bbox)                                             [46080, 4]           --                   --                        --              --
│    └─CrossEntropyLoss (loss_cls)                                          [11520, 1]           --                   --                   (recursive)          --
│    └─SmoothL1Loss (loss_bbox)                                             [11520, 4]           --                   --                   (recursive)          --
│    └─CrossEntropyLoss (loss_cls)                                          [2880, 1]            --                   --                   (recursive)          --
│    └─SmoothL1Loss (loss_bbox)                                             [2880, 4]            --                   --                   (recursive)          --
│    └─CrossEntropyLoss (loss_cls)                                          [720, 1]             --                   --                   (recursive)          --
│    └─SmoothL1Loss (loss_bbox)                                             [720, 4]             --                   --                   (recursive)          --
│    └─CrossEntropyLoss (loss_cls)                                          [180, 1]             --                   --                   (recursive)          --
│    └─SmoothL1Loss (loss_bbox)                                             [180, 4]             --                   --                   (recursive)          --
├─CascadeRoIHead (roi_head)                                                 --                   --                   --                        --              True
│    └─ModuleList (bbox_roi_extractor)                                      --                   --                   --                   (recursive)          --
│    │    └─SingleRoIExtractor (0)                                          [1, 256, 96, 160]    [512, 256, 7, 7]     --                        --              --
│    │    │    └─ModuleList (roi_layers)                                    --                   --                   --                        --              --
│    │    │    │    └─RoIAlign (0)                                          [1, 256, 96, 160]    [507, 256, 7, 7]     --                        --              --
│    │    │    │    └─RoIAlign (1)                                          [1, 256, 48, 80]     [4, 256, 7, 7]       --                        --              --
│    │    │    │    └─RoIAlign (2)                                          [1, 256, 24, 40]     [1, 256, 7, 7]       --                        --              --
│    └─ModuleList (bbox_head)                                               --                   --                   (recursive)          (recursive)          True
│    │    └─Shared2FCBBoxHead (0)                                           [512, 256, 7, 7]     [512, 11]            --                        --              True
│    │    │    └─ModuleList (shared_fcs)                                    --                   --                   (recursive)          (recursive)          True
│    │    │    │    └─Linear (0)                                            [512, 12544]         [512, 1024]          12,846,080            12.09%              True
│    │    │    └─ReLU (relu)                                                [512, 1024]          [512, 1024]          --                        --              --
│    │    │    └─ModuleList (shared_fcs)                                    --                   --                   (recursive)          (recursive)          True
│    │    │    │    └─Linear (1)                                            [512, 1024]          [512, 1024]          1,049,600              0.99%              True
│    │    │    └─ReLU (relu)                                                [512, 1024]          [512, 1024]          --                   (recursive)          --
│    │    │    └─Linear (fc_cls)                                            [512, 1024]          [512, 11]            11,275                 0.01%              True
│    │    │    └─Linear (fc_reg)                                            [512, 1024]          [512, 4]             4,100                  0.00%              True
│    │    │    └─CrossEntropyLoss (loss_cls)                                [512, 11]            --                   --                        --              --
│    │    │    └─SmoothL1Loss (loss_bbox)                                   [1, 4]               --                   --                        --              --
│    └─ModuleList (bbox_roi_extractor)                                      --                   --                   --                   (recursive)          --
│    │    └─SingleRoIExtractor (1)                                          [1, 256, 96, 160]    [512, 256, 7, 7]     --                        --              --
│    │    │    └─ModuleList (roi_layers)                                    --                   --                   --                        --              --
│    │    │    │    └─RoIAlign (0)                                          [1, 256, 96, 160]    [508, 256, 7, 7]     --                        --              --
│    │    │    │    └─RoIAlign (1)                                          [1, 256, 48, 80]     [3, 256, 7, 7]       --                        --              --
│    │    │    │    └─RoIAlign (2)                                          [1, 256, 24, 40]     [1, 256, 7, 7]       --                        --              --
│    └─ModuleList (bbox_head)                                               --                   --                   (recursive)          (recursive)          True
│    │    └─Shared2FCBBoxHead (1)                                           [512, 256, 7, 7]     [512, 11]            --                        --              True
│    │    │    └─ModuleList (shared_fcs)                                    --                   --                   (recursive)          (recursive)          True
│    │    │    │    └─Linear (0)                                            [512, 12544]         [512, 1024]          12,846,080            12.09%              True
│    │    │    └─ReLU (relu)                                                [512, 1024]          [512, 1024]          --                        --              --
│    │    │    └─ModuleList (shared_fcs)                                    --                   --                   (recursive)          (recursive)          True
│    │    │    │    └─Linear (1)                                            [512, 1024]          [512, 1024]          1,049,600              0.99%              True
│    │    │    └─ReLU (relu)                                                [512, 1024]          [512, 1024]          --                   (recursive)          --
│    │    │    └─Linear (fc_cls)                                            [512, 1024]          [512, 11]            11,275                 0.01%              True
│    │    │    └─Linear (fc_reg)                                            [512, 1024]          [512, 4]             4,100                  0.00%              True
│    │    │    └─CrossEntropyLoss (loss_cls)                                [512, 11]            --                   --                        --              --
│    │    │    └─SmoothL1Loss (loss_bbox)                                   [1, 4]               --                   --                        --              --
│    └─ModuleList (bbox_roi_extractor)                                      --                   --                   --                   (recursive)          --
│    │    └─SingleRoIExtractor (2)                                          [1, 256, 96, 160]    [512, 256, 7, 7]     --                        --              --
│    │    │    └─ModuleList (roi_layers)                                    --                   --                   --                        --              --
│    │    │    │    └─RoIAlign (0)                                          [1, 256, 96, 160]    [508, 256, 7, 7]     --                        --              --
│    │    │    │    └─RoIAlign (1)                                          [1, 256, 48, 80]     [3, 256, 7, 7]       --                        --              --
│    │    │    │    └─RoIAlign (2)                                          [1, 256, 24, 40]     [1, 256, 7, 7]       --                        --              --
│    └─ModuleList (bbox_head)                                               --                   --                   (recursive)          (recursive)          True
│    │    └─Shared2FCBBoxHead (2)                                           [512, 256, 7, 7]     [512, 11]            --                        --              True
│    │    │    └─ModuleList (shared_fcs)                                    --                   --                   (recursive)          (recursive)          True
│    │    │    │    └─Linear (0)                                            [512, 12544]         [512, 1024]          12,846,080            12.09%              True
│    │    │    └─ReLU (relu)                                                [512, 1024]          [512, 1024]          --                        --              --
│    │    │    └─ModuleList (shared_fcs)                                    --                   --                   (recursive)          (recursive)          True
│    │    │    │    └─Linear (1)                                            [512, 1024]          [512, 1024]          1,049,600              0.99%              True
│    │    │    └─ReLU (relu)                                                [512, 1024]          [512, 1024]          --                   (recursive)          --
│    │    │    └─Linear (fc_cls)                                            [512, 1024]          [512, 11]            11,275                 0.01%              True
│    │    │    └─Linear (fc_reg)                                            [512, 1024]          [512, 4]             4,100                  0.00%              True
│    │    │    └─CrossEntropyLoss (loss_cls)                                [512, 11]            --                   --                        --              --
│    │    │    └─SmoothL1Loss (loss_bbox)                                   [1, 4]               --                   --                        --              --
===============================================================================================================================================================================
Total params: 106,259,152
Trainable params: 106,259,152
Non-trainable params: 0
Total mult-adds (G): 136.25
===============================================================================================================================================================================
…
