…
Layer (type (var_name))                                                     Input Shape          Output Shape         Param #              Param %              Trainable
===============================================================================================================================================================================
CascadeRCNN (CascadeRCNN)                                                   --                   --                   --                        --              True
├─HRFuserHRFormerBased (backbone)                                           [1, 3, 384, 640]     [1, 18, 96, 160]     --                        --              True
│    └─Conv2d (conv1)                                                       [1, 3, 384, 640]     [1, 64, 192, 320]    1,728                  0.00%              True
│    └─BatchNorm2d (bn1)                                                    [1, 64, 192, 320]    [1, 64, 192, 320]    128                    0.00%              True
│    └─ReLU (relu)                                                          [1, 64, 192, 320]    [1, 64, 192, 320]    --                        --              --
│    └─Conv2d (conv2)                                                       [1, 64, 192, 320]    [1, 64, 96, 160]     36,864                 0.07%              True
│    └─BatchNorm2d (bn2)                                                    [1, 64, 96, 160]     [1, 64, 96, 160]     128                    0.00%              True
│    └─ReLU (relu)                                                          [1, 64, 96, 160]     [1, 64, 96, 160]     --                   (recursive)          --
│    └─Sequential (layer1)                                                  [1, 64, 96, 160]     [1, 256, 96, 160]    --                        --              True
│    │    └─Bottleneck (0)                                                  [1, 64, 96, 160]     [1, 256, 96, 160]    --                        --              True
│    │    │    └─Conv2d (conv1)                                             [1, 64, 96, 160]     [1, 64, 96, 160]     4,096                  0.01%              True
│    │    │    └─BatchNorm2d (bn1)                                          [1, 64, 96, 160]     [1, 64, 96, 160]     128                    0.00%              True
│    │    │    └─ReLU (relu)                                                [1, 64, 96, 160]     [1, 64, 96, 160]     --                        --              --
│    │    │    └─Conv2d (conv2)                                             [1, 64, 96, 160]     [1, 64, 96, 160]     36,864                 0.07%              True
│    │    │    └─BatchNorm2d (bn2)                                          [1, 64, 96, 160]     [1, 64, 96, 160]     128                    0.00%              True
│    │    │    └─ReLU (relu)                                                [1, 64, 96, 160]     [1, 64, 96, 160]     --                   (recursive)          --
│    │    │    └─Conv2d (conv3)                                             [1, 64, 96, 160]     [1, 256, 96, 160]    16,384                 0.03%              True
│    │    │    └─BatchNorm2d (bn3)                                          [1, 256, 96, 160]    [1, 256, 96, 160]    512                    0.00%              True
│    │    │    └─Sequential (downsample)                                    [1, 64, 96, 160]     [1, 256, 96, 160]    --                        --              True
│    │    │    │    └─Conv2d (0)                                            [1, 64, 96, 160]     [1, 256, 96, 160]    16,384                 0.03%              True
│    │    │    │    └─BatchNorm2d (1)                                       [1, 256, 96, 160]    [1, 256, 96, 160]    512                    0.00%              True
│    │    │    └─ReLU (relu)                                                [1, 256, 96, 160]    [1, 256, 96, 160]    --                   (recursive)          --
│    │    └─Bottleneck (1)                                                  [1, 256, 96, 160]    [1, 256, 96, 160]    --                        --              True
│    │    │    └─Conv2d (conv1)                                             [1, 256, 96, 160]    [1, 64, 96, 160]     16,384                 0.03%              True
│    │    │    └─BatchNorm2d (bn1)                                          [1, 64, 96, 160]     [1, 64, 96, 160]     128                    0.00%              True
│    │    │    └─ReLU (relu)                                                [1, 64, 96, 160]     [1, 64, 96, 160]     --                        --              --
│    │    │    └─Conv2d (conv2)                                             [1, 64, 96, 160]     [1, 64, 96, 160]     36,864                 0.07%              True
│    │    │    └─BatchNorm2d (bn2)                                          [1, 64, 96, 160]     [1, 64, 96, 160]     128                    0.00%              True
│    │    │    └─ReLU (relu)                                                [1, 64, 96, 160]     [1, 64, 96, 160]     --                   (recursive)          --
│    │    │    └─Conv2d (conv3)                                             [1, 64, 96, 160]     [1, 256, 96, 160]    16,384                 0.03%              True
│    │    │    └─BatchNorm2d (bn3)                                          [1, 256, 96, 160]    [1, 256, 96, 160]    512                    0.00%              True
│    │    │    └─ReLU (relu)                                                [1, 256, 96, 160]    [1, 256, 96, 160]    --                   (recursive)          --
│    └─ModuleList (conv_a)                                                  --                   --                   (recursive)          (recursive)          True
│    │    └─Conv2d (0)                                                      [1, 3, 384, 640]     [1, 64, 192, 320]    1,728                  0.00%              True
│    └─ModuleList (norm_a)                                                  --                   --                   (recursive)          (recursive)          True
│    │    └─BatchNorm2d (0)                                                 [1, 64, 192, 320]    [1, 64, 192, 320]    128                    0.00%              True
│    └─ReLU (relu)                                                          [1, 64, 192, 320]    [1, 64, 192, 320]    --                   (recursive)          --
│    └─ModuleList (conv_b)                                                  --                   --                   (recursive)          (recursive)          True
│    │    └─Conv2d (0)                                                      [1, 64, 192, 320]    [1, 64, 96, 160]     36,864                 0.07%              True
│    └─ModuleList (norm_b)                                                  --                   --                   (recursive)          (recursive)          True
│    │    └─BatchNorm2d (0)                                                 [1, 64, 96, 160]     [1, 64, 96, 160]     128                    0.00%              True
│    └─ReLU (relu)                                                          [1, 64, 96, 160]     [1, 64, 96, 160]     --                   (recursive)          --
│    └─ModuleList (layer_a)                                                 --                   --                   (recursive)          (recursive)          True
│    │    └─Sequential (0)                                                  [1, 64, 96, 160]     [1, 256, 96, 160]    --                        --              True
│    │    │    └─Bottleneck (0)                                             [1, 64, 96, 160]     [1, 256, 96, 160]    --                        --              True
│    │    │    │    └─Conv2d (conv1)                                        [1, 64, 96, 160]     [1, 64, 96, 160]     4,096                  0.01%              True
│    │    │    │    └─BatchNorm2d (bn1)                                     [1, 64, 96, 160]     [1, 64, 96, 160]     128                    0.00%              True
│    │    │    │    └─ReLU (relu)                                           [1, 64, 96, 160]     [1, 64, 96, 160]     --                        --              --
│    │    │    │    └─Conv2d (conv2)                                        [1, 64, 96, 160]     [1, 64, 96, 160]     36,864                 0.07%              True
│    │    │    │    └─BatchNorm2d (bn2)                                     [1, 64, 96, 160]     [1, 64, 96, 160]     128                    0.00%              True
│    │    │    │    └─ReLU (relu)                                           [1, 64, 96, 160]     [1, 64, 96, 160]     --                   (recursive)          --
│    │    │    │    └─Conv2d (conv3)                                        [1, 64, 96, 160]     [1, 256, 96, 160]    16,384                 0.03%              True
│    │    │    │    └─BatchNorm2d (bn3)                                     [1, 256, 96, 160]    [1, 256, 96, 160]    512                    0.00%              True
│    │    │    │    └─Sequential (downsample)                               [1, 64, 96, 160]     [1, 256, 96, 160]    --                        --              True
│    │    │    │    │    └─Conv2d (0)                                       [1, 64, 96, 160]     [1, 256, 96, 160]    16,384                 0.03%              True
│    │    │    │    │    └─BatchNorm2d (1)                                  [1, 256, 96, 160]    [1, 256, 96, 160]    512                    0.00%              True
│    │    │    │    └─ReLU (relu)                                           [1, 256, 96, 160]    [1, 256, 96, 160]    --                   (recursive)          --
│    │    │    └─Bottleneck (1)                                             [1, 256, 96, 160]    [1, 256, 96, 160]    --                        --              True
│    │    │    │    └─Conv2d (conv1)                                        [1, 256, 96, 160]    [1, 64, 96, 160]     16,384                 0.03%              True
│    │    │    │    └─BatchNorm2d (bn1)                                     [1, 64, 96, 160]     [1, 64, 96, 160]     128                    0.00%              True
│    │    │    │    └─ReLU (relu)                                           [1, 64, 96, 160]     [1, 64, 96, 160]     --                        --              --
│    │    │    │    └─Conv2d (conv2)                                        [1, 64, 96, 160]     [1, 64, 96, 160]     36,864                 0.07%              True
│    │    │    │    └─BatchNorm2d (bn2)                                     [1, 64, 96, 160]     [1, 64, 96, 160]     128                    0.00%              True
│    │    │    │    └─ReLU (relu)                                           [1, 64, 96, 160]     [1, 64, 96, 160]     --                   (recursive)          --
│    │    │    │    └─Conv2d (conv3)                                        [1, 64, 96, 160]     [1, 256, 96, 160]    16,384                 0.03%              True
│    │    │    │    └─BatchNorm2d (bn3)                                     [1, 256, 96, 160]    [1, 256, 96, 160]    512                    0.00%              True
│    │    │    │    └─ReLU (relu)                                           [1, 256, 96, 160]    [1, 256, 96, 160]    --                   (recursive)          --
│    └─ModuleList (conv_a)                                                  --                   --                   (recursive)          (recursive)          True
│    │    └─Conv2d (1)                                                      [1, 3, 384, 640]     [1, 64, 192, 320]    1,728                  0.00%              True
│    └─ModuleList (norm_a)                                                  --                   --                   (recursive)          (recursive)          True
│    │    └─BatchNorm2d (1)                                                 [1, 64, 192, 320]    [1, 64, 192, 320]    128                    0.00%              True
│    └─ReLU (relu)                                                          [1, 64, 192, 320]    [1, 64, 192, 320]    --                   (recursive)          --
│    └─ModuleList (conv_b)                                                  --                   --                   (recursive)          (recursive)          True
│    │    └─Conv2d (1)                                                      [1, 64, 192, 320]    [1, 64, 96, 160]     36,864                 0.07%              True
│    └─ModuleList (norm_b)                                                  --                   --                   (recursive)          (recursive)          True
│    │    └─BatchNorm2d (1)                                                 [1, 64, 96, 160]     [1, 64, 96, 160]     128                    0.00%              True
│    └─ReLU (relu)                                                          [1, 64, 96, 160]     [1, 64, 96, 160]     --                   (recursive)          --
│    └─ModuleList (layer_a)                                                 --                   --                   (recursive)          (recursive)          True
│    │    └─Sequential (1)                                                  [1, 64, 96, 160]     [1, 256, 96, 160]    --                        --              True
│    │    │    └─Bottleneck (0)                                             [1, 64, 96, 160]     [1, 256, 96, 160]    --                        --              True
│    │    │    │    └─Conv2d (conv1)                                        [1, 64, 96, 160]     [1, 64, 96, 160]     4,096                  0.01%              True
│    │    │    │    └─BatchNorm2d (bn1)                                     [1, 64, 96, 160]     [1, 64, 96, 160]     128                    0.00%              True
│    │    │    │    └─ReLU (relu)                                           [1, 64, 96, 160]     [1, 64, 96, 160]     --                        --              --
│    │    │    │    └─Conv2d (conv2)                                        [1, 64, 96, 160]     [1, 64, 96, 160]     36,864                 0.07%              True
│    │    │    │    └─BatchNorm2d (bn2)                                     [1, 64, 96, 160]     [1, 64, 96, 160]     128                    0.00%              True
│    │    │    │    └─ReLU (relu)                                           [1, 64, 96, 160]     [1, 64, 96, 160]     --                   (recursive)          --
│    │    │    │    └─Conv2d (conv3)                                        [1, 64, 96, 160]     [1, 256, 96, 160]    16,384                 0.03%              True
│    │    │    │    └─BatchNorm2d (bn3)                                     [1, 256, 96, 160]    [1, 256, 96, 160]    512                    0.00%              True
│    │    │    │    └─Sequential (downsample)                               [1, 64, 96, 160]     [1, 256, 96, 160]    --                        --              True
│    │    │    │    │    └─Conv2d (0)                                       [1, 64, 96, 160]     [1, 256, 96, 160]    16,384                 0.03%              True
│    │    │    │    │    └─BatchNorm2d (1)                                  [1, 256, 96, 160]    [1, 256, 96, 160]    512                    0.00%              True
│    │    │    │    └─ReLU (relu)                                           [1, 256, 96, 160]    [1, 256, 96, 160]    --                   (recursive)          --
│    │    │    └─Bottleneck (1)                                             [1, 256, 96, 160]    [1, 256, 96, 160]    --                        --              True
│    │    │    │    └─Conv2d (conv1)                                        [1, 256, 96, 160]    [1, 64, 96, 160]     16,384                 0.03%              True
│    │    │    │    └─BatchNorm2d (bn1)                                     [1, 64, 96, 160]     [1, 64, 96, 160]     128                    0.00%              True
│    │    │    │    └─ReLU (relu)                                           [1, 64, 96, 160]     [1, 64, 96, 160]     --                        --              --
│    │    │    │    └─Conv2d (conv2)                                        [1, 64, 96, 160]     [1, 64, 96, 160]     36,864                 0.07%              True
│    │    │    │    └─BatchNorm2d (bn2)                                     [1, 64, 96, 160]     [1, 64, 96, 160]     128                    0.00%              True
│    │    │    │    └─ReLU (relu)                                           [1, 64, 96, 160]     [1, 64, 96, 160]     --                   (recursive)          --
│    │    │    │    └─Conv2d (conv3)                                        [1, 64, 96, 160]     [1, 256, 96, 160]    16,384                 0.03%              True
│    │    │    │    └─BatchNorm2d (bn3)                                     [1, 256, 96, 160]    [1, 256, 96, 160]    512                    0.00%              True
│    │    │    │    └─ReLU (relu)                                           [1, 256, 96, 160]    [1, 256, 96, 160]    --                   (recursive)          --
│    └─ModuleList (transition1)                                             --                   --                   (recursive)          (recursive)          True
│    │    └─Sequential (0)                                                  --                   --                   36                     0.00%              True
│    │    │    └─Conv2d (0)                                                 [1, 256, 96, 160]    [1, 18, 96, 160]     41,472                 0.08%              True
│    └─ModuleList (transition_a)                                            --                   --                   (recursive)          (recursive)          True
│    │    └─ModuleList (0)                                                  --                   --                   (recursive)          (recursive)          True
│    │    │    └─Sequential (0)                                             [1, 256, 96, 160]    [1, 18, 96, 160]     --                        --              True
│    │    │    │    └─Conv2d (0)                                            [1, 256, 96, 160]    [1, 18, 96, 160]     41,472                 0.08%              True
│    │    │    │    └─BatchNorm2d (1)                                       [1, 18, 96, 160]     [1, 18, 96, 160]     36                     0.00%              True
│    │    │    │    └─ReLU (2)                                              [1, 18, 96, 160]     [1, 18, 96, 160]     --                        --              --
│    │    └─ModuleList (1)                                                  --                   --                   (recursive)          (recursive)          True
│    │    │    └─Sequential (0)                                             [1, 256, 96, 160]    [1, 18, 96, 160]     --                        --              True
│    │    │    │    └─Conv2d (0)                                            [1, 256, 96, 160]    [1, 18, 96, 160]     41,472                 0.08%              True
│    │    │    │    └─BatchNorm2d (1)                                       [1, 18, 96, 160]     [1, 18, 96, 160]     36                     0.00%              True
│    │    │    │    └─ReLU (2)                                              [1, 18, 96, 160]     [1, 18, 96, 160]     --                        --              --
│    └─ModuleList (fusion_a)                                                --                   --                   (recursive)          (recursive)          True
│    │    └─HRFuserFusionBlock (0)                                          [1, 18, 96, 160]     [1, 18, 96, 160]     --                        --              True
│    │    │    └─ModuleList (norm1)                                         --                   --                   (recursive)          (recursive)          True
│    │    │    │    └─LayerNorm (0)                                         [1, 15360, 18]       [1, 15360, 18]       36                     0.00%              True
│    │    │    └─ModuleList (norm2)                                         --                   --                   (recursive)          (recursive)          True
│    │    │    │    └─LayerNorm (0)                                         [1, 15360, 18]       [1, 15360, 18]       36                     0.00%              True
│    │    │    └─ModuleList (attn)                                          --                   --                   (recursive)          (recursive)          True
│    │    │    │    └─MultiWindowCrossAttention (0)                         [1, 15360, 18]       [1, 15360, 18]       --                        --              True
│    │    │    │    │    └─WindowMCA (attn)                                 [322, 49, 18]        [322, 49, 18]        169                    0.00%              True
│    │    │    │    │    │    └─Linear (q_proj)                             [322, 49, 18]        [322, 49, 18]        342                    0.00%              True
│    │    │    │    │    │    └─Linear (k_proj)                             [322, 49, 18]        [322, 49, 18]        342                    0.00%              True
│    │    │    │    │    │    └─Linear (v_proj)                             [322, 49, 18]        [322, 49, 18]        342                    0.00%              True
│    │    │    │    │    │    └─Softmax (softmax)                           [322, 1, 49, 49]     [322, 1, 49, 49]     --                        --              --
│    │    │    │    │    │    └─Dropout (attn_drop)                         [322, 1, 49, 49]     [322, 1, 49, 49]     --                        --              --
│    │    │    │    │    │    └─Linear (out_proj)                           [322, 49, 18]        [322, 49, 18]        342                    0.00%              True
│    │    │    │    │    │    └─Dropout (proj_drop)                         [322, 49, 18]        [322, 49, 18]        --                        --              --
│    │    │    └─DropPath (drop_path)                                       [1, 15360, 18]       [1, 15360, 18]       --                        --              --
│    │    │    └─ModuleList (norm1)                                         --                   --                   (recursive)          (recursive)          True
│    │    │    │    └─LayerNorm (1)                                         [1, 15360, 18]       [1, 15360, 18]       36                     0.00%              True
│    │    │    └─ModuleList (norm2)                                         --                   --                   (recursive)          (recursive)          True
│    │    │    │    └─LayerNorm (1)                                         [1, 15360, 18]       [1, 15360, 18]       36                     0.00%              True
│    │    │    └─ModuleList (attn)                                          --                   --                   (recursive)          (recursive)          True
│    │    │    │    └─MultiWindowCrossAttention (1)                         [1, 15360, 18]       [1, 15360, 18]       --                        --              True
│    │    │    │    │    └─WindowMCA (attn)                                 [322, 49, 18]        [322, 49, 18]        169                    0.00%              True
│    │    │    │    │    │    └─Linear (q_proj)                             [322, 49, 18]        [322, 49, 18]        342                    0.00%              True
│    │    │    │    │    │    └─Linear (k_proj)                             [322, 49, 18]        [322, 49, 18]        342                    0.00%              True
│    │    │    │    │    │    └─Linear (v_proj)                             [322, 49, 18]        [322, 49, 18]        342                    0.00%              True
│    │    │    │    │    │    └─Softmax (softmax)                           [322, 1, 49, 49]     [322, 1, 49, 49]     --                        --              --
│    │    │    │    │    │    └─Dropout (attn_drop)                         [322, 1, 49, 49]     [322, 1, 49, 49]     --                        --              --
│    │    │    │    │    │    └─Linear (out_proj)                           [322, 49, 18]        [322, 49, 18]        342                    0.00%              True
│    │    │    │    │    │    └─Dropout (proj_drop)                         [322, 49, 18]        [322, 49, 18]        --                        --              --
│    │    │    └─DropPath (drop_path)                                       [1, 15360, 18]       [1, 15360, 18]       --                   (recursive)          --
│    │    │    └─LayerNorm (norm3)                                          [1, 15360, 18]       [1, 15360, 18]       36                     0.00%              True
│    │    │    └─CrossFFN (ffn)                                             [1, 15360, 18]       [1, 15360, 18]       --                        --              True
│    │    │    │    └─Sequential (layers)                                   [1, 18, 96, 160]     [1, 18, 96, 160]     --                        --              True
│    │    │    │    │    └─Conv2d (0)                                       [1, 18, 96, 160]     [1, 72, 96, 160]     1,368                  0.00%              True
│    │    │    │    │    └─BatchNorm2d (1)                                  [1, 72, 96, 160]     [1, 72, 96, 160]     144                    0.00%              True
│    │    │    │    │    └─GELU (2)                                         [1, 72, 96, 160]     [1, 72, 96, 160]     --                        --              --
│    │    │    │    │    └─Conv2d (3)                                       [1, 72, 96, 160]     [1, 72, 96, 160]     720                    0.00%              True
│    │    │    │    │    └─BatchNorm2d (4)                                  [1, 72, 96, 160]     [1, 72, 96, 160]     144                    0.00%              True
│    │    │    │    │    └─GELU (5)                                         [1, 72, 96, 160]     [1, 72, 96, 160]     --                        --              --
│    │    │    │    │    └─Conv2d (6)                                       [1, 72, 96, 160]     [1, 18, 96, 160]     1,314                  0.00%              True
│    │    │    │    │    └─BatchNorm2d (7)                                  [1, 18, 96, 160]     [1, 18, 96, 160]     36                     0.00%              True
│    │    │    │    │    └─GELU (8)                                         [1, 18, 96, 160]     [1, 18, 96, 160]     --                        --              --
│    │    │    └─DropPath (drop_path)                                       [1, 15360, 18]       [1, 15360, 18]       --                   (recursive)          --
│    └─ModuleList (transition1)                                             --                   --                   (recursive)          (recursive)          True
│    │    └─Sequential (1)                                                  --                   --                   --                        --              True
│    │    │    └─Sequential (0)                                             [1, 256, 96, 160]    [1, 36, 48, 80]      --                        --              True
│    │    │    │    └─Conv2d (0)                                            [1, 256, 96, 160]    [1, 36, 48, 80]      82,944                 0.17%              True
│    │    │    │    └─BatchNorm2d (1)                                       [1, 36, 48, 80]      [1, 36, 48, 80]      72                     0.00%              True
│    │    │    │    └─ReLU (2)                                              [1, 36, 48, 80]      [1, 36, 48, 80]      --                        --              --
│    └─ModuleList (transition_a)                                            --                   --                   (recursive)          (recursive)          True
│    │    └─ModuleList (0)                                                  --                   --                   (recursive)          (recursive)          True
│    │    │    └─Sequential (1)                                             [1, 256, 96, 160]    [1, 36, 48, 80]      --                        --              True
│    │    │    │    └─Sequential (0)                                        [1, 256, 96, 160]    [1, 36, 48, 80]      --                        --              True
│    │    │    │    │    └─Conv2d (0)                                       [1, 256, 96, 160]    [1, 36, 48, 80]      82,944                 0.17%              True
│    │    │    │    │    └─BatchNorm2d (1)                                  [1, 36, 48, 80]      [1, 36, 48, 80]      72                     0.00%              True
│    │    │    │    │    └─ReLU (2)                                         [1, 36, 48, 80]      [1, 36, 48, 80]      --                        --              --
│    │    └─ModuleList (1)                                                  --                   --                   (recursive)          (recursive)          True
│    │    │    └─Sequential (1)                                             [1, 256, 96, 160]    [1, 36, 48, 80]      --                        --              True
│    │    │    │    └─Sequential (0)                                        [1, 256, 96, 160]    [1, 36, 48, 80]      --                        --              True
│    │    │    │    │    └─Conv2d (0)                                       [1, 256, 96, 160]    [1, 36, 48, 80]      82,944                 0.17%              True
│    │    │    │    │    └─BatchNorm2d (1)                                  [1, 36, 48, 80]      [1, 36, 48, 80]      72                     0.00%              True
│    │    │    │    │    └─ReLU (2)                                         [1, 36, 48, 80]      [1, 36, 48, 80]      --                        --              --
│    └─ModuleList (fusion_a)                                                --                   --                   (recursive)          (recursive)          True
│    │    └─HRFuserFusionBlock (1)                                          [1, 36, 48, 80]      [1, 36, 48, 80]      --                        --              True
│    │    │    └─ModuleList (norm1)                                         --                   --                   (recursive)          (recursive)          True
│    │    │    │    └─LayerNorm (0)                                         [1, 3840, 36]        [1, 3840, 36]        72                     0.00%              True
│    │    │    └─ModuleList (norm2)                                         --                   --                   (recursive)          (recursive)          True
│    │    │    │    └─LayerNorm (0)                                         [1, 3840, 36]        [1, 3840, 36]        72                     0.00%              True
│    │    │    └─ModuleList (attn)                                          --                   --                   (recursive)          (recursive)          True
│    │    │    │    └─MultiWindowCrossAttention (0)                         [1, 3840, 36]        [1, 3840, 36]        --                        --              True
│    │    │    │    │    └─WindowMCA (attn)                                 [84, 49, 36]         [84, 49, 36]         338                    0.00%              True
│    │    │    │    │    │    └─Linear (q_proj)                             [84, 49, 36]         [84, 49, 36]         1,332                  0.00%              True
│    │    │    │    │    │    └─Linear (k_proj)                             [84, 49, 36]         [84, 49, 36]         1,332                  0.00%              True
│    │    │    │    │    │    └─Linear (v_proj)                             [84, 49, 36]         [84, 49, 36]         1,332                  0.00%              True
│    │    │    │    │    │    └─Softmax (softmax)                           [84, 2, 49, 49]      [84, 2, 49, 49]      --                        --              --
│    │    │    │    │    │    └─Dropout (attn_drop)                         [84, 2, 49, 49]      [84, 2, 49, 49]      --                        --              --
│    │    │    │    │    │    └─Linear (out_proj)                           [84, 49, 36]         [84, 49, 36]         1,332                  0.00%              True
│    │    │    │    │    │    └─Dropout (proj_drop)                         [84, 49, 36]         [84, 49, 36]         --                        --              --
│    │    │    └─DropPath (drop_path)                                       [1, 3840, 36]        [1, 3840, 36]        --                        --              --
│    │    │    └─ModuleList (norm1)                                         --                   --                   (recursive)          (recursive)          True
│    │    │    │    └─LayerNorm (1)                                         [1, 3840, 36]        [1, 3840, 36]        72                     0.00%              True
│    │    │    └─ModuleList (norm2)                                         --                   --                   (recursive)          (recursive)          True
│    │    │    │    └─LayerNorm (1)                                         [1, 3840, 36]        [1, 3840, 36]        72                     0.00%              True
│    │    │    └─ModuleList (attn)                                          --                   --                   (recursive)          (recursive)          True
│    │    │    │    └─MultiWindowCrossAttention (1)                         [1, 3840, 36]        [1, 3840, 36]        --                        --              True
│    │    │    │    │    └─WindowMCA (attn)                                 [84, 49, 36]         [84, 49, 36]         338                    0.00%              True
│    │    │    │    │    │    └─Linear (q_proj)                             [84, 49, 36]         [84, 49, 36]         1,332                  0.00%              True
│    │    │    │    │    │    └─Linear (k_proj)                             [84, 49, 36]         [84, 49, 36]         1,332                  0.00%              True
│    │    │    │    │    │    └─Linear (v_proj)                             [84, 49, 36]         [84, 49, 36]         1,332                  0.00%              True
│    │    │    │    │    │    └─Softmax (softmax)                           [84, 2, 49, 49]      [84, 2, 49, 49]      --                        --              --
│    │    │    │    │    │    └─Dropout (attn_drop)                         [84, 2, 49, 49]      [84, 2, 49, 49]      --                        --              --
│    │    │    │    │    │    └─Linear (out_proj)                           [84, 49, 36]         [84, 49, 36]         1,332                  0.00%              True
│    │    │    │    │    │    └─Dropout (proj_drop)                         [84, 49, 36]         [84, 49, 36]         --                        --              --
│    │    │    └─DropPath (drop_path)                                       [1, 3840, 36]        [1, 3840, 36]        --                   (recursive)          --
│    │    │    └─LayerNorm (norm3)                                          [1, 3840, 36]        [1, 3840, 36]        72                     0.00%              True
│    │    │    └─CrossFFN (ffn)                                             [1, 3840, 36]        [1, 3840, 36]        --                        --              True
│    │    │    │    └─Sequential (layers)                                   [1, 36, 48, 80]      [1, 36, 48, 80]      --                        --              True
│    │    │    │    │    └─Conv2d (0)                                       [1, 36, 48, 80]      [1, 144, 48, 80]     5,328                  0.01%              True
│    │    │    │    │    └─BatchNorm2d (1)                                  [1, 144, 48, 80]     [1, 144, 48, 80]     288                    0.00%              True
│    │    │    │    │    └─GELU (2)                                         [1, 144, 48, 80]     [1, 144, 48, 80]     --                        --              --
│    │    │    │    │    └─Conv2d (3)                                       [1, 144, 48, 80]     [1, 144, 48, 80]     1,440                  0.00%              True
│    │    │    │    │    └─BatchNorm2d (4)                                  [1, 144, 48, 80]     [1, 144, 48, 80]     288                    0.00%              True
│    │    │    │    │    └─GELU (5)                                         [1, 144, 48, 80]     [1, 144, 48, 80]     --                        --              --
│    │    │    │    │    └─Conv2d (6)                                       [1, 144, 48, 80]     [1, 36, 48, 80]      5,220                  0.01%              True
│    │    │    │    │    └─BatchNorm2d (7)                                  [1, 36, 48, 80]      [1, 36, 48, 80]      72                     0.00%              True
│    │    │    │    │    └─GELU (8)                                         [1, 36, 48, 80]      [1, 36, 48, 80]      --                        --              --
│    │    │    └─DropPath (drop_path)                                       [1, 3840, 36]        [1, 3840, 36]        --                   (recursive)          --
│    └─Sequential (stage2)                                                  [1, 18, 96, 160]     [1, 18, 96, 160]     --                        --              True
│    │    └─HRFomerModule (0)                                               [1, 18, 96, 160]     [1, 18, 96, 160]     --                        --              True
│    │    │    └─ModuleList (branches)                                      --                   --                   --                        --              True
│    │    │    │    └─Sequential (0)                                        [1, 18, 96, 160]     [1, 18, 96, 160]     --                        --              True
│    │    │    │    │    └─HRFormerBlock (0)                                [1, 18, 96, 160]     [1, 18, 96, 160]     --                        --              True
│    │    │    │    │    │    └─LayerNorm (norm1)                           [1, 15360, 18]       [1, 15360, 18]       36                     0.00%              True
│    │    │    │    │    │    └─LocalWindowSelfAttention (attn)             [1, 15360, 18]       [1, 15360, 18]       --                        --              True
│    │    │    │    │    │    │    └─WindowMSA (attn)                       [322, 49, 18]        [322, 49, 18]        169                    0.00%              True
│    │    │    │    │    │    │    │    └─Linear (qkv)                      [322, 49, 18]        [322, 49, 54]        1,026                  0.00%              True
│    │    │    │    │    │    │    │    └─Softmax (softmax)                 [322, 1, 49, 49]     [322, 1, 49, 49]     --                        --              --
│    │    │    │    │    │    │    │    └─Dropout (attn_drop)               [322, 1, 49, 49]     [322, 1, 49, 49]     --                        --              --
│    │    │    │    │    │    │    │    └─Linear (out_proj)                 [322, 49, 18]        [322, 49, 18]        342                    0.00%              True
│    │    │    │    │    │    │    │    └─Dropout (proj_drop)               [322, 49, 18]        [322, 49, 18]        --                        --              --
│    │    │    │    │    │    └─Identity (drop_path)                        [1, 15360, 18]       [1, 15360, 18]       --                        --              --
│    │    │    │    │    │    └─LayerNorm (norm2)                           [1, 15360, 18]       [1, 15360, 18]       36                     0.00%              True
│    │    │    │    │    │    └─CrossFFN (ffn)                              [1, 15360, 18]       [1, 15360, 18]       --                        --              True
│    │    │    │    │    │    │    └─Sequential (layers)                    [1, 18, 96, 160]     [1, 18, 96, 160]     --                        --              True
│    │    │    │    │    │    │    │    └─Conv2d (0)                        [1, 18, 96, 160]     [1, 72, 96, 160]     1,368                  0.00%              True
│    │    │    │    │    │    │    │    └─BatchNorm2d (1)                   [1, 72, 96, 160]     [1, 72, 96, 160]     144                    0.00%              True
│    │    │    │    │    │    │    │    └─GELU (2)                          [1, 72, 96, 160]     [1, 72, 96, 160]     --                        --              --
│    │    │    │    │    │    │    │    └─Conv2d (3)                        [1, 72, 96, 160]     [1, 72, 96, 160]     720                    0.00%              True
│    │    │    │    │    │    │    │    └─BatchNorm2d (4)                   [1, 72, 96, 160]     [1, 72, 96, 160]     144                    0.00%              True
│    │    │    │    │    │    │    │    └─GELU (5)                          [1, 72, 96, 160]     [1, 72, 96, 160]     --                        --              --
│    │    │    │    │    │    │    │    └─Conv2d (6)                        [1, 72, 96, 160]     [1, 18, 96, 160]     1,314                  0.00%              True
│    │    │    │    │    │    │    │    └─BatchNorm2d (7)                   [1, 18, 96, 160]     [1, 18, 96, 160]     36                     0.00%              True
│    │    │    │    │    │    │    │    └─GELU (8)                          [1, 18, 96, 160]     [1, 18, 96, 160]     --                        --              --
│    │    │    │    │    │    └─Identity (drop_path)                        [1, 15360, 18]       [1, 15360, 18]       --                   (recursive)          --
│    │    │    │    │    └─HRFormerBlock (1)                                [1, 18, 96, 160]     [1, 18, 96, 160]     --                        --              True
│    │    │    │    │    │    └─LayerNorm (norm1)                           [1, 15360, 18]       [1, 15360, 18]       36                     0.00%              True
│    │    │    │    │    │    └─LocalWindowSelfAttention (attn)             [1, 15360, 18]       [1, 15360, 18]       --                        --              True
│    │    │    │    │    │    │    └─WindowMSA (attn)                       [322, 49, 18]        [322, 49, 18]        169                    0.00%              True
│    │    │    │    │    │    │    │    └─Linear (qkv)                      [322, 49, 18]        [322, 49, 54]        1,026                  0.00%              True
│    │    │    │    │    │    │    │    └─Softmax (softmax)                 [322, 1, 49, 49]     [322, 1, 49, 49]     --                        --              --
│    │    │    │    │    │    │    │    └─Dropout (attn_drop)               [322, 1, 49, 49]     [322, 1, 49, 49]     --                        --              --
│    │    │    │    │    │    │    │    └─Linear (out_proj)                 [322, 49, 18]        [322, 49, 18]        342                    0.00%              True
│    │    │    │    │    │    │    │    └─Dropout (proj_drop)               [322, 49, 18]        [322, 49, 18]        --                        --              --
│    │    │    │    │    │    └─Identity (drop_path)                        [1, 15360, 18]       [1, 15360, 18]       --                        --              --
│    │    │    │    │    │    └─LayerNorm (norm2)                           [1, 15360, 18]       [1, 15360, 18]       36                     0.00%              True
│    │    │    │    │    │    └─CrossFFN (ffn)                              [1, 15360, 18]       [1, 15360, 18]       --                        --              True
│    │    │    │    │    │    │    └─Sequential (layers)                    [1, 18, 96, 160]     [1, 18, 96, 160]     --                        --              True
│    │    │    │    │    │    │    │    └─Conv2d (0)                        [1, 18, 96, 160]     [1, 72, 96, 160]     1,368                  0.00%              True
│    │    │    │    │    │    │    │    └─BatchNorm2d (1)                   [1, 72, 96, 160]     [1, 72, 96, 160]     144                    0.00%              True
│    │    │    │    │    │    │    │    └─GELU (2)                          [1, 72, 96, 160]     [1, 72, 96, 160]     --                        --              --
│    │    │    │    │    │    │    │    └─Conv2d (3)                        [1, 72, 96, 160]     [1, 72, 96, 160]     720                    0.00%              True
│    │    │    │    │    │    │    │    └─BatchNorm2d (4)                   [1, 72, 96, 160]     [1, 72, 96, 160]     144                    0.00%              True
│    │    │    │    │    │    │    │    └─GELU (5)                          [1, 72, 96, 160]     [1, 72, 96, 160]     --                        --              --
│    │    │    │    │    │    │    │    └─Conv2d (6)                        [1, 72, 96, 160]     [1, 18, 96, 160]     1,314                  0.00%              True
│    │    │    │    │    │    │    │    └─BatchNorm2d (7)                   [1, 18, 96, 160]     [1, 18, 96, 160]     36                     0.00%              True
│    │    │    │    │    │    │    │    └─GELU (8)                          [1, 18, 96, 160]     [1, 18, 96, 160]     --                        --              --
│    │    │    │    │    │    └─Identity (drop_path)                        [1, 15360, 18]       [1, 15360, 18]       --                   (recursive)          --
│    │    │    │    └─Sequential (1)                                        [1, 36, 48, 80]      [1, 36, 48, 80]      --                        --              True
│    │    │    │    │    └─HRFormerBlock (0)                                [1, 36, 48, 80]      [1, 36, 48, 80]      --                        --              True
│    │    │    │    │    │    └─LayerNorm (norm1)                           [1, 3840, 36]        [1, 3840, 36]        72                     0.00%              True
│    │    │    │    │    │    └─LocalWindowSelfAttention (attn)             [1, 3840, 36]        [1, 3840, 36]        --                        --              True
│    │    │    │    │    │    │    └─WindowMSA (attn)                       [84, 49, 36]         [84, 49, 36]         338                    0.00%              True
│    │    │    │    │    │    │    │    └─Linear (qkv)                      [84, 49, 36]         [84, 49, 108]        3,996                  0.01%              True
│    │    │    │    │    │    │    │    └─Softmax (softmax)                 [84, 2, 49, 49]      [84, 2, 49, 49]      --                        --              --
│    │    │    │    │    │    │    │    └─Dropout (attn_drop)               [84, 2, 49, 49]      [84, 2, 49, 49]      --                        --              --
│    │    │    │    │    │    │    │    └─Linear (out_proj)                 [84, 49, 36]         [84, 49, 36]         1,332                  0.00%              True
│    │    │    │    │    │    │    │    └─Dropout (proj_drop)               [84, 49, 36]         [84, 49, 36]         --                        --              --
│    │    │    │    │    │    └─Identity (drop_path)                        [1, 3840, 36]        [1, 3840, 36]        --                        --              --
│    │    │    │    │    │    └─LayerNorm (norm2)                           [1, 3840, 36]        [1, 3840, 36]        72                     0.00%              True
│    │    │    │    │    │    └─CrossFFN (ffn)                              [1, 3840, 36]        [1, 3840, 36]        --                        --              True
│    │    │    │    │    │    │    └─Sequential (layers)                    [1, 36, 48, 80]      [1, 36, 48, 80]      --                        --              True
│    │    │    │    │    │    │    │    └─Conv2d (0)                        [1, 36, 48, 80]      [1, 144, 48, 80]     5,328                  0.01%              True
│    │    │    │    │    │    │    │    └─BatchNorm2d (1)                   [1, 144, 48, 80]     [1, 144, 48, 80]     288                    0.00%              True
│    │    │    │    │    │    │    │    └─GELU (2)                          [1, 144, 48, 80]     [1, 144, 48, 80]     --                        --              --
│    │    │    │    │    │    │    │    └─Conv2d (3)                        [1, 144, 48, 80]     [1, 144, 48, 80]     1,440                  0.00%              True
│    │    │    │    │    │    │    │    └─BatchNorm2d (4)                   [1, 144, 48, 80]     [1, 144, 48, 80]     288                    0.00%              True
│    │    │    │    │    │    │    │    └─GELU (5)                          [1, 144, 48, 80]     [1, 144, 48, 80]     --                        --              --
│    │    │    │    │    │    │    │    └─Conv2d (6)                        [1, 144, 48, 80]     [1, 36, 48, 80]      5,220                  0.01%              True
│    │    │    │    │    │    │    │    └─BatchNorm2d (7)                   [1, 36, 48, 80]      [1, 36, 48, 80]      72                     0.00%              True
│    │    │    │    │    │    │    │    └─GELU (8)                          [1, 36, 48, 80]      [1, 36, 48, 80]      --                        --              --
│    │    │    │    │    │    └─Identity (drop_path)                        [1, 3840, 36]        [1, 3840, 36]        --                   (recursive)          --
│    │    │    │    │    └─HRFormerBlock (1)                                [1, 36, 48, 80]      [1, 36, 48, 80]      --                        --              True
│    │    │    │    │    │    └─LayerNorm (norm1)                           [1, 3840, 36]        [1, 3840, 36]        72                     0.00%              True
│    │    │    │    │    │    └─LocalWindowSelfAttention (attn)             [1, 3840, 36]        [1, 3840, 36]        --                        --              True
│    │    │    │    │    │    │    └─WindowMSA (attn)                       [84, 49, 36]         [84, 49, 36]         338                    0.00%              True
│    │    │    │    │    │    │    │    └─Linear (qkv)                      [84, 49, 36]         [84, 49, 108]        3,996                  0.01%              True
│    │    │    │    │    │    │    │    └─Softmax (softmax)                 [84, 2, 49, 49]      [84, 2, 49, 49]      --                        --              --
│    │    │    │    │    │    │    │    └─Dropout (attn_drop)               [84, 2, 49, 49]      [84, 2, 49, 49]      --                        --              --
│    │    │    │    │    │    │    │    └─Linear (out_proj)                 [84, 49, 36]         [84, 49, 36]         1,332                  0.00%              True
│    │    │    │    │    │    │    │    └─Dropout (proj_drop)               [84, 49, 36]         [84, 49, 36]         --                        --              --
│    │    │    │    │    │    └─Identity (drop_path)                        [1, 3840, 36]        [1, 3840, 36]        --                        --              --
│    │    │    │    │    │    └─LayerNorm (norm2)                           [1, 3840, 36]        [1, 3840, 36]        72                     0.00%              True
│    │    │    │    │    │    └─CrossFFN (ffn)                              [1, 3840, 36]        [1, 3840, 36]        --                        --              True
│    │    │    │    │    │    │    └─Sequential (layers)                    [1, 36, 48, 80]      [1, 36, 48, 80]      --                        --              True
│    │    │    │    │    │    │    │    └─Conv2d (0)                        [1, 36, 48, 80]      [1, 144, 48, 80]     5,328                  0.01%              True
│    │    │    │    │    │    │    │    └─BatchNorm2d (1)                   [1, 144, 48, 80]     [1, 144, 48, 80]     288                    0.00%              True
│    │    │    │    │    │    │    │    └─GELU (2)                          [1, 144, 48, 80]     [1, 144, 48, 80]     --                        --              --
│    │    │    │    │    │    │    │    └─Conv2d (3)                        [1, 144, 48, 80]     [1, 144, 48, 80]     1,440                  0.00%              True
│    │    │    │    │    │    │    │    └─BatchNorm2d (4)                   [1, 144, 48, 80]     [1, 144, 48, 80]     288                    0.00%              True
│    │    │    │    │    │    │    │    └─GELU (5)                          [1, 144, 48, 80]     [1, 144, 48, 80]     --                        --              --
│    │    │    │    │    │    │    │    └─Conv2d (6)                        [1, 144, 48, 80]     [1, 36, 48, 80]      5,220                  0.01%              True
│    │    │    │    │    │    │    │    └─BatchNorm2d (7)                   [1, 36, 48, 80]      [1, 36, 48, 80]      72                     0.00%              True
│    │    │    │    │    │    │    │    └─GELU (8)                          [1, 36, 48, 80]      [1, 36, 48, 80]      --                        --              --
│    │    │    │    │    │    └─Identity (drop_path)                        [1, 3840, 36]        [1, 3840, 36]        --                   (recursive)          --
│    │    │    └─ModuleList (fuse_layers)                                   --                   --                   (recursive)          (recursive)          True
│    │    │    │    └─ModuleList (0)                                        --                   --                   --                        --              True
│    │    │    │    │    └─Sequential (1)                                   [1, 36, 48, 80]      [1, 18, 48, 80]      --                        --              True
│    │    │    │    │    │    └─Conv2d (0)                                  [1, 36, 48, 80]      [1, 18, 48, 80]      648                    0.00%              True
│    │    │    │    │    │    └─BatchNorm2d (1)                             [1, 18, 48, 80]      [1, 18, 48, 80]      36                     0.00%              True
│    │    │    └─ReLU (relu)                                                [1, 18, 96, 160]     [1, 18, 96, 160]     --                        --              --
│    │    │    └─ModuleList (fuse_layers)                                   --                   --                   (recursive)          (recursive)          True
│    │    │    │    └─ModuleList (1)                                        --                   --                   --                        --              True
│    │    │    │    │    └─Sequential (0)                                   [1, 18, 96, 160]     [1, 36, 48, 80]      --                        --              True
│    │    │    │    │    │    └─Sequential (0)                              [1, 18, 96, 160]     [1, 36, 48, 80]      --                        --              True
│    │    │    │    │    │    │    └─Conv2d (0)                             [1, 18, 96, 160]     [1, 18, 48, 80]      162                    0.00%              True
│    │    │    │    │    │    │    └─BatchNorm2d (1)                        [1, 18, 48, 80]      [1, 18, 48, 80]      36                     0.00%              True
│    │    │    │    │    │    │    └─Conv2d (2)                             [1, 18, 48, 80]      [1, 36, 48, 80]      648                    0.00%              True
│    │    │    │    │    │    │    └─BatchNorm2d (3)                        [1, 36, 48, 80]      [1, 36, 48, 80]      72                     0.00%              True
│    │    │    └─ReLU (relu)                                                [1, 36, 48, 80]      [1, 36, 48, 80]      --                   (recursive)          --
│    └─ModuleList (stage_b)                                                 --                   --                   --                        --              True
│    │    └─Sequential (0)                                                  [1, 18, 96, 160]     [1, 18, 96, 160]     --                        --              True
│    │    │    └─HRFomerModule (0)                                          [1, 18, 96, 160]     [1, 18, 96, 160]     --                        --              True
│    │    │    │    └─ModuleList (branches)                                 --                   --                   --                        --              True
│    │    │    │    │    └─Sequential (0)                                   [1, 18, 96, 160]     [1, 18, 96, 160]     --                        --              True
│    │    │    │    │    │    └─HRFormerBlock (0)                           [1, 18, 96, 160]     [1, 18, 96, 160]     --                        --              True
│    │    │    │    │    │    │    └─LayerNorm (norm1)                      [1, 15360, 18]       [1, 15360, 18]       36                     0.00%              True
│    │    │    │    │    │    │    └─LocalWindowSelfAttention (attn)        [1, 15360, 18]       [1, 15360, 18]       --                        --              True
│    │    │    │    │    │    │    │    └─WindowMSA (attn)                  [322, 49, 18]        [322, 49, 18]        169                    0.00%              True
│    │    │    │    │    │    │    │    │    └─Linear (qkv)                 [322, 49, 18]        [322, 49, 54]        1,026                  0.00%              True
│    │    │    │    │    │    │    │    │    └─Softmax (softmax)            [322, 1, 49, 49]     [322, 1, 49, 49]     --                        --              --
│    │    │    │    │    │    │    │    │    └─Dropout (attn_drop)          [322, 1, 49, 49]     [322, 1, 49, 49]     --                        --              --
│    │    │    │    │    │    │    │    │    └─Linear (out_proj)            [322, 49, 18]        [322, 49, 18]        342                    0.00%              True
│    │    │    │    │    │    │    │    │    └─Dropout (proj_drop)          [322, 49, 18]        [322, 49, 18]        --                        --              --
│    │    │    │    │    │    │    └─Identity (drop_path)                   [1, 15360, 18]       [1, 15360, 18]       --                        --              --
│    │    │    │    │    │    │    └─LayerNorm (norm2)                      [1, 15360, 18]       [1, 15360, 18]       36                     0.00%              True
│    │    │    │    │    │    │    └─CrossFFN (ffn)                         [1, 15360, 18]       [1, 15360, 18]       --                        --              True
│    │    │    │    │    │    │    │    └─Sequential (layers)               [1, 18, 96, 160]     [1, 18, 96, 160]     --                        --              True
│    │    │    │    │    │    │    │    │    └─Conv2d (0)                   [1, 18, 96, 160]     [1, 72, 96, 160]     1,368                  0.00%              True
│    │    │    │    │    │    │    │    │    └─BatchNorm2d (1)              [1, 72, 96, 160]     [1, 72, 96, 160]     144                    0.00%              True
│    │    │    │    │    │    │    │    │    └─GELU (2)                     [1, 72, 96, 160]     [1, 72, 96, 160]     --                        --              --
│    │    │    │    │    │    │    │    │    └─Conv2d (3)                   [1, 72, 96, 160]     [1, 72, 96, 160]     720                    0.00%              True
│    │    │    │    │    │    │    │    │    └─BatchNorm2d (4)              [1, 72, 96, 160]     [1, 72, 96, 160]     144                    0.00%              True
│    │    │    │    │    │    │    │    │    └─GELU (5)                     [1, 72, 96, 160]     [1, 72, 96, 160]     --                        --              --
│    │    │    │    │    │    │    │    │    └─Conv2d (6)                   [1, 72, 96, 160]     [1, 18, 96, 160]     1,314                  0.00%              True
│    │    │    │    │    │    │    │    │    └─BatchNorm2d (7)              [1, 18, 96, 160]     [1, 18, 96, 160]     36                     0.00%              True
│    │    │    │    │    │    │    │    │    └─GELU (8)                     [1, 18, 96, 160]     [1, 18, 96, 160]     --                        --              --
│    │    │    │    │    │    │    └─Identity (drop_path)                   [1, 15360, 18]       [1, 15360, 18]       --                   (recursive)          --
│    │    │    │    │    │    └─HRFormerBlock (1)                           [1, 18, 96, 160]     [1, 18, 96, 160]     --                        --              True
│    │    │    │    │    │    │    └─LayerNorm (norm1)                      [1, 15360, 18]       [1, 15360, 18]       36                     0.00%              True
│    │    │    │    │    │    │    └─LocalWindowSelfAttention (attn)        [1, 15360, 18]       [1, 15360, 18]       --                        --              True
│    │    │    │    │    │    │    │    └─WindowMSA (attn)                  [322, 49, 18]        [322, 49, 18]        169                    0.00%              True
│    │    │    │    │    │    │    │    │    └─Linear (qkv)                 [322, 49, 18]        [322, 49, 54]        1,026                  0.00%              True
│    │    │    │    │    │    │    │    │    └─Softmax (softmax)            [322, 1, 49, 49]     [322, 1, 49, 49]     --                        --              --
│    │    │    │    │    │    │    │    │    └─Dropout (attn_drop)          [322, 1, 49, 49]     [322, 1, 49, 49]     --                        --              --
│    │    │    │    │    │    │    │    │    └─Linear (out_proj)            [322, 49, 18]        [322, 49, 18]        342                    0.00%              True
│    │    │    │    │    │    │    │    │    └─Dropout (proj_drop)          [322, 49, 18]        [322, 49, 18]        --                        --              --
│    │    │    │    │    │    │    └─Identity (drop_path)                   [1, 15360, 18]       [1, 15360, 18]       --                        --              --
│    │    │    │    │    │    │    └─LayerNorm (norm2)                      [1, 15360, 18]       [1, 15360, 18]       36                     0.00%              True
│    │    │    │    │    │    │    └─CrossFFN (ffn)                         [1, 15360, 18]       [1, 15360, 18]       --                        --              True
│    │    │    │    │    │    │    │    └─Sequential (layers)               [1, 18, 96, 160]     [1, 18, 96, 160]     --                        --              True
│    │    │    │    │    │    │    │    │    └─Conv2d (0)                   [1, 18, 96, 160]     [1, 72, 96, 160]     1,368                  0.00%              True
│    │    │    │    │    │    │    │    │    └─BatchNorm2d (1)              [1, 72, 96, 160]     [1, 72, 96, 160]     144                    0.00%              True
│    │    │    │    │    │    │    │    │    └─GELU (2)                     [1, 72, 96, 160]     [1, 72, 96, 160]     --                        --              --
│    │    │    │    │    │    │    │    │    └─Conv2d (3)                   [1, 72, 96, 160]     [1, 72, 96, 160]     720                    0.00%              True
│    │    │    │    │    │    │    │    │    └─BatchNorm2d (4)              [1, 72, 96, 160]     [1, 72, 96, 160]     144                    0.00%              True
│    │    │    │    │    │    │    │    │    └─GELU (5)                     [1, 72, 96, 160]     [1, 72, 96, 160]     --                        --              --
│    │    │    │    │    │    │    │    │    └─Conv2d (6)                   [1, 72, 96, 160]     [1, 18, 96, 160]     1,314                  0.00%              True
│    │    │    │    │    │    │    │    │    └─BatchNorm2d (7)              [1, 18, 96, 160]     [1, 18, 96, 160]     36                     0.00%              True
│    │    │    │    │    │    │    │    │    └─GELU (8)                     [1, 18, 96, 160]     [1, 18, 96, 160]     --                        --              --
│    │    │    │    │    │    │    └─Identity (drop_path)                   [1, 15360, 18]       [1, 15360, 18]       --                   (recursive)          --
│    │    └─Sequential (1)                                                  [1, 18, 96, 160]     [1, 18, 96, 160]     --                        --              True
│    │    │    └─HRFomerModule (0)                                          [1, 18, 96, 160]     [1, 18, 96, 160]     --                        --              True
│    │    │    │    └─ModuleList (branches)                                 --                   --                   --                        --              True
│    │    │    │    │    └─Sequential (0)                                   [1, 18, 96, 160]     [1, 18, 96, 160]     --                        --              True
│    │    │    │    │    │    └─HRFormerBlock (0)                           [1, 18, 96, 160]     [1, 18, 96, 160]     --                        --              True
│    │    │    │    │    │    │    └─LayerNorm (norm1)                      [1, 15360, 18]       [1, 15360, 18]       36                     0.00%              True
│    │    │    │    │    │    │    └─LocalWindowSelfAttention (attn)        [1, 15360, 18]       [1, 15360, 18]       --                        --              True
│    │    │    │    │    │    │    │    └─WindowMSA (attn)                  [322, 49, 18]        [322, 49, 18]        169                    0.00%              True
│    │    │    │    │    │    │    │    │    └─Linear (qkv)                 [322, 49, 18]        [322, 49, 54]        1,026                  0.00%              True
│    │    │    │    │    │    │    │    │    └─Softmax (softmax)            [322, 1, 49, 49]     [322, 1, 49, 49]     --                        --              --
│    │    │    │    │    │    │    │    │    └─Dropout (attn_drop)          [322, 1, 49, 49]     [322, 1, 49, 49]     --                        --              --
│    │    │    │    │    │    │    │    │    └─Linear (out_proj)            [322, 49, 18]        [322, 49, 18]        342                    0.00%              True
│    │    │    │    │    │    │    │    │    └─Dropout (proj_drop)          [322, 49, 18]        [322, 49, 18]        --                        --              --
│    │    │    │    │    │    │    └─Identity (drop_path)                   [1, 15360, 18]       [1, 15360, 18]       --                        --              --
│    │    │    │    │    │    │    └─LayerNorm (norm2)                      [1, 15360, 18]       [1, 15360, 18]       36                     0.00%              True
│    │    │    │    │    │    │    └─CrossFFN (ffn)                         [1, 15360, 18]       [1, 15360, 18]       --                        --              True
│    │    │    │    │    │    │    │    └─Sequential (layers)               [1, 18, 96, 160]     [1, 18, 96, 160]     --                        --              True
│    │    │    │    │    │    │    │    │    └─Conv2d (0)                   [1, 18, 96, 160]     [1, 72, 96, 160]     1,368                  0.00%              True
│    │    │    │    │    │    │    │    │    └─BatchNorm2d (1)              [1, 72, 96, 160]     [1, 72, 96, 160]     144                    0.00%              True
│    │    │    │    │    │    │    │    │    └─GELU (2)                     [1, 72, 96, 160]     [1, 72, 96, 160]     --                        --              --
│    │    │    │    │    │    │    │    │    └─Conv2d (3)                   [1, 72, 96, 160]     [1, 72, 96, 160]     720                    0.00%              True
│    │    │    │    │    │    │    │    │    └─BatchNorm2d (4)              [1, 72, 96, 160]     [1, 72, 96, 160]     144                    0.00%              True
│    │    │    │    │    │    │    │    │    └─GELU (5)                     [1, 72, 96, 160]     [1, 72, 96, 160]     --                        --              --
│    │    │    │    │    │    │    │    │    └─Conv2d (6)                   [1, 72, 96, 160]     [1, 18, 96, 160]     1,314                  0.00%              True
│    │    │    │    │    │    │    │    │    └─BatchNorm2d (7)              [1, 18, 96, 160]     [1, 18, 96, 160]     36                     0.00%              True
│    │    │    │    │    │    │    │    │    └─GELU (8)                     [1, 18, 96, 160]     [1, 18, 96, 160]     --                        --              --
│    │    │    │    │    │    │    └─Identity (drop_path)                   [1, 15360, 18]       [1, 15360, 18]       --                   (recursive)          --
│    │    │    │    │    │    └─HRFormerBlock (1)                           [1, 18, 96, 160]     [1, 18, 96, 160]     --                        --              True
│    │    │    │    │    │    │    └─LayerNorm (norm1)                      [1, 15360, 18]       [1, 15360, 18]       36                     0.00%              True
│    │    │    │    │    │    │    └─LocalWindowSelfAttention (attn)        [1, 15360, 18]       [1, 15360, 18]       --                        --              True
│    │    │    │    │    │    │    │    └─WindowMSA (attn)                  [322, 49, 18]        [322, 49, 18]        169                    0.00%              True
│    │    │    │    │    │    │    │    │    └─Linear (qkv)                 [322, 49, 18]        [322, 49, 54]        1,026                  0.00%              True
│    │    │    │    │    │    │    │    │    └─Softmax (softmax)            [322, 1, 49, 49]     [322, 1, 49, 49]     --                        --              --
│    │    │    │    │    │    │    │    │    └─Dropout (attn_drop)          [322, 1, 49, 49]     [322, 1, 49, 49]     --                        --              --
│    │    │    │    │    │    │    │    │    └─Linear (out_proj)            [322, 49, 18]        [322, 49, 18]        342                    0.00%              True
│    │    │    │    │    │    │    │    │    └─Dropout (proj_drop)          [322, 49, 18]        [322, 49, 18]        --                        --              --
│    │    │    │    │    │    │    └─Identity (drop_path)                   [1, 15360, 18]       [1, 15360, 18]       --                        --              --
│    │    │    │    │    │    │    └─LayerNorm (norm2)                      [1, 15360, 18]       [1, 15360, 18]       36                     0.00%              True
│    │    │    │    │    │    │    └─CrossFFN (ffn)                         [1, 15360, 18]       [1, 15360, 18]       --                        --              True
│    │    │    │    │    │    │    │    └─Sequential (layers)               [1, 18, 96, 160]     [1, 18, 96, 160]     --                        --              True
│    │    │    │    │    │    │    │    │    └─Conv2d (0)                   [1, 18, 96, 160]     [1, 72, 96, 160]     1,368                  0.00%              True
│    │    │    │    │    │    │    │    │    └─BatchNorm2d (1)              [1, 72, 96, 160]     [1, 72, 96, 160]     144                    0.00%              True
│    │    │    │    │    │    │    │    │    └─GELU (2)                     [1, 72, 96, 160]     [1, 72, 96, 160]     --                        --              --
│    │    │    │    │    │    │    │    │    └─Conv2d (3)                   [1, 72, 96, 160]     [1, 72, 96, 160]     720                    0.00%              True
│    │    │    │    │    │    │    │    │    └─BatchNorm2d (4)              [1, 72, 96, 160]     [1, 72, 96, 160]     144                    0.00%              True
│    │    │    │    │    │    │    │    │    └─GELU (5)                     [1, 72, 96, 160]     [1, 72, 96, 160]     --                        --              --
│    │    │    │    │    │    │    │    │    └─Conv2d (6)                   [1, 72, 96, 160]     [1, 18, 96, 160]     1,314                  0.00%              True
│    │    │    │    │    │    │    │    │    └─BatchNorm2d (7)              [1, 18, 96, 160]     [1, 18, 96, 160]     36                     0.00%              True
│    │    │    │    │    │    │    │    │    └─GELU (8)                     [1, 18, 96, 160]     [1, 18, 96, 160]     --                        --              --
│    │    │    │    │    │    │    └─Identity (drop_path)                   [1, 15360, 18]       [1, 15360, 18]       --                   (recursive)          --
│    └─ModuleList (fusion_b)                                                --                   --                   (recursive)          (recursive)          True
│    │    └─HRFuserFusionBlock (0)                                          [1, 18, 96, 160]     [1, 18, 96, 160]     --                        --              True
│    │    │    └─ModuleList (norm1)                                         --                   --                   (recursive)          (recursive)          True
│    │    │    │    └─LayerNorm (0)                                         [1, 15360, 18]       [1, 15360, 18]       36                     0.00%              True
│    │    │    └─ModuleList (norm2)                                         --                   --                   (recursive)          (recursive)          True
│    │    │    │    └─LayerNorm (0)                                         [1, 15360, 18]       [1, 15360, 18]       36                     0.00%              True
│    │    │    └─ModuleList (attn)                                          --                   --                   (recursive)          (recursive)          True
│    │    │    │    └─MultiWindowCrossAttention (0)                         [1, 15360, 18]       [1, 15360, 18]       --                        --              True
│    │    │    │    │    └─WindowMCA (attn)                                 [322, 49, 18]        [322, 49, 18]        169                    0.00%              True
│    │    │    │    │    │    └─Linear (q_proj)                             [322, 49, 18]        [322, 49, 18]        342                    0.00%              True
│    │    │    │    │    │    └─Linear (k_proj)                             [322, 49, 18]        [322, 49, 18]        342                    0.00%              True
│    │    │    │    │    │    └─Linear (v_proj)                             [322, 49, 18]        [322, 49, 18]        342                    0.00%              True
│    │    │    │    │    │    └─Softmax (softmax)                           [322, 1, 49, 49]     [322, 1, 49, 49]     --                        --              --
│    │    │    │    │    │    └─Dropout (attn_drop)                         [322, 1, 49, 49]     [322, 1, 49, 49]     --                        --              --
│    │    │    │    │    │    └─Linear (out_proj)                           [322, 49, 18]        [322, 49, 18]        342                    0.00%              True
│    │    │    │    │    │    └─Dropout (proj_drop)                         [322, 49, 18]        [322, 49, 18]        --                        --              --
│    │    │    └─DropPath (drop_path)                                       [1, 15360, 18]       [1, 15360, 18]       --                        --              --
│    │    │    └─ModuleList (norm1)                                         --                   --                   (recursive)          (recursive)          True
│    │    │    │    └─LayerNorm (1)                                         [1, 15360, 18]       [1, 15360, 18]       36                     0.00%              True
│    │    │    └─ModuleList (norm2)                                         --                   --                   (recursive)          (recursive)          True
│    │    │    │    └─LayerNorm (1)                                         [1, 15360, 18]       [1, 15360, 18]       36                     0.00%              True
│    │    │    └─ModuleList (attn)                                          --                   --                   (recursive)          (recursive)          True
│    │    │    │    └─MultiWindowCrossAttention (1)                         [1, 15360, 18]       [1, 15360, 18]       --                        --              True
│    │    │    │    │    └─WindowMCA (attn)                                 [322, 49, 18]        [322, 49, 18]        169                    0.00%              True
│    │    │    │    │    │    └─Linear (q_proj)                             [322, 49, 18]        [322, 49, 18]        342                    0.00%              True
│    │    │    │    │    │    └─Linear (k_proj)                             [322, 49, 18]        [322, 49, 18]        342                    0.00%              True
│    │    │    │    │    │    └─Linear (v_proj)                             [322, 49, 18]        [322, 49, 18]        342                    0.00%              True
│    │    │    │    │    │    └─Softmax (softmax)                           [322, 1, 49, 49]     [322, 1, 49, 49]     --                        --              --
│    │    │    │    │    │    └─Dropout (attn_drop)                         [322, 1, 49, 49]     [322, 1, 49, 49]     --                        --              --
│    │    │    │    │    │    └─Linear (out_proj)                           [322, 49, 18]        [322, 49, 18]        342                    0.00%              True
│    │    │    │    │    │    └─Dropout (proj_drop)                         [322, 49, 18]        [322, 49, 18]        --                        --              --
│    │    │    └─DropPath (drop_path)                                       [1, 15360, 18]       [1, 15360, 18]       --                   (recursive)          --
│    │    │    └─LayerNorm (norm3)                                          [1, 15360, 18]       [1, 15360, 18]       36                     0.00%              True
│    │    │    └─CrossFFN (ffn)                                             [1, 15360, 18]       [1, 15360, 18]       --                        --              True
│    │    │    │    └─Sequential (layers)                                   [1, 18, 96, 160]     [1, 18, 96, 160]     --                        --              True
│    │    │    │    │    └─Conv2d (0)                                       [1, 18, 96, 160]     [1, 72, 96, 160]     1,368                  0.00%              True
│    │    │    │    │    └─BatchNorm2d (1)                                  [1, 72, 96, 160]     [1, 72, 96, 160]     144                    0.00%              True
│    │    │    │    │    └─GELU (2)                                         [1, 72, 96, 160]     [1, 72, 96, 160]     --                        --              --
│    │    │    │    │    └─Conv2d (3)                                       [1, 72, 96, 160]     [1, 72, 96, 160]     720                    0.00%              True
│    │    │    │    │    └─BatchNorm2d (4)                                  [1, 72, 96, 160]     [1, 72, 96, 160]     144                    0.00%              True
│    │    │    │    │    └─GELU (5)                                         [1, 72, 96, 160]     [1, 72, 96, 160]     --                        --              --
│    │    │    │    │    └─Conv2d (6)                                       [1, 72, 96, 160]     [1, 18, 96, 160]     1,314                  0.00%              True
│    │    │    │    │    └─BatchNorm2d (7)                                  [1, 18, 96, 160]     [1, 18, 96, 160]     36                     0.00%              True
│    │    │    │    │    └─GELU (8)                                         [1, 18, 96, 160]     [1, 18, 96, 160]     --                        --              --
│    │    │    └─DropPath (drop_path)                                       [1, 15360, 18]       [1, 15360, 18]       --                   (recursive)          --
│    └─ModuleList (transition_b)                                            --                   --                   (recursive)          (recursive)          True
│    │    └─ModuleList (0)                                                  --                   --                   (recursive)          (recursive)          True
│    │    │    └─Sequential (1)                                             [1, 18, 96, 160]     [1, 36, 48, 80]      --                        --              True
│    │    │    │    └─Sequential (0)                                        [1, 18, 96, 160]     [1, 36, 48, 80]      --                        --              True
│    │    │    │    │    └─Conv2d (0)                                       [1, 18, 96, 160]     [1, 36, 48, 80]      5,832                  0.01%              True
│    │    │    │    │    └─BatchNorm2d (1)                                  [1, 36, 48, 80]      [1, 36, 48, 80]      72                     0.00%              True
│    │    │    │    │    └─ReLU (2)                                         [1, 36, 48, 80]      [1, 36, 48, 80]      --                        --              --
│    │    └─ModuleList (1)                                                  --                   --                   (recursive)          (recursive)          True
│    │    │    └─Sequential (1)                                             [1, 18, 96, 160]     [1, 36, 48, 80]      --                        --              True
│    │    │    │    └─Sequential (0)                                        [1, 18, 96, 160]     [1, 36, 48, 80]      --                        --              True
│    │    │    │    │    └─Conv2d (0)                                       [1, 18, 96, 160]     [1, 36, 48, 80]      5,832                  0.01%              True
│    │    │    │    │    └─BatchNorm2d (1)                                  [1, 36, 48, 80]      [1, 36, 48, 80]      72                     0.00%              True
│    │    │    │    │    └─ReLU (2)                                         [1, 36, 48, 80]      [1, 36, 48, 80]      --                        --              --
│    └─ModuleList (fusion_b)                                                --                   --                   (recursive)          (recursive)          True
│    │    └─HRFuserFusionBlock (1)                                          [1, 36, 48, 80]      [1, 36, 48, 80]      --                        --              True
│    │    │    └─ModuleList (norm1)                                         --                   --                   (recursive)          (recursive)          True
│    │    │    │    └─LayerNorm (0)                                         [1, 3840, 36]        [1, 3840, 36]        72                     0.00%              True
│    │    │    └─ModuleList (norm2)                                         --                   --                   (recursive)          (recursive)          True
│    │    │    │    └─LayerNorm (0)                                         [1, 3840, 36]        [1, 3840, 36]        72                     0.00%              True
│    │    │    └─ModuleList (attn)                                          --                   --                   (recursive)          (recursive)          True
│    │    │    │    └─MultiWindowCrossAttention (0)                         [1, 3840, 36]        [1, 3840, 36]        --                        --              True
│    │    │    │    │    └─WindowMCA (attn)                                 [84, 49, 36]         [84, 49, 36]         338                    0.00%              True
│    │    │    │    │    │    └─Linear (q_proj)                             [84, 49, 36]         [84, 49, 36]         1,332                  0.00%              True
│    │    │    │    │    │    └─Linear (k_proj)                             [84, 49, 36]         [84, 49, 36]         1,332                  0.00%              True
│    │    │    │    │    │    └─Linear (v_proj)                             [84, 49, 36]         [84, 49, 36]         1,332                  0.00%              True
│    │    │    │    │    │    └─Softmax (softmax)                           [84, 2, 49, 49]      [84, 2, 49, 49]      --                        --              --
│    │    │    │    │    │    └─Dropout (attn_drop)                         [84, 2, 49, 49]      [84, 2, 49, 49]      --                        --              --
│    │    │    │    │    │    └─Linear (out_proj)                           [84, 49, 36]         [84, 49, 36]         1,332                  0.00%              True
│    │    │    │    │    │    └─Dropout (proj_drop)                         [84, 49, 36]         [84, 49, 36]         --                        --              --
│    │    │    └─DropPath (drop_path)                                       [1, 3840, 36]        [1, 3840, 36]        --                        --              --
│    │    │    └─ModuleList (norm1)                                         --                   --                   (recursive)          (recursive)          True
│    │    │    │    └─LayerNorm (1)                                         [1, 3840, 36]        [1, 3840, 36]        72                     0.00%              True
│    │    │    └─ModuleList (norm2)                                         --                   --                   (recursive)          (recursive)          True
│    │    │    │    └─LayerNorm (1)                                         [1, 3840, 36]        [1, 3840, 36]        72                     0.00%              True
│    │    │    └─ModuleList (attn)                                          --                   --                   (recursive)          (recursive)          True
│    │    │    │    └─MultiWindowCrossAttention (1)                         [1, 3840, 36]        [1, 3840, 36]        --                        --              True
│    │    │    │    │    └─WindowMCA (attn)                                 [84, 49, 36]         [84, 49, 36]         338                    0.00%              True
│    │    │    │    │    │    └─Linear (q_proj)                             [84, 49, 36]         [84, 49, 36]         1,332                  0.00%              True
│    │    │    │    │    │    └─Linear (k_proj)                             [84, 49, 36]         [84, 49, 36]         1,332                  0.00%              True
│    │    │    │    │    │    └─Linear (v_proj)                             [84, 49, 36]         [84, 49, 36]         1,332                  0.00%              True
│    │    │    │    │    │    └─Softmax (softmax)                           [84, 2, 49, 49]      [84, 2, 49, 49]      --                        --              --
│    │    │    │    │    │    └─Dropout (attn_drop)                         [84, 2, 49, 49]      [84, 2, 49, 49]      --                        --              --
│    │    │    │    │    │    └─Linear (out_proj)                           [84, 49, 36]         [84, 49, 36]         1,332                  0.00%              True
│    │    │    │    │    │    └─Dropout (proj_drop)                         [84, 49, 36]         [84, 49, 36]         --                        --              --
│    │    │    └─DropPath (drop_path)                                       [1, 3840, 36]        [1, 3840, 36]        --                   (recursive)          --
│    │    │    └─LayerNorm (norm3)                                          [1, 3840, 36]        [1, 3840, 36]        72                     0.00%              True
│    │    │    └─CrossFFN (ffn)                                             [1, 3840, 36]        [1, 3840, 36]        --                        --              True
│    │    │    │    └─Sequential (layers)                                   [1, 36, 48, 80]      [1, 36, 48, 80]      --                        --              True
│    │    │    │    │    └─Conv2d (0)                                       [1, 36, 48, 80]      [1, 144, 48, 80]     5,328                  0.01%              True
│    │    │    │    │    └─BatchNorm2d (1)                                  [1, 144, 48, 80]     [1, 144, 48, 80]     288                    0.00%              True
│    │    │    │    │    └─GELU (2)                                         [1, 144, 48, 80]     [1, 144, 48, 80]     --                        --              --
│    │    │    │    │    └─Conv2d (3)                                       [1, 144, 48, 80]     [1, 144, 48, 80]     1,440                  0.00%              True
│    │    │    │    │    └─BatchNorm2d (4)                                  [1, 144, 48, 80]     [1, 144, 48, 80]     288                    0.00%              True
│    │    │    │    │    └─GELU (5)                                         [1, 144, 48, 80]     [1, 144, 48, 80]     --                        --              --
│    │    │    │    │    └─Conv2d (6)                                       [1, 144, 48, 80]     [1, 36, 48, 80]      5,220                  0.01%              True
│    │    │    │    │    └─BatchNorm2d (7)                                  [1, 36, 48, 80]      [1, 36, 48, 80]      72                     0.00%              True
│    │    │    │    │    └─GELU (8)                                         [1, 36, 48, 80]      [1, 36, 48, 80]      --                        --              --
│    │    │    └─DropPath (drop_path)                                       [1, 3840, 36]        [1, 3840, 36]        --                   (recursive)          --
│    └─ModuleList (transition2)                                             --                   --                   --                        --              True
│    │    └─Sequential (2)                                                  [1, 36, 48, 80]      [1, 72, 24, 40]      --                        --              True
│    │    │    └─Sequential (0)                                             [1, 36, 48, 80]      [1, 72, 24, 40]      --                        --              True
│    │    │    │    └─Conv2d (0)                                            [1, 36, 48, 80]      [1, 72, 24, 40]      23,328                 0.05%              True
│    │    │    │    └─BatchNorm2d (1)                                       [1, 72, 24, 40]      [1, 72, 24, 40]      144                    0.00%              True
│    │    │    │    └─ReLU (2)                                              [1, 72, 24, 40]      [1, 72, 24, 40]      --                        --              --
│    └─ModuleList (transition_b)                                            --                   --                   (recursive)          (recursive)          True
│    │    └─ModuleList (0)                                                  --                   --                   (recursive)          (recursive)          True
│    │    │    └─Sequential (2)                                             [1, 18, 96, 160]     [1, 72, 24, 40]      --                        --              True
│    │    │    │    └─Sequential (0)                                        [1, 18, 96, 160]     [1, 18, 48, 80]      --                        --              True
│    │    │    │    │    └─Conv2d (0)                                       [1, 18, 96, 160]     [1, 18, 48, 80]      2,916                  0.01%              True
│    │    │    │    │    └─BatchNorm2d (1)                                  [1, 18, 48, 80]      [1, 18, 48, 80]      36                     0.00%              True
│    │    │    │    │    └─ReLU (2)                                         [1, 18, 48, 80]      [1, 18, 48, 80]      --                        --              --
│    │    │    │    └─Sequential (1)                                        [1, 18, 48, 80]      [1, 72, 24, 40]      --                        --              True
│    │    │    │    │    └─Conv2d (0)                                       [1, 18, 48, 80]      [1, 72, 24, 40]      11,664                 0.02%              True
│    │    │    │    │    └─BatchNorm2d (1)                                  [1, 72, 24, 40]      [1, 72, 24, 40]      144                    0.00%              True
│    │    │    │    │    └─ReLU (2)                                         [1, 72, 24, 40]      [1, 72, 24, 40]      --                        --              --
│    │    └─ModuleList (1)                                                  --                   --                   (recursive)          (recursive)          True
│    │    │    └─Sequential (2)                                             [1, 18, 96, 160]     [1, 72, 24, 40]      --                        --              True
│    │    │    │    └─Sequential (0)                                        [1, 18, 96, 160]     [1, 18, 48, 80]      --                        --              True
│    │    │    │    │    └─Conv2d (0)                                       [1, 18, 96, 160]     [1, 18, 48, 80]      2,916                  0.01%              True
│    │    │    │    │    └─BatchNorm2d (1)                                  [1, 18, 48, 80]      [1, 18, 48, 80]      36                     0.00%              True
│    │    │    │    │    └─ReLU (2)                                         [1, 18, 48, 80]      [1, 18, 48, 80]      --                        --              --
│    │    │    │    └─Sequential (1)                                        [1, 18, 48, 80]      [1, 72, 24, 40]      --                        --              True
│    │    │    │    │    └─Conv2d (0)                                       [1, 18, 48, 80]      [1, 72, 24, 40]      11,664                 0.02%              True
│    │    │    │    │    └─BatchNorm2d (1)                                  [1, 72, 24, 40]      [1, 72, 24, 40]      144                    0.00%              True
│    │    │    │    │    └─ReLU (2)                                         [1, 72, 24, 40]      [1, 72, 24, 40]      --                        --              --
│    └─ModuleList (fusion_b)                                                --                   --                   (recursive)          (recursive)          True
│    │    └─HRFuserFusionBlock (2)                                          [1, 72, 24, 40]      [1, 72, 24, 40]      --                        --              True
│    │    │    └─ModuleList (norm1)                                         --                   --                   (recursive)          (recursive)          True
│    │    │    │    └─LayerNorm (0)                                         [1, 960, 72]         [1, 960, 72]         144                    0.00%              True
│    │    │    └─ModuleList (norm2)                                         --                   --                   (recursive)          (recursive)          True
│    │    │    │    └─LayerNorm (0)                                         [1, 960, 72]         [1, 960, 72]         144                    0.00%              True
│    │    │    └─ModuleList (attn)                                          --                   --                   (recursive)          (recursive)          True
│    │    │    │    └─MultiWindowCrossAttention (0)                         [1, 960, 72]         [1, 960, 72]         --                        --              True
│    │    │    │    │    └─WindowMCA (attn)                                 [24, 49, 72]         [24, 49, 72]         676                    0.00%              True
│    │    │    │    │    │    └─Linear (q_proj)                             [24, 49, 72]         [24, 49, 72]         5,256                  0.01%              True
│    │    │    │    │    │    └─Linear (k_proj)                             [24, 49, 72]         [24, 49, 72]         5,256                  0.01%              True
│    │    │    │    │    │    └─Linear (v_proj)                             [24, 49, 72]         [24, 49, 72]         5,256                  0.01%              True
│    │    │    │    │    │    └─Softmax (softmax)                           [24, 4, 49, 49]      [24, 4, 49, 49]      --                        --              --
│    │    │    │    │    │    └─Dropout (attn_drop)                         [24, 4, 49, 49]      [24, 4, 49, 49]      --                        --              --
│    │    │    │    │    │    └─Linear (out_proj)                           [24, 49, 72]         [24, 49, 72]         5,256                  0.01%              True
│    │    │    │    │    │    └─Dropout (proj_drop)                         [24, 49, 72]         [24, 49, 72]         --                        --              --
│    │    │    └─DropPath (drop_path)                                       [1, 960, 72]         [1, 960, 72]         --                        --              --
│    │    │    └─ModuleList (norm1)                                         --                   --                   (recursive)          (recursive)          True
│    │    │    │    └─LayerNorm (1)                                         [1, 960, 72]         [1, 960, 72]         144                    0.00%              True
│    │    │    └─ModuleList (norm2)                                         --                   --                   (recursive)          (recursive)          True
│    │    │    │    └─LayerNorm (1)                                         [1, 960, 72]         [1, 960, 72]         144                    0.00%              True
│    │    │    └─ModuleList (attn)                                          --                   --                   (recursive)          (recursive)          True
│    │    │    │    └─MultiWindowCrossAttention (1)                         [1, 960, 72]         [1, 960, 72]         --                        --              True
│    │    │    │    │    └─WindowMCA (attn)                                 [24, 49, 72]         [24, 49, 72]         676                    0.00%              True
│    │    │    │    │    │    └─Linear (q_proj)                             [24, 49, 72]         [24, 49, 72]         5,256                  0.01%              True
│    │    │    │    │    │    └─Linear (k_proj)                             [24, 49, 72]         [24, 49, 72]         5,256                  0.01%              True
│    │    │    │    │    │    └─Linear (v_proj)                             [24, 49, 72]         [24, 49, 72]         5,256                  0.01%              True
│    │    │    │    │    │    └─Softmax (softmax)                           [24, 4, 49, 49]      [24, 4, 49, 49]      --                        --              --
│    │    │    │    │    │    └─Dropout (attn_drop)                         [24, 4, 49, 49]      [24, 4, 49, 49]      --                        --              --
│    │    │    │    │    │    └─Linear (out_proj)                           [24, 49, 72]         [24, 49, 72]         5,256                  0.01%              True
│    │    │    │    │    │    └─Dropout (proj_drop)                         [24, 49, 72]         [24, 49, 72]         --                        --              --
│    │    │    └─DropPath (drop_path)                                       [1, 960, 72]         [1, 960, 72]         --                   (recursive)          --
│    │    │    └─LayerNorm (norm3)                                          [1, 960, 72]         [1, 960, 72]         144                    0.00%              True
│    │    │    └─CrossFFN (ffn)                                             [1, 960, 72]         [1, 960, 72]         --                        --              True
│    │    │    │    └─Sequential (layers)                                   [1, 72, 24, 40]      [1, 72, 24, 40]      --                        --              True
│    │    │    │    │    └─Conv2d (0)                                       [1, 72, 24, 40]      [1, 288, 24, 40]     21,024                 0.04%              True
│    │    │    │    │    └─BatchNorm2d (1)                                  [1, 288, 24, 40]     [1, 288, 24, 40]     576                    0.00%              True
│    │    │    │    │    └─GELU (2)                                         [1, 288, 24, 40]     [1, 288, 24, 40]     --                        --              --
│    │    │    │    │    └─Conv2d (3)                                       [1, 288, 24, 40]     [1, 288, 24, 40]     2,880                  0.01%              True
│    │    │    │    │    └─BatchNorm2d (4)                                  [1, 288, 24, 40]     [1, 288, 24, 40]     576                    0.00%              True
│    │    │    │    │    └─GELU (5)                                         [1, 288, 24, 40]     [1, 288, 24, 40]     --                        --              --
│    │    │    │    │    └─Conv2d (6)                                       [1, 288, 24, 40]     [1, 72, 24, 40]      20,808                 0.04%              True
│    │    │    │    │    └─BatchNorm2d (7)                                  [1, 72, 24, 40]      [1, 72, 24, 40]      144                    0.00%              True
│    │    │    │    │    └─GELU (8)                                         [1, 72, 24, 40]      [1, 72, 24, 40]      --                        --              --
│    │    │    └─DropPath (drop_path)                                       [1, 960, 72]         [1, 960, 72]         --                   (recursive)          --
│    └─Sequential (stage3)                                                  [1, 18, 96, 160]     [1, 18, 96, 160]     --                        --              True
│    │    └─HRFomerModule (0)                                               [1, 18, 96, 160]     [1, 18, 96, 160]     --                        --              True
│    │    │    └─ModuleList (branches)                                      --                   --                   --                        --              True
│    │    │    │    └─Sequential (0)                                        [1, 18, 96, 160]     [1, 18, 96, 160]     --                        --              True
│    │    │    │    │    └─HRFormerBlock (0)                                [1, 18, 96, 160]     [1, 18, 96, 160]     --                        --              True
│    │    │    │    │    │    └─LayerNorm (norm1)                           [1, 15360, 18]       [1, 15360, 18]       36                     0.00%              True
│    │    │    │    │    │    └─LocalWindowSelfAttention (attn)             [1, 15360, 18]       [1, 15360, 18]       --                        --              True
│    │    │    │    │    │    │    └─WindowMSA (attn)                       [322, 49, 18]        [322, 49, 18]        169                    0.00%              True
│    │    │    │    │    │    │    │    └─Linear (qkv)                      [322, 49, 18]        [322, 49, 54]        1,026                  0.00%              True
│    │    │    │    │    │    │    │    └─Softmax (softmax)                 [322, 1, 49, 49]     [322, 1, 49, 49]     --                        --              --
│    │    │    │    │    │    │    │    └─Dropout (attn_drop)               [322, 1, 49, 49]     [322, 1, 49, 49]     --                        --              --
│    │    │    │    │    │    │    │    └─Linear (out_proj)                 [322, 49, 18]        [322, 49, 18]        342                    0.00%              True
│    │    │    │    │    │    │    │    └─Dropout (proj_drop)               [322, 49, 18]        [322, 49, 18]        --                        --              --
│    │    │    │    │    │    └─Identity (drop_path)                        [1, 15360, 18]       [1, 15360, 18]       --                        --              --
│    │    │    │    │    │    └─LayerNorm (norm2)                           [1, 15360, 18]       [1, 15360, 18]       36                     0.00%              True
│    │    │    │    │    │    └─CrossFFN (ffn)                              [1, 15360, 18]       [1, 15360, 18]       --                        --              True
│    │    │    │    │    │    │    └─Sequential (layers)                    [1, 18, 96, 160]     [1, 18, 96, 160]     --                        --              True
│    │    │    │    │    │    │    │    └─Conv2d (0)                        [1, 18, 96, 160]     [1, 72, 96, 160]     1,368                  0.00%              True
│    │    │    │    │    │    │    │    └─BatchNorm2d (1)                   [1, 72, 96, 160]     [1, 72, 96, 160]     144                    0.00%              True
│    │    │    │    │    │    │    │    └─GELU (2)                          [1, 72, 96, 160]     [1, 72, 96, 160]     --                        --              --
│    │    │    │    │    │    │    │    └─Conv2d (3)                        [1, 72, 96, 160]     [1, 72, 96, 160]     720                    0.00%              True
│    │    │    │    │    │    │    │    └─BatchNorm2d (4)                   [1, 72, 96, 160]     [1, 72, 96, 160]     144                    0.00%              True
│    │    │    │    │    │    │    │    └─GELU (5)                          [1, 72, 96, 160]     [1, 72, 96, 160]     --                        --              --
│    │    │    │    │    │    │    │    └─Conv2d (6)                        [1, 72, 96, 160]     [1, 18, 96, 160]     1,314                  0.00%              True
│    │    │    │    │    │    │    │    └─BatchNorm2d (7)                   [1, 18, 96, 160]     [1, 18, 96, 160]     36                     0.00%              True
│    │    │    │    │    │    │    │    └─GELU (8)                          [1, 18, 96, 160]     [1, 18, 96, 160]     --                        --              --
│    │    │    │    │    │    └─Identity (drop_path)                        [1, 15360, 18]       [1, 15360, 18]       --                   (recursive)          --
│    │    │    │    │    └─HRFormerBlock (1)                                [1, 18, 96, 160]     [1, 18, 96, 160]     --                        --              True
│    │    │    │    │    │    └─LayerNorm (norm1)                           [1, 15360, 18]       [1, 15360, 18]       36                     0.00%              True
│    │    │    │    │    │    └─LocalWindowSelfAttention (attn)             [1, 15360, 18]       [1, 15360, 18]       --                        --              True
│    │    │    │    │    │    │    └─WindowMSA (attn)                       [322, 49, 18]        [322, 49, 18]        169                    0.00%              True
│    │    │    │    │    │    │    │    └─Linear (qkv)                      [322, 49, 18]        [322, 49, 54]        1,026                  0.00%              True
│    │    │    │    │    │    │    │    └─Softmax (softmax)                 [322, 1, 49, 49]     [322, 1, 49, 49]     --                        --              --
│    │    │    │    │    │    │    │    └─Dropout (attn_drop)               [322, 1, 49, 49]     [322, 1, 49, 49]     --                        --              --
│    │    │    │    │    │    │    │    └─Linear (out_proj)                 [322, 49, 18]        [322, 49, 18]        342                    0.00%              True
│    │    │    │    │    │    │    │    └─Dropout (proj_drop)               [322, 49, 18]        [322, 49, 18]        --                        --              --
│    │    │    │    │    │    └─Identity (drop_path)                        [1, 15360, 18]       [1, 15360, 18]       --                        --              --
│    │    │    │    │    │    └─LayerNorm (norm2)                           [1, 15360, 18]       [1, 15360, 18]       36                     0.00%              True
│    │    │    │    │    │    └─CrossFFN (ffn)                              [1, 15360, 18]       [1, 15360, 18]       --                        --              True
│    │    │    │    │    │    │    └─Sequential (layers)                    [1, 18, 96, 160]     [1, 18, 96, 160]     --                        --              True
│    │    │    │    │    │    │    │    └─Conv2d (0)                        [1, 18, 96, 160]     [1, 72, 96, 160]     1,368                  0.00%              True
│    │    │    │    │    │    │    │    └─BatchNorm2d (1)                   [1, 72, 96, 160]     [1, 72, 96, 160]     144                    0.00%              True
│    │    │    │    │    │    │    │    └─GELU (2)                          [1, 72, 96, 160]     [1, 72, 96, 160]     --                        --              --
│    │    │    │    │    │    │    │    └─Conv2d (3)                        [1, 72, 96, 160]     [1, 72, 96, 160]     720                    0.00%              True
│    │    │    │    │    │    │    │    └─BatchNorm2d (4)                   [1, 72, 96, 160]     [1, 72, 96, 160]     144                    0.00%              True
│    │    │    │    │    │    │    │    └─GELU (5)                          [1, 72, 96, 160]     [1, 72, 96, 160]     --                        --              --
│    │    │    │    │    │    │    │    └─Conv2d (6)                        [1, 72, 96, 160]     [1, 18, 96, 160]     1,314                  0.00%              True
│    │    │    │    │    │    │    │    └─BatchNorm2d (7)                   [1, 18, 96, 160]     [1, 18, 96, 160]     36                     0.00%              True
│    │    │    │    │    │    │    │    └─GELU (8)                          [1, 18, 96, 160]     [1, 18, 96, 160]     --                        --              --
│    │    │    │    │    │    └─Identity (drop_path)                        [1, 15360, 18]       [1, 15360, 18]       --                   (recursive)          --
│    │    │    │    └─Sequential (1)                                        [1, 36, 48, 80]      [1, 36, 48, 80]      --                        --              True
│    │    │    │    │    └─HRFormerBlock (0)                                [1, 36, 48, 80]      [1, 36, 48, 80]      --                        --              True
│    │    │    │    │    │    └─LayerNorm (norm1)                           [1, 3840, 36]        [1, 3840, 36]        72                     0.00%              True
│    │    │    │    │    │    └─LocalWindowSelfAttention (attn)             [1, 3840, 36]        [1, 3840, 36]        --                        --              True
│    │    │    │    │    │    │    └─WindowMSA (attn)                       [84, 49, 36]         [84, 49, 36]         338                    0.00%              True
│    │    │    │    │    │    │    │    └─Linear (qkv)                      [84, 49, 36]         [84, 49, 108]        3,996                  0.01%              True
│    │    │    │    │    │    │    │    └─Softmax (softmax)                 [84, 2, 49, 49]      [84, 2, 49, 49]      --                        --              --
│    │    │    │    │    │    │    │    └─Dropout (attn_drop)               [84, 2, 49, 49]      [84, 2, 49, 49]      --                        --              --
│    │    │    │    │    │    │    │    └─Linear (out_proj)                 [84, 49, 36]         [84, 49, 36]         1,332                  0.00%              True
│    │    │    │    │    │    │    │    └─Dropout (proj_drop)               [84, 49, 36]         [84, 49, 36]         --                        --              --
│    │    │    │    │    │    └─Identity (drop_path)                        [1, 3840, 36]        [1, 3840, 36]        --                        --              --
│    │    │    │    │    │    └─LayerNorm (norm2)                           [1, 3840, 36]        [1, 3840, 36]        72                     0.00%              True
│    │    │    │    │    │    └─CrossFFN (ffn)                              [1, 3840, 36]        [1, 3840, 36]        --                        --              True
│    │    │    │    │    │    │    └─Sequential (layers)                    [1, 36, 48, 80]      [1, 36, 48, 80]      --                        --              True
│    │    │    │    │    │    │    │    └─Conv2d (0)                        [1, 36, 48, 80]      [1, 144, 48, 80]     5,328                  0.01%              True
│    │    │    │    │    │    │    │    └─BatchNorm2d (1)                   [1, 144, 48, 80]     [1, 144, 48, 80]     288                    0.00%              True
│    │    │    │    │    │    │    │    └─GELU (2)                          [1, 144, 48, 80]     [1, 144, 48, 80]     --                        --              --
│    │    │    │    │    │    │    │    └─Conv2d (3)                        [1, 144, 48, 80]     [1, 144, 48, 80]     1,440                  0.00%              True
│    │    │    │    │    │    │    │    └─BatchNorm2d (4)                   [1, 144, 48, 80]     [1, 144, 48, 80]     288                    0.00%              True
│    │    │    │    │    │    │    │    └─GELU (5)                          [1, 144, 48, 80]     [1, 144, 48, 80]     --                        --              --
│    │    │    │    │    │    │    │    └─Conv2d (6)                        [1, 144, 48, 80]     [1, 36, 48, 80]      5,220                  0.01%              True
│    │    │    │    │    │    │    │    └─BatchNorm2d (7)                   [1, 36, 48, 80]      [1, 36, 48, 80]      72                     0.00%              True
│    │    │    │    │    │    │    │    └─GELU (8)                          [1, 36, 48, 80]      [1, 36, 48, 80]      --                        --              --
│    │    │    │    │    │    └─Identity (drop_path)                        [1, 3840, 36]        [1, 3840, 36]        --                   (recursive)          --
│    │    │    │    │    └─HRFormerBlock (1)                                [1, 36, 48, 80]      [1, 36, 48, 80]      --                        --              True
│    │    │    │    │    │    └─LayerNorm (norm1)                           [1, 3840, 36]        [1, 3840, 36]        72                     0.00%              True
│    │    │    │    │    │    └─LocalWindowSelfAttention (attn)             [1, 3840, 36]        [1, 3840, 36]        --                        --              True
│    │    │    │    │    │    │    └─WindowMSA (attn)                       [84, 49, 36]         [84, 49, 36]         338                    0.00%              True
│    │    │    │    │    │    │    │    └─Linear (qkv)                      [84, 49, 36]         [84, 49, 108]        3,996                  0.01%              True
│    │    │    │    │    │    │    │    └─Softmax (softmax)                 [84, 2, 49, 49]      [84, 2, 49, 49]      --                        --              --
│    │    │    │    │    │    │    │    └─Dropout (attn_drop)               [84, 2, 49, 49]      [84, 2, 49, 49]      --                        --              --
│    │    │    │    │    │    │    │    └─Linear (out_proj)                 [84, 49, 36]         [84, 49, 36]         1,332                  0.00%              True
│    │    │    │    │    │    │    │    └─Dropout (proj_drop)               [84, 49, 36]         [84, 49, 36]         --                        --              --
│    │    │    │    │    │    └─Identity (drop_path)                        [1, 3840, 36]        [1, 3840, 36]        --                        --              --
│    │    │    │    │    │    └─LayerNorm (norm2)                           [1, 3840, 36]        [1, 3840, 36]        72                     0.00%              True
│    │    │    │    │    │    └─CrossFFN (ffn)                              [1, 3840, 36]        [1, 3840, 36]        --                        --              True
│    │    │    │    │    │    │    └─Sequential (layers)                    [1, 36, 48, 80]      [1, 36, 48, 80]      --                        --              True
│    │    │    │    │    │    │    │    └─Conv2d (0)                        [1, 36, 48, 80]      [1, 144, 48, 80]     5,328                  0.01%              True
│    │    │    │    │    │    │    │    └─BatchNorm2d (1)                   [1, 144, 48, 80]     [1, 144, 48, 80]     288                    0.00%              True
│    │    │    │    │    │    │    │    └─GELU (2)                          [1, 144, 48, 80]     [1, 144, 48, 80]     --                        --              --
│    │    │    │    │    │    │    │    └─Conv2d (3)                        [1, 144, 48, 80]     [1, 144, 48, 80]     1,440                  0.00%              True
│    │    │    │    │    │    │    │    └─BatchNorm2d (4)                   [1, 144, 48, 80]     [1, 144, 48, 80]     288                    0.00%              True
│    │    │    │    │    │    │    │    └─GELU (5)                          [1, 144, 48, 80]     [1, 144, 48, 80]     --                        --              --
│    │    │    │    │    │    │    │    └─Conv2d (6)                        [1, 144, 48, 80]     [1, 36, 48, 80]      5,220                  0.01%              True
│    │    │    │    │    │    │    │    └─BatchNorm2d (7)                   [1, 36, 48, 80]      [1, 36, 48, 80]      72                     0.00%              True
│    │    │    │    │    │    │    │    └─GELU (8)                          [1, 36, 48, 80]      [1, 36, 48, 80]      --                        --              --
│    │    │    │    │    │    └─Identity (drop_path)                        [1, 3840, 36]        [1, 3840, 36]        --                   (recursive)          --
│    │    │    │    └─Sequential (2)                                        [1, 72, 24, 40]      [1, 72, 24, 40]      --                        --              True
│    │    │    │    │    └─HRFormerBlock (0)                                [1, 72, 24, 40]      [1, 72, 24, 40]      --                        --              True
│    │    │    │    │    │    └─LayerNorm (norm1)                           [1, 960, 72]         [1, 960, 72]         144                    0.00%              True
│    │    │    │    │    │    └─LocalWindowSelfAttention (attn)             [1, 960, 72]         [1, 960, 72]         --                        --              True
│    │    │    │    │    │    │    └─WindowMSA (attn)                       [24, 49, 72]         [24, 49, 72]         676                    0.00%              True
│    │    │    │    │    │    │    │    └─Linear (qkv)                      [24, 49, 72]         [24, 49, 216]        15,768                 0.03%              True
│    │    │    │    │    │    │    │    └─Softmax (softmax)                 [24, 4, 49, 49]      [24, 4, 49, 49]      --                        --              --
│    │    │    │    │    │    │    │    └─Dropout (attn_drop)               [24, 4, 49, 49]      [24, 4, 49, 49]      --                        --              --
│    │    │    │    │    │    │    │    └─Linear (out_proj)                 [24, 49, 72]         [24, 49, 72]         5,256                  0.01%              True
│    │    │    │    │    │    │    │    └─Dropout (proj_drop)               [24, 49, 72]         [24, 49, 72]         --                        --              --
│    │    │    │    │    │    └─Identity (drop_path)                        [1, 960, 72]         [1, 960, 72]         --                        --              --
│    │    │    │    │    │    └─LayerNorm (norm2)                           [1, 960, 72]         [1, 960, 72]         144                    0.00%              True
│    │    │    │    │    │    └─CrossFFN (ffn)                              [1, 960, 72]         [1, 960, 72]         --                        --              True
│    │    │    │    │    │    │    └─Sequential (layers)                    [1, 72, 24, 40]      [1, 72, 24, 40]      --                        --              True
│    │    │    │    │    │    │    │    └─Conv2d (0)                        [1, 72, 24, 40]      [1, 288, 24, 40]     21,024                 0.04%              True
│    │    │    │    │    │    │    │    └─BatchNorm2d (1)                   [1, 288, 24, 40]     [1, 288, 24, 40]     576                    0.00%              True
│    │    │    │    │    │    │    │    └─GELU (2)                          [1, 288, 24, 40]     [1, 288, 24, 40]     --                        --              --
│    │    │    │    │    │    │    │    └─Conv2d (3)                        [1, 288, 24, 40]     [1, 288, 24, 40]     2,880                  0.01%              True
│    │    │    │    │    │    │    │    └─BatchNorm2d (4)                   [1, 288, 24, 40]     [1, 288, 24, 40]     576                    0.00%              True
│    │    │    │    │    │    │    │    └─GELU (5)                          [1, 288, 24, 40]     [1, 288, 24, 40]     --                        --              --
│    │    │    │    │    │    │    │    └─Conv2d (6)                        [1, 288, 24, 40]     [1, 72, 24, 40]      20,808                 0.04%              True
│    │    │    │    │    │    │    │    └─BatchNorm2d (7)                   [1, 72, 24, 40]      [1, 72, 24, 40]      144                    0.00%              True
│    │    │    │    │    │    │    │    └─GELU (8)                          [1, 72, 24, 40]      [1, 72, 24, 40]      --                        --              --
│    │    │    │    │    │    └─Identity (drop_path)                        [1, 960, 72]         [1, 960, 72]         --                   (recursive)          --
│    │    │    │    │    └─HRFormerBlock (1)                                [1, 72, 24, 40]      [1, 72, 24, 40]      --                        --              True
│    │    │    │    │    │    └─LayerNorm (norm1)                           [1, 960, 72]         [1, 960, 72]         144                    0.00%              True
│    │    │    │    │    │    └─LocalWindowSelfAttention (attn)             [1, 960, 72]         [1, 960, 72]         --                        --              True
│    │    │    │    │    │    │    └─WindowMSA (attn)                       [24, 49, 72]         [24, 49, 72]         676                    0.00%              True
│    │    │    │    │    │    │    │    └─Linear (qkv)                      [24, 49, 72]         [24, 49, 216]        15,768                 0.03%              True
│    │    │    │    │    │    │    │    └─Softmax (softmax)                 [24, 4, 49, 49]      [24, 4, 49, 49]      --                        --              --
│    │    │    │    │    │    │    │    └─Dropout (attn_drop)               [24, 4, 49, 49]      [24, 4, 49, 49]      --                        --              --
│    │    │    │    │    │    │    │    └─Linear (out_proj)                 [24, 49, 72]         [24, 49, 72]         5,256                  0.01%              True
│    │    │    │    │    │    │    │    └─Dropout (proj_drop)               [24, 49, 72]         [24, 49, 72]         --                        --              --
│    │    │    │    │    │    └─Identity (drop_path)                        [1, 960, 72]         [1, 960, 72]         --                        --              --
│    │    │    │    │    │    └─LayerNorm (norm2)                           [1, 960, 72]         [1, 960, 72]         144                    0.00%              True
│    │    │    │    │    │    └─CrossFFN (ffn)                              [1, 960, 72]         [1, 960, 72]         --                        --              True
│    │    │    │    │    │    │    └─Sequential (layers)                    [1, 72, 24, 40]      [1, 72, 24, 40]      --                        --              True
│    │    │    │    │    │    │    │    └─Conv2d (0)                        [1, 72, 24, 40]      [1, 288, 24, 40]     21,024                 0.04%              True
│    │    │    │    │    │    │    │    └─BatchNorm2d (1)                   [1, 288, 24, 40]     [1, 288, 24, 40]     576                    0.00%              True
│    │    │    │    │    │    │    │    └─GELU (2)                          [1, 288, 24, 40]     [1, 288, 24, 40]     --                        --              --
│    │    │    │    │    │    │    │    └─Conv2d (3)                        [1, 288, 24, 40]     [1, 288, 24, 40]     2,880                  0.01%              True
│    │    │    │    │    │    │    │    └─BatchNorm2d (4)                   [1, 288, 24, 40]     [1, 288, 24, 40]     576                    0.00%              True
│    │    │    │    │    │    │    │    └─GELU (5)                          [1, 288, 24, 40]     [1, 288, 24, 40]     --                        --              --
│    │    │    │    │    │    │    │    └─Conv2d (6)                        [1, 288, 24, 40]     [1, 72, 24, 40]      20,808                 0.04%              True
│    │    │    │    │    │    │    │    └─BatchNorm2d (7)                   [1, 72, 24, 40]      [1, 72, 24, 40]      144                    0.00%              True
│    │    │    │    │    │    │    │    └─GELU (8)                          [1, 72, 24, 40]      [1, 72, 24, 40]      --                        --              --
│    │    │    │    │    │    └─Identity (drop_path)                        [1, 960, 72]         [1, 960, 72]         --                   (recursive)          --
│    │    │    └─ModuleList (fuse_layers)                                   --                   --                   (recursive)          (recursive)          True
│    │    │    │    └─ModuleList (0)                                        --                   --                   --                        --              True
│    │    │    │    │    └─Sequential (1)                                   [1, 36, 48, 80]      [1, 18, 48, 80]      --                        --              True
│    │    │    │    │    │    └─Conv2d (0)                                  [1, 36, 48, 80]      [1, 18, 48, 80]      648                    0.00%              True
│    │    │    │    │    │    └─BatchNorm2d (1)                             [1, 18, 48, 80]      [1, 18, 48, 80]      36                     0.00%              True
│    │    │    │    │    └─Sequential (2)                                   [1, 72, 24, 40]      [1, 18, 24, 40]      --                        --              True
│    │    │    │    │    │    └─Conv2d (0)                                  [1, 72, 24, 40]      [1, 18, 24, 40]      1,296                  0.00%              True
│    │    │    │    │    │    └─BatchNorm2d (1)                             [1, 18, 24, 40]      [1, 18, 24, 40]      36                     0.00%              True
│    │    │    └─ReLU (relu)                                                [1, 18, 96, 160]     [1, 18, 96, 160]     --                        --              --
│    │    │    └─ModuleList (fuse_layers)                                   --                   --                   (recursive)          (recursive)          True
│    │    │    │    └─ModuleList (1)                                        --                   --                   --                        --              True
│    │    │    │    │    └─Sequential (0)                                   [1, 18, 96, 160]     [1, 36, 48, 80]      --                        --              True
│    │    │    │    │    │    └─Sequential (0)                              [1, 18, 96, 160]     [1, 36, 48, 80]      --                        --              True
│    │    │    │    │    │    │    └─Conv2d (0)                             [1, 18, 96, 160]     [1, 18, 48, 80]      162                    0.00%              True
│    │    │    │    │    │    │    └─BatchNorm2d (1)                        [1, 18, 48, 80]      [1, 18, 48, 80]      36                     0.00%              True
│    │    │    │    │    │    │    └─Conv2d (2)                             [1, 18, 48, 80]      [1, 36, 48, 80]      648                    0.00%              True
│    │    │    │    │    │    │    └─BatchNorm2d (3)                        [1, 36, 48, 80]      [1, 36, 48, 80]      72                     0.00%              True
│    │    │    │    │    └─Sequential (2)                                   [1, 72, 24, 40]      [1, 36, 24, 40]      --                        --              True
│    │    │    │    │    │    └─Conv2d (0)                                  [1, 72, 24, 40]      [1, 36, 24, 40]      2,592                  0.01%              True
│    │    │    │    │    │    └─BatchNorm2d (1)                             [1, 36, 24, 40]      [1, 36, 24, 40]      72                     0.00%              True
│    │    │    └─ReLU (relu)                                                [1, 36, 48, 80]      [1, 36, 48, 80]      --                   (recursive)          --
│    │    │    └─ModuleList (fuse_layers)                                   --                   --                   (recursive)          (recursive)          True
│    │    │    │    └─ModuleList (2)                                        --                   --                   --                        --              True
│    │    │    │    │    └─Sequential (0)                                   [1, 18, 96, 160]     [1, 72, 24, 40]      --                        --              True
│    │    │    │    │    │    └─Sequential (0)                              [1, 18, 96, 160]     [1, 18, 48, 80]      --                        --              True
│    │    │    │    │    │    │    └─Conv2d (0)                             [1, 18, 96, 160]     [1, 18, 48, 80]      162                    0.00%              True
│    │    │    │    │    │    │    └─BatchNorm2d (1)                        [1, 18, 48, 80]      [1, 18, 48, 80]      36                     0.00%              True
│    │    │    │    │    │    │    └─Conv2d (2)                             [1, 18, 48, 80]      [1, 18, 48, 80]      324                    0.00%              True
│    │    │    │    │    │    │    └─BatchNorm2d (3)                        [1, 18, 48, 80]      [1, 18, 48, 80]      36                     0.00%              True
│    │    │    │    │    │    │    └─ReLU (4)                               [1, 18, 48, 80]      [1, 18, 48, 80]      --                        --              --
│    │    │    │    │    │    └─Sequential (1)                              [1, 18, 48, 80]      [1, 72, 24, 40]      --                        --              True
│    │    │    │    │    │    │    └─Conv2d (0)                             [1, 18, 48, 80]      [1, 18, 24, 40]      162                    0.00%              True
│    │    │    │    │    │    │    └─BatchNorm2d (1)                        [1, 18, 24, 40]      [1, 18, 24, 40]      36                     0.00%              True
│    │    │    │    │    │    │    └─Conv2d (2)                             [1, 18, 24, 40]      [1, 72, 24, 40]      1,296                  0.00%              True
│    │    │    │    │    │    │    └─BatchNorm2d (3)                        [1, 72, 24, 40]      [1, 72, 24, 40]      144                    0.00%              True
│    │    │    │    │    └─Sequential (1)                                   [1, 36, 48, 80]      [1, 72, 24, 40]      --                        --              True
│    │    │    │    │    │    └─Sequential (0)                              [1, 36, 48, 80]      [1, 72, 24, 40]      --                        --              True
│    │    │    │    │    │    │    └─Conv2d (0)                             [1, 36, 48, 80]      [1, 36, 24, 40]      324                    0.00%              True
│    │    │    │    │    │    │    └─BatchNorm2d (1)                        [1, 36, 24, 40]      [1, 36, 24, 40]      72                     0.00%              True
│    │    │    │    │    │    │    └─Conv2d (2)                             [1, 36, 24, 40]      [1, 72, 24, 40]      2,592                  0.01%              True
│    │    │    │    │    │    │    └─BatchNorm2d (3)                        [1, 72, 24, 40]      [1, 72, 24, 40]      144                    0.00%              True
│    │    │    └─ReLU (relu)                                                [1, 72, 24, 40]      [1, 72, 24, 40]      --                   (recursive)          --
│    │    └─HRFomerModule (1)                                               [1, 18, 96, 160]     [1, 18, 96, 160]     --                        --              True
│    │    │    └─ModuleList (branches)                                      --                   --                   --                        --              True
│    │    │    │    └─Sequential (0)                                        [1, 18, 96, 160]     [1, 18, 96, 160]     --                        --              True
│    │    │    │    │    └─HRFormerBlock (0)                                [1, 18, 96, 160]     [1, 18, 96, 160]     --                        --              True
│    │    │    │    │    │    └─LayerNorm (norm1)                           [1, 15360, 18]       [1, 15360, 18]       36                     0.00%              True
│    │    │    │    │    │    └─LocalWindowSelfAttention (attn)             [1, 15360, 18]       [1, 15360, 18]       --                        --              True
│    │    │    │    │    │    │    └─WindowMSA (attn)                       [322, 49, 18]        [322, 49, 18]        169                    0.00%              True
│    │    │    │    │    │    │    │    └─Linear (qkv)                      [322, 49, 18]        [322, 49, 54]        1,026                  0.00%              True
│    │    │    │    │    │    │    │    └─Softmax (softmax)                 [322, 1, 49, 49]     [322, 1, 49, 49]     --                        --              --
│    │    │    │    │    │    │    │    └─Dropout (attn_drop)               [322, 1, 49, 49]     [322, 1, 49, 49]     --                        --              --
│    │    │    │    │    │    │    │    └─Linear (out_proj)                 [322, 49, 18]        [322, 49, 18]        342                    0.00%              True
│    │    │    │    │    │    │    │    └─Dropout (proj_drop)               [322, 49, 18]        [322, 49, 18]        --                        --              --
│    │    │    │    │    │    └─Identity (drop_path)                        [1, 15360, 18]       [1, 15360, 18]       --                        --              --
│    │    │    │    │    │    └─LayerNorm (norm2)                           [1, 15360, 18]       [1, 15360, 18]       36                     0.00%              True
│    │    │    │    │    │    └─CrossFFN (ffn)                              [1, 15360, 18]       [1, 15360, 18]       --                        --              True
│    │    │    │    │    │    │    └─Sequential (layers)                    [1, 18, 96, 160]     [1, 18, 96, 160]     --                        --              True
│    │    │    │    │    │    │    │    └─Conv2d (0)                        [1, 18, 96, 160]     [1, 72, 96, 160]     1,368                  0.00%              True
│    │    │    │    │    │    │    │    └─BatchNorm2d (1)                   [1, 72, 96, 160]     [1, 72, 96, 160]     144                    0.00%              True
│    │    │    │    │    │    │    │    └─GELU (2)                          [1, 72, 96, 160]     [1, 72, 96, 160]     --                        --              --
│    │    │    │    │    │    │    │    └─Conv2d (3)                        [1, 72, 96, 160]     [1, 72, 96, 160]     720                    0.00%              True
│    │    │    │    │    │    │    │    └─BatchNorm2d (4)                   [1, 72, 96, 160]     [1, 72, 96, 160]     144                    0.00%              True
│    │    │    │    │    │    │    │    └─GELU (5)                          [1, 72, 96, 160]     [1, 72, 96, 160]     --                        --              --
│    │    │    │    │    │    │    │    └─Conv2d (6)                        [1, 72, 96, 160]     [1, 18, 96, 160]     1,314                  0.00%              True
│    │    │    │    │    │    │    │    └─BatchNorm2d (7)                   [1, 18, 96, 160]     [1, 18, 96, 160]     36                     0.00%              True
│    │    │    │    │    │    │    │    └─GELU (8)                          [1, 18, 96, 160]     [1, 18, 96, 160]     --                        --              --
│    │    │    │    │    │    └─Identity (drop_path)                        [1, 15360, 18]       [1, 15360, 18]       --                   (recursive)          --
│    │    │    │    │    └─HRFormerBlock (1)                                [1, 18, 96, 160]     [1, 18, 96, 160]     --                        --              True
│    │    │    │    │    │    └─LayerNorm (norm1)                           [1, 15360, 18]       [1, 15360, 18]       36                     0.00%              True
│    │    │    │    │    │    └─LocalWindowSelfAttention (attn)             [1, 15360, 18]       [1, 15360, 18]       --                        --              True
│    │    │    │    │    │    │    └─WindowMSA (attn)                       [322, 49, 18]        [322, 49, 18]        169                    0.00%              True
│    │    │    │    │    │    │    │    └─Linear (qkv)                      [322, 49, 18]        [322, 49, 54]        1,026                  0.00%              True
│    │    │    │    │    │    │    │    └─Softmax (softmax)                 [322, 1, 49, 49]     [322, 1, 49, 49]     --                        --              --
│    │    │    │    │    │    │    │    └─Dropout (attn_drop)               [322, 1, 49, 49]     [322, 1, 49, 49]     --                        --              --
│    │    │    │    │    │    │    │    └─Linear (out_proj)                 [322, 49, 18]        [322, 49, 18]        342                    0.00%              True
│    │    │    │    │    │    │    │    └─Dropout (proj_drop)               [322, 49, 18]        [322, 49, 18]        --                        --              --
│    │    │    │    │    │    └─Identity (drop_path)                        [1, 15360, 18]       [1, 15360, 18]       --                        --              --
│    │    │    │    │    │    └─LayerNorm (norm2)                           [1, 15360, 18]       [1, 15360, 18]       36                     0.00%              True
│    │    │    │    │    │    └─CrossFFN (ffn)                              [1, 15360, 18]       [1, 15360, 18]       --                        --              True
│    │    │    │    │    │    │    └─Sequential (layers)                    [1, 18, 96, 160]     [1, 18, 96, 160]     --                        --              True
│    │    │    │    │    │    │    │    └─Conv2d (0)                        [1, 18, 96, 160]     [1, 72, 96, 160]     1,368                  0.00%              True
│    │    │    │    │    │    │    │    └─BatchNorm2d (1)                   [1, 72, 96, 160]     [1, 72, 96, 160]     144                    0.00%              True
│    │    │    │    │    │    │    │    └─GELU (2)                          [1, 72, 96, 160]     [1, 72, 96, 160]     --                        --              --
│    │    │    │    │    │    │    │    └─Conv2d (3)                        [1, 72, 96, 160]     [1, 72, 96, 160]     720                    0.00%              True
│    │    │    │    │    │    │    │    └─BatchNorm2d (4)                   [1, 72, 96, 160]     [1, 72, 96, 160]     144                    0.00%              True
│    │    │    │    │    │    │    │    └─GELU (5)                          [1, 72, 96, 160]     [1, 72, 96, 160]     --                        --              --
│    │    │    │    │    │    │    │    └─Conv2d (6)                        [1, 72, 96, 160]     [1, 18, 96, 160]     1,314                  0.00%              True
│    │    │    │    │    │    │    │    └─BatchNorm2d (7)                   [1, 18, 96, 160]     [1, 18, 96, 160]     36                     0.00%              True
│    │    │    │    │    │    │    │    └─GELU (8)                          [1, 18, 96, 160]     [1, 18, 96, 160]     --                        --              --
│    │    │    │    │    │    └─Identity (drop_path)                        [1, 15360, 18]       [1, 15360, 18]       --                   (recursive)          --
│    │    │    │    └─Sequential (1)                                        [1, 36, 48, 80]      [1, 36, 48, 80]      --                        --              True
│    │    │    │    │    └─HRFormerBlock (0)                                [1, 36, 48, 80]      [1, 36, 48, 80]      --                        --              True
│    │    │    │    │    │    └─LayerNorm (norm1)                           [1, 3840, 36]        [1, 3840, 36]        72                     0.00%              True
│    │    │    │    │    │    └─LocalWindowSelfAttention (attn)             [1, 3840, 36]        [1, 3840, 36]        --                        --              True
│    │    │    │    │    │    │    └─WindowMSA (attn)                       [84, 49, 36]         [84, 49, 36]         338                    0.00%              True
│    │    │    │    │    │    │    │    └─Linear (qkv)                      [84, 49, 36]         [84, 49, 108]        3,996                  0.01%              True
│    │    │    │    │    │    │    │    └─Softmax (softmax)                 [84, 2, 49, 49]      [84, 2, 49, 49]      --                        --              --
│    │    │    │    │    │    │    │    └─Dropout (attn_drop)               [84, 2, 49, 49]      [84, 2, 49, 49]      --                        --              --
│    │    │    │    │    │    │    │    └─Linear (out_proj)                 [84, 49, 36]         [84, 49, 36]         1,332                  0.00%              True
│    │    │    │    │    │    │    │    └─Dropout (proj_drop)               [84, 49, 36]         [84, 49, 36]         --                        --              --
│    │    │    │    │    │    └─Identity (drop_path)                        [1, 3840, 36]        [1, 3840, 36]        --                        --              --
│    │    │    │    │    │    └─LayerNorm (norm2)                           [1, 3840, 36]        [1, 3840, 36]        72                     0.00%              True
│    │    │    │    │    │    └─CrossFFN (ffn)                              [1, 3840, 36]        [1, 3840, 36]        --                        --              True
│    │    │    │    │    │    │    └─Sequential (layers)                    [1, 36, 48, 80]      [1, 36, 48, 80]      --                        --              True
│    │    │    │    │    │    │    │    └─Conv2d (0)                        [1, 36, 48, 80]      [1, 144, 48, 80]     5,328                  0.01%              True
│    │    │    │    │    │    │    │    └─BatchNorm2d (1)                   [1, 144, 48, 80]     [1, 144, 48, 80]     288                    0.00%              True
│    │    │    │    │    │    │    │    └─GELU (2)                          [1, 144, 48, 80]     [1, 144, 48, 80]     --                        --              --
│    │    │    │    │    │    │    │    └─Conv2d (3)                        [1, 144, 48, 80]     [1, 144, 48, 80]     1,440                  0.00%              True
│    │    │    │    │    │    │    │    └─BatchNorm2d (4)                   [1, 144, 48, 80]     [1, 144, 48, 80]     288                    0.00%              True
│    │    │    │    │    │    │    │    └─GELU (5)                          [1, 144, 48, 80]     [1, 144, 48, 80]     --                        --              --
│    │    │    │    │    │    │    │    └─Conv2d (6)                        [1, 144, 48, 80]     [1, 36, 48, 80]      5,220                  0.01%              True
│    │    │    │    │    │    │    │    └─BatchNorm2d (7)                   [1, 36, 48, 80]      [1, 36, 48, 80]      72                     0.00%              True
│    │    │    │    │    │    │    │    └─GELU (8)                          [1, 36, 48, 80]      [1, 36, 48, 80]      --                        --              --
│    │    │    │    │    │    └─Identity (drop_path)                        [1, 3840, 36]        [1, 3840, 36]        --                   (recursive)          --
│    │    │    │    │    └─HRFormerBlock (1)                                [1, 36, 48, 80]      [1, 36, 48, 80]      --                        --              True
│    │    │    │    │    │    └─LayerNorm (norm1)                           [1, 3840, 36]        [1, 3840, 36]        72                     0.00%              True
│    │    │    │    │    │    └─LocalWindowSelfAttention (attn)             [1, 3840, 36]        [1, 3840, 36]        --                        --              True
│    │    │    │    │    │    │    └─WindowMSA (attn)                       [84, 49, 36]         [84, 49, 36]         338                    0.00%              True
│    │    │    │    │    │    │    │    └─Linear (qkv)                      [84, 49, 36]         [84, 49, 108]        3,996                  0.01%              True
│    │    │    │    │    │    │    │    └─Softmax (softmax)                 [84, 2, 49, 49]      [84, 2, 49, 49]      --                        --              --
│    │    │    │    │    │    │    │    └─Dropout (attn_drop)               [84, 2, 49, 49]      [84, 2, 49, 49]      --                        --              --
│    │    │    │    │    │    │    │    └─Linear (out_proj)                 [84, 49, 36]         [84, 49, 36]         1,332                  0.00%              True
│    │    │    │    │    │    │    │    └─Dropout (proj_drop)               [84, 49, 36]         [84, 49, 36]         --                        --              --
│    │    │    │    │    │    └─Identity (drop_path)                        [1, 3840, 36]        [1, 3840, 36]        --                        --              --
│    │    │    │    │    │    └─LayerNorm (norm2)                           [1, 3840, 36]        [1, 3840, 36]        72                     0.00%              True
│    │    │    │    │    │    └─CrossFFN (ffn)                              [1, 3840, 36]        [1, 3840, 36]        --                        --              True
│    │    │    │    │    │    │    └─Sequential (layers)                    [1, 36, 48, 80]      [1, 36, 48, 80]      --                        --              True
│    │    │    │    │    │    │    │    └─Conv2d (0)                        [1, 36, 48, 80]      [1, 144, 48, 80]     5,328                  0.01%              True
│    │    │    │    │    │    │    │    └─BatchNorm2d (1)                   [1, 144, 48, 80]     [1, 144, 48, 80]     288                    0.00%              True
│    │    │    │    │    │    │    │    └─GELU (2)                          [1, 144, 48, 80]     [1, 144, 48, 80]     --                        --              --
│    │    │    │    │    │    │    │    └─Conv2d (3)                        [1, 144, 48, 80]     [1, 144, 48, 80]     1,440                  0.00%              True
│    │    │    │    │    │    │    │    └─BatchNorm2d (4)                   [1, 144, 48, 80]     [1, 144, 48, 80]     288                    0.00%              True
│    │    │    │    │    │    │    │    └─GELU (5)                          [1, 144, 48, 80]     [1, 144, 48, 80]     --                        --              --
│    │    │    │    │    │    │    │    └─Conv2d (6)                        [1, 144, 48, 80]     [1, 36, 48, 80]      5,220                  0.01%              True
│    │    │    │    │    │    │    │    └─BatchNorm2d (7)                   [1, 36, 48, 80]      [1, 36, 48, 80]      72                     0.00%              True
│    │    │    │    │    │    │    │    └─GELU (8)                          [1, 36, 48, 80]      [1, 36, 48, 80]      --                        --              --
│    │    │    │    │    │    └─Identity (drop_path)                        [1, 3840, 36]        [1, 3840, 36]        --                   (recursive)          --
│    │    │    │    └─Sequential (2)                                        [1, 72, 24, 40]      [1, 72, 24, 40]      --                        --              True
│    │    │    │    │    └─HRFormerBlock (0)                                [1, 72, 24, 40]      [1, 72, 24, 40]      --                        --              True
│    │    │    │    │    │    └─LayerNorm (norm1)                           [1, 960, 72]         [1, 960, 72]         144                    0.00%              True
│    │    │    │    │    │    └─LocalWindowSelfAttention (attn)             [1, 960, 72]         [1, 960, 72]         --                        --              True
│    │    │    │    │    │    │    └─WindowMSA (attn)                       [24, 49, 72]         [24, 49, 72]         676                    0.00%              True
│    │    │    │    │    │    │    │    └─Linear (qkv)                      [24, 49, 72]         [24, 49, 216]        15,768                 0.03%              True
│    │    │    │    │    │    │    │    └─Softmax (softmax)                 [24, 4, 49, 49]      [24, 4, 49, 49]      --                        --              --
│    │    │    │    │    │    │    │    └─Dropout (attn_drop)               [24, 4, 49, 49]      [24, 4, 49, 49]      --                        --              --
│    │    │    │    │    │    │    │    └─Linear (out_proj)                 [24, 49, 72]         [24, 49, 72]         5,256                  0.01%              True
│    │    │    │    │    │    │    │    └─Dropout (proj_drop)               [24, 49, 72]         [24, 49, 72]         --                        --              --
│    │    │    │    │    │    └─Identity (drop_path)                        [1, 960, 72]         [1, 960, 72]         --                        --              --
│    │    │    │    │    │    └─LayerNorm (norm2)                           [1, 960, 72]         [1, 960, 72]         144                    0.00%              True
│    │    │    │    │    │    └─CrossFFN (ffn)                              [1, 960, 72]         [1, 960, 72]         --                        --              True
│    │    │    │    │    │    │    └─Sequential (layers)                    [1, 72, 24, 40]      [1, 72, 24, 40]      --                        --              True
│    │    │    │    │    │    │    │    └─Conv2d (0)                        [1, 72, 24, 40]      [1, 288, 24, 40]     21,024                 0.04%              True
…
│    │    │    │    │    │    │    │    └─GELU (5)                          [1, 144, 48, 80]     [1, 144, 48, 80]     --                        --              --
│    │    │    │    │    │    │    │    └─Conv2d (6)                        [1, 144, 48, 80]     [1, 36, 48, 80]      5,220                  0.01%              True
│    │    │    │    │    │    │    │    └─BatchNorm2d (7)                   [1, 36, 48, 80]      [1, 36, 48, 80]      72                     0.00%              True
│    │    │    │    │    │    │    │    └─GELU (8)                          [1, 36, 48, 80]      [1, 36, 48, 80]      --                        --              --
│    │    │    │    │    │    └─Identity (drop_path)                        [1, 3840, 36]        [1, 3840, 36]        --                   (recursive)          --
│    │    │    │    │    └─HRFormerBlock (1)                                [1, 36, 48, 80]      [1, 36, 48, 80]      --                        --              True
│    │    │    │    │    │    └─LayerNorm (norm1)                           [1, 3840, 36]        [1, 3840, 36]        72                     0.00%              True
│    │    │    │    │    │    └─LocalWindowSelfAttention (attn)             [1, 3840, 36]        [1, 3840, 36]        --                        --              True
│    │    │    │    │    │    │    └─WindowMSA (attn)                       [84, 49, 36]         [84, 49, 36]         338                    0.00%              True
│    │    │    │    │    │    │    │    └─Linear (qkv)                      [84, 49, 36]         [84, 49, 108]        3,996                  0.01%              True
│    │    │    │    │    │    │    │    └─Softmax (softmax)                 [84, 2, 49, 49]      [84, 2, 49, 49]      --                        --              --
│    │    │    │    │    │    │    │    └─Dropout (attn_drop)               [84, 2, 49, 49]      [84, 2, 49, 49]      --                        --              --
│    │    │    │    │    │    │    │    └─Linear (out_proj)                 [84, 49, 36]         [84, 49, 36]         1,332                  0.00%              True
│    │    │    │    │    │    │    │    └─Dropout (proj_drop)               [84, 49, 36]         [84, 49, 36]         --                        --              --
│    │    │    │    │    │    └─Identity (drop_path)                        [1, 3840, 36]        [1, 3840, 36]        --                        --              --
│    │    │    │    │    │    └─LayerNorm (norm2)                           [1, 3840, 36]        [1, 3840, 36]        72                     0.00%              True
│    │    │    │    │    │    └─CrossFFN (ffn)                              [1, 3840, 36]        [1, 3840, 36]        --                        --              True
│    │    │    │    │    │    │    └─Sequential (layers)                    [1, 36, 48, 80]      [1, 36, 48, 80]      --                        --              True
│    │    │    │    │    │    │    │    └─Conv2d (0)                        [1, 36, 48, 80]      [1, 144, 48, 80]     5,328                  0.01%              True
│    │    │    │    │    │    │    │    └─BatchNorm2d (1)                   [1, 144, 48, 80]     [1, 144, 48, 80]     288                    0.00%              True
│    │    │    │    │    │    │    │    └─GELU (2)                          [1, 144, 48, 80]     [1, 144, 48, 80]     --                        --              --
│    │    │    │    │    │    │    │    └─Conv2d (3)                        [1, 144, 48, 80]     [1, 144, 48, 80]     1,440                  0.00%              True
│    │    │    │    │    │    │    │    └─BatchNorm2d (4)                   [1, 144, 48, 80]     [1, 144, 48, 80]     288                    0.00%              True
│    │    │    │    │    │    │    │    └─GELU (5)                          [1, 144, 48, 80]     [1, 144, 48, 80]     --                        --              --
│    │    │    │    │    │    │    │    └─Conv2d (6)                        [1, 144, 48, 80]     [1, 36, 48, 80]      5,220                  0.01%              True
│    │    │    │    │    │    │    │    └─BatchNorm2d (7)                   [1, 36, 48, 80]      [1, 36, 48, 80]      72                     0.00%              True
│    │    │    │    │    │    │    │    └─GELU (8)                          [1, 36, 48, 80]      [1, 36, 48, 80]      --                        --              --
│    │    │    │    │    │    └─Identity (drop_path)                        [1, 3840, 36]        [1, 3840, 36]        --                   (recursive)          --
│    │    │    │    └─Sequential (2)                                        [1, 72, 24, 40]      [1, 72, 24, 40]      --                        --              True
│    │    │    │    │    └─HRFormerBlock (0)                                [1, 72, 24, 40]      [1, 72, 24, 40]      --                        --              True
│    │    │    │    │    │    └─LayerNorm (norm1)                           [1, 960, 72]         [1, 960, 72]         144                    0.00%              True
│    │    │    │    │    │    └─LocalWindowSelfAttention (attn)             [1, 960, 72]         [1, 960, 72]         --                        --              True
│    │    │    │    │    │    │    └─WindowMSA (attn)                       [24, 49, 72]         [24, 49, 72]         676                    0.00%              True
│    │    │    │    │    │    │    │    └─Linear (qkv)                      [24, 49, 72]         [24, 49, 216]        15,768                 0.03%              True
│    │    │    │    │    │    │    │    └─Softmax (softmax)                 [24, 4, 49, 49]      [24, 4, 49, 49]      --                        --              --
│    │    │    │    │    │    │    │    └─Dropout (attn_drop)               [24, 4, 49, 49]      [24, 4, 49, 49]      --                        --              --
│    │    │    │    │    │    │    │    └─Linear (out_proj)                 [24, 49, 72]         [24, 49, 72]         5,256                  0.01%              True
│    │    │    │    │    │    │    │    └─Dropout (proj_drop)               [24, 49, 72]         [24, 49, 72]         --                        --              --
│    │    │    │    │    │    └─Identity (drop_path)                        [1, 960, 72]         [1, 960, 72]         --                        --              --
│    │    │    │    │    │    └─LayerNorm (norm2)                           [1, 960, 72]         [1, 960, 72]         144                    0.00%              True
│    │    │    │    │    │    └─CrossFFN (ffn)                              [1, 960, 72]         [1, 960, 72]         --                        --              True
│    │    │    │    │    │    │    └─Sequential (layers)                    [1, 72, 24, 40]      [1, 72, 24, 40]      --                        --              True
│    │    │    │    │    │    │    │    └─Conv2d (0)                        [1, 72, 24, 40]      [1, 288, 24, 40]     21,024                 0.04%              True
│    │    │    │    │    │    │    │    └─BatchNorm2d (1)                   [1, 288, 24, 40]     [1, 288, 24, 40]     576                    0.00%              True
│    │    │    │    │    │    │    │    └─GELU (2)                          [1, 288, 24, 40]     [1, 288, 24, 40]     --                        --              --
│    │    │    │    │    │    │    │    └─Conv2d (3)                        [1, 288, 24, 40]     [1, 288, 24, 40]     2,880                  0.01%              True
│    │    │    │    │    │    │    │    └─BatchNorm2d (4)                   [1, 288, 24, 40]     [1, 288, 24, 40]     576                    0.00%              True
│    │    │    │    │    │    │    │    └─GELU (5)                          [1, 288, 24, 40]     [1, 288, 24, 40]     --                        --              --
│    │    │    │    │    │    │    │    └─Conv2d (6)                        [1, 288, 24, 40]     [1, 72, 24, 40]      20,808                 0.04%              True
│    │    │    │    │    │    │    │    └─BatchNorm2d (7)                   [1, 72, 24, 40]      [1, 72, 24, 40]      144                    0.00%              True
│    │    │    │    │    │    │    │    └─GELU (8)                          [1, 72, 24, 40]      [1, 72, 24, 40]      --                        --              --
│    │    │    │    │    │    └─Identity (drop_path)                        [1, 960, 72]         [1, 960, 72]         --                   (recursive)          --
│    │    │    │    │    └─HRFormerBlock (1)                                [1, 72, 24, 40]      [1, 72, 24, 40]      --                        --              True
│    │    │    │    │    │    └─LayerNorm (norm1)                           [1, 960, 72]         [1, 960, 72]         144                    0.00%              True
│    │    │    │    │    │    └─LocalWindowSelfAttention (attn)             [1, 960, 72]         [1, 960, 72]         --                        --              True
│    │    │    │    │    │    │    └─WindowMSA (attn)                       [24, 49, 72]         [24, 49, 72]         676                    0.00%              True
│    │    │    │    │    │    │    │    └─Linear (qkv)                      [24, 49, 72]         [24, 49, 216]        15,768                 0.03%              True
│    │    │    │    │    │    │    │    └─Softmax (softmax)                 [24, 4, 49, 49]      [24, 4, 49, 49]      --                        --              --
│    │    │    │    │    │    │    │    └─Dropout (attn_drop)               [24, 4, 49, 49]      [24, 4, 49, 49]      --                        --              --
│    │    │    │    │    │    │    │    └─Linear (out_proj)                 [24, 49, 72]         [24, 49, 72]         5,256                  0.01%              True
│    │    │    │    │    │    │    │    └─Dropout (proj_drop)               [24, 49, 72]         [24, 49, 72]         --                        --              --
│    │    │    │    │    │    └─Identity (drop_path)                        [1, 960, 72]         [1, 960, 72]         --                        --              --
│    │    │    │    │    │    └─LayerNorm (norm2)                           [1, 960, 72]         [1, 960, 72]         144                    0.00%              True
│    │    │    │    │    │    └─CrossFFN (ffn)                              [1, 960, 72]         [1, 960, 72]         --                        --              True
│    │    │    │    │    │    │    └─Sequential (layers)                    [1, 72, 24, 40]      [1, 72, 24, 40]      --                        --              True
│    │    │    │    │    │    │    │    └─Conv2d (0)                        [1, 72, 24, 40]      [1, 288, 24, 40]     21,024                 0.04%              True
│    │    │    │    │    │    │    │    └─BatchNorm2d (1)                   [1, 288, 24, 40]     [1, 288, 24, 40]     576                    0.00%              True
│    │    │    │    │    │    │    │    └─GELU (2)                          [1, 288, 24, 40]     [1, 288, 24, 40]     --                        --              --
│    │    │    │    │    │    │    │    └─Conv2d (3)                        [1, 288, 24, 40]     [1, 288, 24, 40]     2,880                  0.01%              True
│    │    │    │    │    │    │    │    └─BatchNorm2d (4)                   [1, 288, 24, 40]     [1, 288, 24, 40]     576                    0.00%              True
│    │    │    │    │    │    │    │    └─GELU (5)                          [1, 288, 24, 40]     [1, 288, 24, 40]     --                        --              --
│    │    │    │    │    │    │    │    └─Conv2d (6)                        [1, 288, 24, 40]     [1, 72, 24, 40]      20,808                 0.04%              True
│    │    │    │    │    │    │    │    └─BatchNorm2d (7)                   [1, 72, 24, 40]      [1, 72, 24, 40]      144                    0.00%              True
│    │    │    │    │    │    │    │    └─GELU (8)                          [1, 72, 24, 40]      [1, 72, 24, 40]      --                        --              --
│    │    │    │    │    │    └─Identity (drop_path)                        [1, 960, 72]         [1, 960, 72]         --                   (recursive)          --
│    │    │    │    └─Sequential (3)                                        [1, 144, 12, 20]     [1, 144, 12, 20]     --                        --              True
│    │    │    │    │    └─HRFormerBlock (0)                                [1, 144, 12, 20]     [1, 144, 12, 20]     --                        --              True
│    │    │    │    │    │    └─LayerNorm (norm1)                           [1, 240, 144]        [1, 240, 144]        288                    0.00%              True
│    │    │    │    │    │    └─LocalWindowSelfAttention (attn)             [1, 240, 144]        [1, 240, 144]        --                        --              True
│    │    │    │    │    │    │    └─WindowMSA (attn)                       [6, 49, 144]         [6, 49, 144]         1,352                  0.00%              True
│    │    │    │    │    │    │    │    └─Linear (qkv)                      [6, 49, 144]         [6, 49, 432]         62,640                 0.13%              True
│    │    │    │    │    │    │    │    └─Softmax (softmax)                 [6, 8, 49, 49]       [6, 8, 49, 49]       --                        --              --
│    │    │    │    │    │    │    │    └─Dropout (attn_drop)               [6, 8, 49, 49]       [6, 8, 49, 49]       --                        --              --
│    │    │    │    │    │    │    │    └─Linear (out_proj)                 [6, 49, 144]         [6, 49, 144]         20,880                 0.04%              True
│    │    │    │    │    │    │    │    └─Dropout (proj_drop)               [6, 49, 144]         [6, 49, 144]         --                        --              --
│    │    │    │    │    │    └─Identity (drop_path)                        [1, 240, 144]        [1, 240, 144]        --                        --              --
│    │    │    │    │    │    └─LayerNorm (norm2)                           [1, 240, 144]        [1, 240, 144]        288                    0.00%              True
│    │    │    │    │    │    └─CrossFFN (ffn)                              [1, 240, 144]        [1, 240, 144]        --                        --              True
│    │    │    │    │    │    │    └─Sequential (layers)                    [1, 144, 12, 20]     [1, 144, 12, 20]     --                        --              True
│    │    │    │    │    │    │    │    └─Conv2d (0)                        [1, 144, 12, 20]     [1, 576, 12, 20]     83,520                 0.17%              True
│    │    │    │    │    │    │    │    └─BatchNorm2d (1)                   [1, 576, 12, 20]     [1, 576, 12, 20]     1,152                  0.00%              True
│    │    │    │    │    │    │    │    └─GELU (2)                          [1, 576, 12, 20]     [1, 576, 12, 20]     --                        --              --
│    │    │    │    │    │    │    │    └─Conv2d (3)                        [1, 576, 12, 20]     [1, 576, 12, 20]     5,760                  0.01%              True
│    │    │    │    │    │    │    │    └─BatchNorm2d (4)                   [1, 576, 12, 20]     [1, 576, 12, 20]     1,152                  0.00%              True
│    │    │    │    │    │    │    │    └─GELU (5)                          [1, 576, 12, 20]     [1, 576, 12, 20]     --                        --              --
│    │    │    │    │    │    │    │    └─Conv2d (6)                        [1, 576, 12, 20]     [1, 144, 12, 20]     83,088                 0.17%              True
│    │    │    │    │    │    │    │    └─BatchNorm2d (7)                   [1, 144, 12, 20]     [1, 144, 12, 20]     288                    0.00%              True
│    │    │    │    │    │    │    │    └─GELU (8)                          [1, 144, 12, 20]     [1, 144, 12, 20]     --                        --              --
│    │    │    │    │    │    └─Identity (drop_path)                        [1, 240, 144]        [1, 240, 144]        --                   (recursive)          --
│    │    │    │    │    └─HRFormerBlock (1)                                [1, 144, 12, 20]     [1, 144, 12, 20]     --                        --              True
│    │    │    │    │    │    └─LayerNorm (norm1)                           [1, 240, 144]        [1, 240, 144]        288                    0.00%              True
│    │    │    │    │    │    └─LocalWindowSelfAttention (attn)             [1, 240, 144]        [1, 240, 144]        --                        --              True
│    │    │    │    │    │    │    └─WindowMSA (attn)                       [6, 49, 144]         [6, 49, 144]         1,352                  0.00%              True
│    │    │    │    │    │    │    │    └─Linear (qkv)                      [6, 49, 144]         [6, 49, 432]         62,640                 0.13%              True
│    │    │    │    │    │    │    │    └─Softmax (softmax)                 [6, 8, 49, 49]       [6, 8, 49, 49]       --                        --              --
│    │    │    │    │    │    │    │    └─Dropout (attn_drop)               [6, 8, 49, 49]       [6, 8, 49, 49]       --                        --              --
│    │    │    │    │    │    │    │    └─Linear (out_proj)                 [6, 49, 144]         [6, 49, 144]         20,880                 0.04%              True
│    │    │    │    │    │    │    │    └─Dropout (proj_drop)               [6, 49, 144]         [6, 49, 144]         --                        --              --
│    │    │    │    │    │    └─Identity (drop_path)                        [1, 240, 144]        [1, 240, 144]        --                        --              --
│    │    │    │    │    │    └─LayerNorm (norm2)                           [1, 240, 144]        [1, 240, 144]        288                    0.00%              True
│    │    │    │    │    │    └─CrossFFN (ffn)                              [1, 240, 144]        [1, 240, 144]        --                        --              True
│    │    │    │    │    │    │    └─Sequential (layers)                    [1, 144, 12, 20]     [1, 144, 12, 20]     --                        --              True
│    │    │    │    │    │    │    │    └─Conv2d (0)                        [1, 144, 12, 20]     [1, 576, 12, 20]     83,520                 0.17%              True
│    │    │    │    │    │    │    │    └─BatchNorm2d (1)                   [1, 576, 12, 20]     [1, 576, 12, 20]     1,152                  0.00%              True
│    │    │    │    │    │    │    │    └─GELU (2)                          [1, 576, 12, 20]     [1, 576, 12, 20]     --                        --              --
│    │    │    │    │    │    │    │    └─Conv2d (3)                        [1, 576, 12, 20]     [1, 576, 12, 20]     5,760                  0.01%              True
│    │    │    │    │    │    │    │    └─BatchNorm2d (4)                   [1, 576, 12, 20]     [1, 576, 12, 20]     1,152                  0.00%              True
│    │    │    │    │    │    │    │    └─GELU (5)                          [1, 576, 12, 20]     [1, 576, 12, 20]     --                        --              --
│    │    │    │    │    │    │    │    └─Conv2d (6)                        [1, 576, 12, 20]     [1, 144, 12, 20]     83,088                 0.17%              True
│    │    │    │    │    │    │    │    └─BatchNorm2d (7)                   [1, 144, 12, 20]     [1, 144, 12, 20]     288                    0.00%              True
│    │    │    │    │    │    │    │    └─GELU (8)                          [1, 144, 12, 20]     [1, 144, 12, 20]     --                        --              --
│    │    │    │    │    │    └─Identity (drop_path)                        [1, 240, 144]        [1, 240, 144]        --                   (recursive)          --
│    │    │    └─ModuleList (fuse_layers)                                   --                   --                   (recursive)          (recursive)          True
│    │    │    │    └─ModuleList (0)                                        --                   --                   --                        --              True
│    │    │    │    │    └─Sequential (1)                                   [1, 36, 48, 80]      [1, 18, 48, 80]      --                        --              True
│    │    │    │    │    │    └─Conv2d (0)                                  [1, 36, 48, 80]      [1, 18, 48, 80]      648                    0.00%              True
│    │    │    │    │    │    └─BatchNorm2d (1)                             [1, 18, 48, 80]      [1, 18, 48, 80]      36                     0.00%              True
│    │    │    │    │    └─Sequential (2)                                   [1, 72, 24, 40]      [1, 18, 24, 40]      --                        --              True
│    │    │    │    │    │    └─Conv2d (0)                                  [1, 72, 24, 40]      [1, 18, 24, 40]      1,296                  0.00%              True
│    │    │    │    │    │    └─BatchNorm2d (1)                             [1, 18, 24, 40]      [1, 18, 24, 40]      36                     0.00%              True
│    │    │    │    │    └─Sequential (3)                                   [1, 144, 12, 20]     [1, 18, 12, 20]      --                        --              True
│    │    │    │    │    │    └─Conv2d (0)                                  [1, 144, 12, 20]     [1, 18, 12, 20]      2,592                  0.01%              True
│    │    │    │    │    │    └─BatchNorm2d (1)                             [1, 18, 12, 20]      [1, 18, 12, 20]      36                     0.00%              True
│    │    │    └─ReLU (relu)                                                [1, 18, 96, 160]     [1, 18, 96, 160]     --                        --              --
│    │    │    └─ModuleList (fuse_layers)                                   --                   --                   (recursive)          (recursive)          True
│    │    │    │    └─ModuleList (1)                                        --                   --                   --                        --              True
│    │    │    │    │    └─Sequential (0)                                   [1, 18, 96, 160]     [1, 36, 48, 80]      --                        --              True
│    │    │    │    │    │    └─Sequential (0)                              [1, 18, 96, 160]     [1, 36, 48, 80]      --                        --              True
│    │    │    │    │    │    │    └─Conv2d (0)                             [1, 18, 96, 160]     [1, 18, 48, 80]      162                    0.00%              True
│    │    │    │    │    │    │    └─BatchNorm2d (1)                        [1, 18, 48, 80]      [1, 18, 48, 80]      36                     0.00%              True
│    │    │    │    │    │    │    └─Conv2d (2)                             [1, 18, 48, 80]      [1, 36, 48, 80]      648                    0.00%              True
│    │    │    │    │    │    │    └─BatchNorm2d (3)                        [1, 36, 48, 80]      [1, 36, 48, 80]      72                     0.00%              True
│    │    │    │    │    └─Sequential (2)                                   [1, 72, 24, 40]      [1, 36, 24, 40]      --                        --              True
│    │    │    │    │    │    └─Conv2d (0)                                  [1, 72, 24, 40]      [1, 36, 24, 40]      2,592                  0.01%              True
│    │    │    │    │    │    └─BatchNorm2d (1)                             [1, 36, 24, 40]      [1, 36, 24, 40]      72                     0.00%              True
│    │    │    │    │    └─Sequential (3)                                   [1, 144, 12, 20]     [1, 36, 12, 20]      --                        --              True
│    │    │    │    │    │    └─Conv2d (0)                                  [1, 144, 12, 20]     [1, 36, 12, 20]      5,184                  0.01%              True
│    │    │    │    │    │    └─BatchNorm2d (1)                             [1, 36, 12, 20]      [1, 36, 12, 20]      72                     0.00%              True
│    │    │    └─ReLU (relu)                                                [1, 36, 48, 80]      [1, 36, 48, 80]      --                   (recursive)          --
│    │    │    └─ModuleList (fuse_layers)                                   --                   --                   (recursive)          (recursive)          True
│    │    │    │    └─ModuleList (2)                                        --                   --                   --                        --              True
│    │    │    │    │    └─Sequential (0)                                   [1, 18, 96, 160]     [1, 72, 24, 40]      --                        --              True
│    │    │    │    │    │    └─Sequential (0)                              [1, 18, 96, 160]     [1, 18, 48, 80]      --                        --              True
│    │    │    │    │    │    │    └─Conv2d (0)                             [1, 18, 96, 160]     [1, 18, 48, 80]      162                    0.00%              True
│    │    │    │    │    │    │    └─BatchNorm2d (1)                        [1, 18, 48, 80]      [1, 18, 48, 80]      36                     0.00%              True
│    │    │    │    │    │    │    └─Conv2d (2)                             [1, 18, 48, 80]      [1, 18, 48, 80]      324                    0.00%              True
│    │    │    │    │    │    │    └─BatchNorm2d (3)                        [1, 18, 48, 80]      [1, 18, 48, 80]      36                     0.00%              True
│    │    │    │    │    │    │    └─ReLU (4)                               [1, 18, 48, 80]      [1, 18, 48, 80]      --                        --              --
│    │    │    │    │    │    └─Sequential (1)                              [1, 18, 48, 80]      [1, 72, 24, 40]      --                        --              True
│    │    │    │    │    │    │    └─Conv2d (0)                             [1, 18, 48, 80]      [1, 18, 24, 40]      162                    0.00%              True
│    │    │    │    │    │    │    └─BatchNorm2d (1)                        [1, 18, 24, 40]      [1, 18, 24, 40]      36                     0.00%              True
│    │    │    │    │    │    │    └─Conv2d (2)                             [1, 18, 24, 40]      [1, 72, 24, 40]      1,296                  0.00%              True
│    │    │    │    │    │    │    └─BatchNorm2d (3)                        [1, 72, 24, 40]      [1, 72, 24, 40]      144                    0.00%              True
│    │    │    │    │    └─Sequential (1)                                   [1, 36, 48, 80]      [1, 72, 24, 40]      --                        --              True
│    │    │    │    │    │    └─Sequential (0)                              [1, 36, 48, 80]      [1, 72, 24, 40]      --                        --              True
│    │    │    │    │    │    │    └─Conv2d (0)                             [1, 36, 48, 80]      [1, 36, 24, 40]      324                    0.00%              True
│    │    │    │    │    │    │    └─BatchNorm2d (1)                        [1, 36, 24, 40]      [1, 36, 24, 40]      72                     0.00%              True
│    │    │    │    │    │    │    └─Conv2d (2)                             [1, 36, 24, 40]      [1, 72, 24, 40]      2,592                  0.01%              True
│    │    │    │    │    │    │    └─BatchNorm2d (3)                        [1, 72, 24, 40]      [1, 72, 24, 40]      144                    0.00%              True
│    │    │    │    │    └─Sequential (3)                                   [1, 144, 12, 20]     [1, 72, 12, 20]      --                        --              True
│    │    │    │    │    │    └─Conv2d (0)                                  [1, 144, 12, 20]     [1, 72, 12, 20]      10,368                 0.02%              True
│    │    │    │    │    │    └─BatchNorm2d (1)                             [1, 72, 12, 20]      [1, 72, 12, 20]      144                    0.00%              True
│    │    │    └─ReLU (relu)                                                [1, 72, 24, 40]      [1, 72, 24, 40]      --                   (recursive)          --
│    │    │    └─ModuleList (fuse_layers)                                   --                   --                   (recursive)          (recursive)          True
│    │    │    │    └─ModuleList (3)                                        --                   --                   --                        --              True
│    │    │    │    │    └─Sequential (0)                                   [1, 18, 96, 160]     [1, 144, 12, 20]     --                        --              True
│    │    │    │    │    │    └─Sequential (0)                              [1, 18, 96, 160]     [1, 18, 48, 80]      --                        --              True
│    │    │    │    │    │    │    └─Conv2d (0)                             [1, 18, 96, 160]     [1, 18, 48, 80]      162                    0.00%              True
│    │    │    │    │    │    │    └─BatchNorm2d (1)                        [1, 18, 48, 80]      [1, 18, 48, 80]      36                     0.00%              True
│    │    │    │    │    │    │    └─Conv2d (2)                             [1, 18, 48, 80]      [1, 18, 48, 80]      324                    0.00%              True
│    │    │    │    │    │    │    └─BatchNorm2d (3)                        [1, 18, 48, 80]      [1, 18, 48, 80]      36                     0.00%              True
│    │    │    │    │    │    │    └─ReLU (4)                               [1, 18, 48, 80]      [1, 18, 48, 80]      --                        --              --
│    │    │    │    │    │    └─Sequential (1)                              [1, 18, 48, 80]      [1, 18, 24, 40]      --                        --              True
│    │    │    │    │    │    │    └─Conv2d (0)                             [1, 18, 48, 80]      [1, 18, 24, 40]      162                    0.00%              True
│    │    │    │    │    │    │    └─BatchNorm2d (1)                        [1, 18, 24, 40]      [1, 18, 24, 40]      36                     0.00%              True
│    │    │    │    │    │    │    └─Conv2d (2)                             [1, 18, 24, 40]      [1, 18, 24, 40]      324                    0.00%              True
│    │    │    │    │    │    │    └─BatchNorm2d (3)                        [1, 18, 24, 40]      [1, 18, 24, 40]      36                     0.00%              True
│    │    │    │    │    │    │    └─ReLU (4)                               [1, 18, 24, 40]      [1, 18, 24, 40]      --                        --              --
│    │    │    │    │    │    └─Sequential (2)                              [1, 18, 24, 40]      [1, 144, 12, 20]     --                        --              True
│    │    │    │    │    │    │    └─Conv2d (0)                             [1, 18, 24, 40]      [1, 18, 12, 20]      162                    0.00%              True
│    │    │    │    │    │    │    └─BatchNorm2d (1)                        [1, 18, 12, 20]      [1, 18, 12, 20]      36                     0.00%              True
│    │    │    │    │    │    │    └─Conv2d (2)                             [1, 18, 12, 20]      [1, 144, 12, 20]     2,592                  0.01%              True
│    │    │    │    │    │    │    └─BatchNorm2d (3)                        [1, 144, 12, 20]     [1, 144, 12, 20]     288                    0.00%              True
│    │    │    │    │    └─Sequential (1)                                   [1, 36, 48, 80]      [1, 144, 12, 20]     --                        --              True
│    │    │    │    │    │    └─Sequential (0)                              [1, 36, 48, 80]      [1, 36, 24, 40]      --                        --              True
│    │    │    │    │    │    │    └─Conv2d (0)                             [1, 36, 48, 80]      [1, 36, 24, 40]      324                    0.00%              True
│    │    │    │    │    │    │    └─BatchNorm2d (1)                        [1, 36, 24, 40]      [1, 36, 24, 40]      72                     0.00%              True
│    │    │    │    │    │    │    └─Conv2d (2)                             [1, 36, 24, 40]      [1, 36, 24, 40]      1,296                  0.00%              True
│    │    │    │    │    │    │    └─BatchNorm2d (3)                        [1, 36, 24, 40]      [1, 36, 24, 40]      72                     0.00%              True
│    │    │    │    │    │    │    └─ReLU (4)                               [1, 36, 24, 40]      [1, 36, 24, 40]      --                        --              --
│    │    │    │    │    │    └─Sequential (1)                              [1, 36, 24, 40]      [1, 144, 12, 20]     --                        --              True
│    │    │    │    │    │    │    └─Conv2d (0)                             [1, 36, 24, 40]      [1, 36, 12, 20]      324                    0.00%              True
│    │    │    │    │    │    │    └─BatchNorm2d (1)                        [1, 36, 12, 20]      [1, 36, 12, 20]      72                     0.00%              True
│    │    │    │    │    │    │    └─Conv2d (2)                             [1, 36, 12, 20]      [1, 144, 12, 20]     5,184                  0.01%              True
│    │    │    │    │    │    │    └─BatchNorm2d (3)                        [1, 144, 12, 20]     [1, 144, 12, 20]     288                    0.00%              True
│    │    │    │    │    └─Sequential (2)                                   [1, 72, 24, 40]      [1, 144, 12, 20]     --                        --              True
│    │    │    │    │    │    └─Sequential (0)                              [1, 72, 24, 40]      [1, 144, 12, 20]     --                        --              True
│    │    │    │    │    │    │    └─Conv2d (0)                             [1, 72, 24, 40]      [1, 72, 12, 20]      648                    0.00%              True
│    │    │    │    │    │    │    └─BatchNorm2d (1)                        [1, 72, 12, 20]      [1, 72, 12, 20]      144                    0.00%              True
│    │    │    │    │    │    │    └─Conv2d (2)                             [1, 72, 12, 20]      [1, 144, 12, 20]     10,368                 0.02%              True
│    │    │    │    │    │    │    └─BatchNorm2d (3)                        [1, 144, 12, 20]     [1, 144, 12, 20]     288                    0.00%              True
│    │    │    └─ReLU (relu)                                                [1, 144, 12, 20]     [1, 144, 12, 20]     --                   (recursive)          --
├─HRFPN (neck)                                                              [1, 18, 96, 160]     [1, 256, 96, 160]    --                        --              True
│    └─ConvModule (reduction_conv)                                          [1, 270, 96, 160]    [1, 256, 96, 160]    --                        --              True
│    │    └─Conv2d (conv)                                                   [1, 270, 96, 160]    [1, 256, 96, 160]    69,376                 0.14%              True
│    └─ModuleList (fpn_convs)                                               --                   --                   --                        --              True
│    │    └─ConvModule (0)                                                  [1, 256, 96, 160]    [1, 256, 96, 160]    --                        --              True
│    │    │    └─Conv2d (conv)                                              [1, 256, 96, 160]    [1, 256, 96, 160]    590,080                1.19%              True
│    │    └─ConvModule (1)                                                  [1, 256, 48, 80]     [1, 256, 48, 80]     --                        --              True
│    │    │    └─Conv2d (conv)                                              [1, 256, 48, 80]     [1, 256, 48, 80]     590,080                1.19%              True
│    │    └─ConvModule (2)                                                  [1, 256, 24, 40]     [1, 256, 24, 40]     --                        --              True
│    │    │    └─Conv2d (conv)                                              [1, 256, 24, 40]     [1, 256, 24, 40]     590,080                1.19%              True
│    │    └─ConvModule (3)                                                  [1, 256, 12, 20]     [1, 256, 12, 20]     --                        --              True
│    │    │    └─Conv2d (conv)                                              [1, 256, 12, 20]     [1, 256, 12, 20]     590,080                1.19%              True
│    │    └─ConvModule (4)                                                  [1, 256, 6, 10]      [1, 256, 6, 10]      --                        --              True
│    │    │    └─Conv2d (conv)                                              [1, 256, 6, 10]      [1, 256, 6, 10]      590,080                1.19%              True
├─RPNHead (rpn_head)                                                        [1, 256, 96, 160]    [1, 3, 96, 160]      --                        --              True
│    └─Conv2d (rpn_conv)                                                    [1, 256, 96, 160]    [1, 256, 96, 160]    590,080                1.19%              True
│    └─Conv2d (rpn_cls)                                                     [1, 256, 96, 160]    [1, 3, 96, 160]      771                    0.00%              True
│    └─Conv2d (rpn_reg)                                                     [1, 256, 96, 160]    [1, 12, 96, 160]     3,084                  0.01%              True
│    └─Conv2d (rpn_conv)                                                    [1, 256, 48, 80]     [1, 256, 48, 80]     (recursive)          (recursive)          True
│    └─Conv2d (rpn_cls)                                                     [1, 256, 48, 80]     [1, 3, 48, 80]       (recursive)          (recursive)          True
│    └─Conv2d (rpn_reg)                                                     [1, 256, 48, 80]     [1, 12, 48, 80]      (recursive)          (recursive)          True
…
│    └─Conv2d (rpn_reg)                                                     [1, 256, 12, 20]     [1, 12, 12, 20]      (recursive)          (recursive)          True
│    └─Conv2d (rpn_conv)                                                    [1, 256, 6, 10]      [1, 256, 6, 10]      (recursive)          (recursive)          True
│    └─Conv2d (rpn_cls)                                                     [1, 256, 6, 10]      [1, 3, 6, 10]        (recursive)          (recursive)          True
│    └─Conv2d (rpn_reg)                                                     [1, 256, 6, 10]      [1, 12, 6, 10]       (recursive)          (recursive)          True
│    └─CrossEntropyLoss (loss_cls)                                          [46080, 1]           --                   --                        --              --
│    └─SmoothL1Loss (loss_bbox)                                             [46080, 4]           --                   --                        --              --
│    └─CrossEntropyLoss (loss_cls)                                          [11520, 1]           --                   --                   (recursive)          --
│    └─SmoothL1Loss (loss_bbox)                                             [11520, 4]           --                   --                   (recursive)          --
│    └─CrossEntropyLoss (loss_cls)                                          [2880, 1]            --                   --                   (recursive)          --
│    └─SmoothL1Loss (loss_bbox)                                             [2880, 4]            --                   --                   (recursive)          --
│    └─CrossEntropyLoss (loss_cls)                                          [720, 1]             --                   --                   (recursive)          --
│    └─SmoothL1Loss (loss_bbox)                                             [720, 4]             --                   --                   (recursive)          --
│    └─CrossEntropyLoss (loss_cls)                                          [180, 1]             --                   --                   (recursive)          --
│    └─SmoothL1Loss (loss_bbox)                                             [180, 4]             --                   --                   (recursive)          --
├─CascadeRoIHead (roi_head)                                                 --                   --                   --                        --              True
│    └─ModuleList (bbox_roi_extractor)                                      --                   --                   --                   (recursive)          --
│    │    └─SingleRoIExtractor (0)                                          [1, 256, 96, 160]    [512, 256, 7, 7]     --                        --              --
│    │    │    └─ModuleList (roi_layers)                                    --                   --                   --                        --              --
│    │    │    │    └─RoIAlign (0)                                          [1, 256, 96, 160]    [474, 256, 7, 7]     --                        --              --
│    │    │    │    └─RoIAlign (1)                                          [1, 256, 48, 80]     [33, 256, 7, 7]      --                        --              --
│    │    │    │    └─RoIAlign (2)                                          [1, 256, 24, 40]     [5, 256, 7, 7]       --                        --              --
│    └─ModuleList (bbox_head)                                               --                   --                   (recursive)          (recursive)          True
│    │    └─Shared2FCBBoxHead (0)                                           [512, 256, 7, 7]     [512, 11]            --                        --              True
│    │    │    └─ModuleList (shared_fcs)                                    --                   --                   (recursive)          (recursive)          True
│    │    │    │    └─Linear (0)                                            [512, 12544]         [512, 1024]          12,846,080            26.01%              True
│    │    │    └─ReLU (relu)                                                [512, 1024]          [512, 1024]          --                        --              --
│    │    │    └─ModuleList (shared_fcs)                                    --                   --                   (recursive)          (recursive)          True
│    │    │    │    └─Linear (1)                                            [512, 1024]          [512, 1024]          1,049,600              2.13%              True
│    │    │    └─ReLU (relu)                                                [512, 1024]          [512, 1024]          --                   (recursive)          --
│    │    │    └─Linear (fc_cls)                                            [512, 1024]          [512, 11]            11,275                 0.02%              True
│    │    │    └─Linear (fc_reg)                                            [512, 1024]          [512, 4]             4,100                  0.01%              True
│    │    │    └─CrossEntropyLoss (loss_cls)                                [512, 11]            --                   --                        --              --
│    │    │    └─SmoothL1Loss (loss_bbox)                                   [1, 4]               --                   --                        --              --
│    └─ModuleList (bbox_roi_extractor)                                      --                   --                   --                   (recursive)          --
│    │    └─SingleRoIExtractor (1)                                          [1, 256, 96, 160]    [512, 256, 7, 7]     --                        --              --
│    │    │    └─ModuleList (roi_layers)                                    --                   --                   --                        --              --
│    │    │    │    └─RoIAlign (0)                                          [1, 256, 96, 160]    [484, 256, 7, 7]     --                        --              --
│    │    │    │    └─RoIAlign (1)                                          [1, 256, 48, 80]     [26, 256, 7, 7]      --                        --              --
│    │    │    │    └─RoIAlign (2)                                          [1, 256, 24, 40]     [2, 256, 7, 7]       --                        --              --
│    └─ModuleList (bbox_head)                                               --                   --                   (recursive)          (recursive)          True
│    │    └─Shared2FCBBoxHead (1)                                           [512, 256, 7, 7]     [512, 11]            --                        --              True
│    │    │    └─ModuleList (shared_fcs)                                    --                   --                   (recursive)          (recursive)          True
│    │    │    │    └─Linear (0)                                            [512, 12544]         [512, 1024]          12,846,080            26.01%              True
│    │    │    └─ReLU (relu)                                                [512, 1024]          [512, 1024]          --                        --              --
│    │    │    └─ModuleList (shared_fcs)                                    --                   --                   (recursive)          (recursive)          True
│    │    │    │    └─Linear (1)                                            [512, 1024]          [512, 1024]          1,049,600              2.13%              True
│    │    │    └─ReLU (relu)                                                [512, 1024]          [512, 1024]          --                   (recursive)          --
│    │    │    └─Linear (fc_cls)                                            [512, 1024]          [512, 11]            11,275                 0.02%              True
│    │    │    └─Linear (fc_reg)                                            [512, 1024]          [512, 4]             4,100                  0.01%              True
│    │    │    └─CrossEntropyLoss (loss_cls)                                [512, 11]            --                   --                        --              --
│    │    │    └─SmoothL1Loss (loss_bbox)                                   [1, 4]               --                   --                        --              --
│    └─ModuleList (bbox_roi_extractor)                                      --                   --                   --                   (recursive)          --
│    │    └─SingleRoIExtractor (2)                                          [1, 256, 96, 160]    [512, 256, 7, 7]     --                        --              --
│    │    │    └─ModuleList (roi_layers)                                    --                   --                   --                        --              --
│    │    │    │    └─RoIAlign (0)                                          [1, 256, 96, 160]    [484, 256, 7, 7]     --                        --              --
│    │    │    │    └─RoIAlign (1)                                          [1, 256, 48, 80]     [26, 256, 7, 7]      --                        --              --
│    │    │    │    └─RoIAlign (2)                                          [1, 256, 24, 40]     [2, 256, 7, 7]       --                        --              --
│    └─ModuleList (bbox_head)                                               --                   --                   (recursive)          (recursive)          True
│    │    └─Shared2FCBBoxHead (2)                                           [512, 256, 7, 7]     [512, 11]            --                        --              True
│    │    │    └─ModuleList (shared_fcs)                                    --                   --                   (recursive)          (recursive)          True
│    │    │    │    └─Linear (0)                                            [512, 12544]         [512, 1024]          12,846,080            26.01%              True
│    │    │    └─ReLU (relu)                                                [512, 1024]          [512, 1024]          --                        --              --
│    │    │    └─ModuleList (shared_fcs)                                    --                   --                   (recursive)          (recursive)          True
│    │    │    │    └─Linear (1)                                            [512, 1024]          [512, 1024]          1,049,600              2.13%              True
│    │    │    └─ReLU (relu)                                                [512, 1024]          [512, 1024]          --                   (recursive)          --
│    │    │    └─Linear (fc_cls)                                            [512, 1024]          [512, 11]            11,275                 0.02%              True
│    │    │    └─Linear (fc_reg)                                            [512, 1024]          [512, 4]             4,100                  0.01%              True
│    │    │    └─CrossEntropyLoss (loss_cls)                                [512, 11]            --                   --                        --              --
│    │    │    └─SmoothL1Loss (loss_bbox)                                   [1, 4]               --                   --                        --              --
===============================================================================================================================================================================
Total params: 49,384,204
Trainable params: 49,384,204
Non-trainable params: 0
Total mult-adds (G): 61.58
===============================================================================================================================================================================
…
