…
==========================================================================================================================================================================
Layer (type (var_name))                                                Input Shape          Output Shape         Param #              Param %              Trainable
==========================================================================================================================================================================
CascadeRCNN (CascadeRCNN)                                              --                   --                   --                        --              True
├─HRFormer (backbone)                                                  [1, 3, 384, 1248]    [1, 18, 96, 312]     --                        --              True
│    └─Conv2d (conv1)                                                  [1, 3, 384, 1248]    [1, 64, 192, 624]    1,728                  0.00%              True
│    └─BatchNorm2d (bn1)                                               [1, 64, 192, 624]    [1, 64, 192, 624]    128                    0.00%              True
│    └─ReLU (relu)                                                     [1, 64, 192, 624]    [1, 64, 192, 624]    --                        --              --
│    └─Conv2d (conv2)                                                  [1, 64, 192, 624]    [1, 64, 96, 312]     36,864                 0.08%              True
│    └─BatchNorm2d (bn2)                                               [1, 64, 96, 312]     [1, 64, 96, 312]     128                    0.00%              True
│    └─ReLU (relu)                                                     [1, 64, 96, 312]     [1, 64, 96, 312]     --                   (recursive)          --
│    └─Sequential (layer1)                                             [1, 64, 96, 312]     [1, 256, 96, 312]    --                        --              True
│    │    └─Bottleneck (0)                                             [1, 64, 96, 312]     [1, 256, 96, 312]    --                        --              True
│    │    │    └─Conv2d (conv1)                                        [1, 64, 96, 312]     [1, 64, 96, 312]     4,096                  0.01%              True
│    │    │    └─BatchNorm2d (bn1)                                     [1, 64, 96, 312]     [1, 64, 96, 312]     128                    0.00%              True
│    │    │    └─ReLU (relu)                                           [1, 64, 96, 312]     [1, 64, 96, 312]     --                        --              --
│    │    │    └─Conv2d (conv2)                                        [1, 64, 96, 312]     [1, 64, 96, 312]     36,864                 0.08%              True
│    │    │    └─BatchNorm2d (bn2)                                     [1, 64, 96, 312]     [1, 64, 96, 312]     128                    0.00%              True
│    │    │    └─ReLU (relu)                                           [1, 64, 96, 312]     [1, 64, 96, 312]     --                   (recursive)          --
│    │    │    └─Conv2d (conv3)                                        [1, 64, 96, 312]     [1, 256, 96, 312]    16,384                 0.03%              True
│    │    │    └─BatchNorm2d (bn3)                                     [1, 256, 96, 312]    [1, 256, 96, 312]    512                    0.00%              True
│    │    │    └─Sequential (downsample)                               [1, 64, 96, 312]     [1, 256, 96, 312]    --                        --              True
│    │    │    │    └─Conv2d (0)                                       [1, 64, 96, 312]     [1, 256, 96, 312]    16,384                 0.03%              True
│    │    │    │    └─BatchNorm2d (1)                                  [1, 256, 96, 312]    [1, 256, 96, 312]    512                    0.00%              True
│    │    │    └─ReLU (relu)                                           [1, 256, 96, 312]    [1, 256, 96, 312]    --                   (recursive)          --
│    │    └─Bottleneck (1)                                             [1, 256, 96, 312]    [1, 256, 96, 312]    --                        --              True
│    │    │    └─Conv2d (conv1)                                        [1, 256, 96, 312]    [1, 64, 96, 312]     16,384                 0.03%              True
│    │    │    └─BatchNorm2d (bn1)                                     [1, 64, 96, 312]     [1, 64, 96, 312]     128                    0.00%              True
│    │    │    └─ReLU (relu)                                           [1, 64, 96, 312]     [1, 64, 96, 312]     --                        --              --
│    │    │    └─Conv2d (conv2)                                        [1, 64, 96, 312]     [1, 64, 96, 312]     36,864                 0.08%              True
│    │    │    └─BatchNorm2d (bn2)                                     [1, 64, 96, 312]     [1, 64, 96, 312]     128                    0.00%              True
│    │    │    └─ReLU (relu)                                           [1, 64, 96, 312]     [1, 64, 96, 312]     --                   (recursive)          --
│    │    │    └─Conv2d (conv3)                                        [1, 64, 96, 312]     [1, 256, 96, 312]    16,384                 0.03%              True
│    │    │    └─BatchNorm2d (bn3)                                     [1, 256, 96, 312]    [1, 256, 96, 312]    512                    0.00%              True
│    │    │    └─ReLU (relu)                                           [1, 256, 96, 312]    [1, 256, 96, 312]    --                   (recursive)          --
│    └─ModuleList (transition1)                                        --                   --                   --                        --              True
│    │    └─Sequential (0)                                             [1, 256, 96, 312]    [1, 18, 96, 312]     --                        --              True
│    │    │    └─Conv2d (0)                                            [1, 256, 96, 312]    [1, 18, 96, 312]     41,472                 0.09%              True
│    │    │    └─BatchNorm2d (1)                                       [1, 18, 96, 312]     [1, 18, 96, 312]     36                     0.00%              True
│    │    │    └─ReLU (2)                                              [1, 18, 96, 312]     [1, 18, 96, 312]     --                        --              --
│    │    └─Sequential (1)                                             [1, 256, 96, 312]    [1, 36, 48, 156]     --                        --              True
│    │    │    └─Sequential (0)                                        [1, 256, 96, 312]    [1, 36, 48, 156]     --                        --              True
│    │    │    │    └─Conv2d (0)                                       [1, 256, 96, 312]    [1, 36, 48, 156]     82,944                 0.17%              True
│    │    │    │    └─BatchNorm2d (1)                                  [1, 36, 48, 156]     [1, 36, 48, 156]     72                     0.00%              True
│    │    │    │    └─ReLU (2)                                         [1, 36, 48, 156]     [1, 36, 48, 156]     --                        --              --
│    └─Sequential (stage2)                                             [1, 18, 96, 312]     [1, 18, 96, 312]     --                        --              True
│    │    └─HRFomerModule (0)                                          [1, 18, 96, 312]     [1, 18, 96, 312]     --                        --              True
│    │    │    └─ModuleList (branches)                                 --                   --                   --                        --              True
│    │    │    │    └─Sequential (0)                                   [1, 18, 96, 312]     [1, 18, 96, 312]     --                        --              True
│    │    │    │    │    └─HRFormerBlock (0)                           [1, 18, 96, 312]     [1, 18, 96, 312]     --                        --              True
│    │    │    │    │    │    └─LayerNorm (norm1)                      [1, 29952, 18]       [1, 29952, 18]       36                     0.00%              True
│    │    │    │    │    │    └─LocalWindowSelfAttention (attn)        [1, 29952, 18]       [1, 29952, 18]       --                        --              True
│    │    │    │    │    │    │    └─WindowMSA (attn)                  [630, 49, 18]        [630, 49, 18]        169                    0.00%              True
│    │    │    │    │    │    │    │    └─Linear (qkv)                 [630, 49, 18]        [630, 49, 54]        1,026                  0.00%              True
│    │    │    │    │    │    │    │    └─Softmax (softmax)            [630, 1, 49, 49]     [630, 1, 49, 49]     --                        --              --
│    │    │    │    │    │    │    │    └─Dropout (attn_drop)          [630, 1, 49, 49]     [630, 1, 49, 49]     --                        --              --
│    │    │    │    │    │    │    │    └─Linear (out_proj)            [630, 49, 18]        [630, 49, 18]        342                    0.00%              True
│    │    │    │    │    │    │    │    └─Dropout (proj_drop)          [630, 49, 18]        [630, 49, 18]        --                        --              --
│    │    │    │    │    │    └─Identity (drop_path)                   [1, 29952, 18]       [1, 29952, 18]       --                        --              --
│    │    │    │    │    │    └─LayerNorm (norm2)                      [1, 29952, 18]       [1, 29952, 18]       36                     0.00%              True
│    │    │    │    │    │    └─CrossFFN (ffn)                         [1, 29952, 18]       [1, 29952, 18]       --                        --              True
│    │    │    │    │    │    │    └─Sequential (layers)               [1, 18, 96, 312]     [1, 18, 96, 312]     --                        --              True
│    │    │    │    │    │    │    │    └─Conv2d (0)                   [1, 18, 96, 312]     [1, 72, 96, 312]     1,368                  0.00%              True
│    │    │    │    │    │    │    │    └─BatchNorm2d (1)              [1, 72, 96, 312]     [1, 72, 96, 312]     144                    0.00%              True
│    │    │    │    │    │    │    │    └─GELU (2)                     [1, 72, 96, 312]     [1, 72, 96, 312]     --                        --              --
│    │    │    │    │    │    │    │    └─Conv2d (3)                   [1, 72, 96, 312]     [1, 72, 96, 312]     720                    0.00%              True
│    │    │    │    │    │    │    │    └─BatchNorm2d (4)              [1, 72, 96, 312]     [1, 72, 96, 312]     144                    0.00%              True
│    │    │    │    │    │    │    │    └─GELU (5)                     [1, 72, 96, 312]     [1, 72, 96, 312]     --                        --              --
│    │    │    │    │    │    │    │    └─Conv2d (6)                   [1, 72, 96, 312]     [1, 18, 96, 312]     1,314                  0.00%              True
│    │    │    │    │    │    │    │    └─BatchNorm2d (7)              [1, 18, 96, 312]     [1, 18, 96, 312]     36                     0.00%              True
│    │    │    │    │    │    │    │    └─GELU (8)                     [1, 18, 96, 312]     [1, 18, 96, 312]     --                        --              --
│    │    │    │    │    │    └─Identity (drop_path)                   [1, 29952, 18]       [1, 29952, 18]       --                   (recursive)          --
│    │    │    │    │    └─HRFormerBlock (1)                           [1, 18, 96, 312]     [1, 18, 96, 312]     --                        --              True
│    │    │    │    │    │    └─LayerNorm (norm1)                      [1, 29952, 18]       [1, 29952, 18]       36                     0.00%              True
│    │    │    │    │    │    └─LocalWindowSelfAttention (attn)        [1, 29952, 18]       [1, 29952, 18]       --                        --              True
│    │    │    │    │    │    │    └─WindowMSA (attn)                  [630, 49, 18]        [630, 49, 18]        169                    0.00%              True
│    │    │    │    │    │    │    │    └─Linear (qkv)                 [630, 49, 18]        [630, 49, 54]        1,026                  0.00%              True
│    │    │    │    │    │    │    │    └─Softmax (softmax)            [630, 1, 49, 49]     [630, 1, 49, 49]     --                        --              --
│    │    │    │    │    │    │    │    └─Dropout (attn_drop)          [630, 1, 49, 49]     [630, 1, 49, 49]     --                        --              --
│    │    │    │    │    │    │    │    └─Linear (out_proj)            [630, 49, 18]        [630, 49, 18]        342                    0.00%              True
│    │    │    │    │    │    │    │    └─Dropout (proj_drop)          [630, 49, 18]        [630, 49, 18]        --                        --              --
│    │    │    │    │    │    └─Identity (drop_path)                   [1, 29952, 18]       [1, 29952, 18]       --                        --              --
│    │    │    │    │    │    └─LayerNorm (norm2)                      [1, 29952, 18]       [1, 29952, 18]       36                     0.00%              True
│    │    │    │    │    │    └─CrossFFN (ffn)                         [1, 29952, 18]       [1, 29952, 18]       --                        --              True
│    │    │    │    │    │    │    └─Sequential (layers)               [1, 18, 96, 312]     [1, 18, 96, 312]     --                        --              True
│    │    │    │    │    │    │    │    └─Conv2d (0)                   [1, 18, 96, 312]     [1, 72, 96, 312]     1,368                  0.00%              True
│    │    │    │    │    │    │    │    └─BatchNorm2d (1)              [1, 72, 96, 312]     [1, 72, 96, 312]     144                    0.00%              True
│    │    │    │    │    │    │    │    └─GELU (2)                     [1, 72, 96, 312]     [1, 72, 96, 312]     --                        --              --
│    │    │    │    │    │    │    │    └─Conv2d (3)                   [1, 72, 96, 312]     [1, 72, 96, 312]     720                    0.00%              True
│    │    │    │    │    │    │    │    └─BatchNorm2d (4)              [1, 72, 96, 312]     [1, 72, 96, 312]     144                    0.00%              True
│    │    │    │    │    │    │    │    └─GELU (5)                     [1, 72, 96, 312]     [1, 72, 96, 312]     --                        --              --
│    │    │    │    │    │    │    │    └─Conv2d (6)                   [1, 72, 96, 312]     [1, 18, 96, 312]     1,314                  0.00%              True
│    │    │    │    │    │    │    │    └─BatchNorm2d (7)              [1, 18, 96, 312]     [1, 18, 96, 312]     36                     0.00%              True
│    │    │    │    │    │    │    │    └─GELU (8)                     [1, 18, 96, 312]     [1, 18, 96, 312]     --                        --              --
│    │    │    │    │    │    └─Identity (drop_path)                   [1, 29952, 18]       [1, 29952, 18]       --                   (recursive)          --
│    │    │    │    └─Sequential (1)                                   [1, 36, 48, 156]     [1, 36, 48, 156]     --                        --              True
│    │    │    │    │    └─HRFormerBlock (0)                           [1, 36, 48, 156]     [1, 36, 48, 156]     --                        --              True
│    │    │    │    │    │    └─LayerNorm (norm1)                      [1, 7488, 36]        [1, 7488, 36]        72                     0.00%              True
│    │    │    │    │    │    └─LocalWindowSelfAttention (attn)        [1, 7488, 36]        [1, 7488, 36]        --                        --              True
│    │    │    │    │    │    │    └─WindowMSA (attn)                  [161, 49, 36]        [161, 49, 36]        338                    0.00%              True
│    │    │    │    │    │    │    │    └─Linear (qkv)                 [161, 49, 36]        [161, 49, 108]       3,996                  0.01%              True
│    │    │    │    │    │    │    │    └─Softmax (softmax)            [161, 2, 49, 49]     [161, 2, 49, 49]     --                        --              --
│    │    │    │    │    │    │    │    └─Dropout (attn_drop)          [161, 2, 49, 49]     [161, 2, 49, 49]     --                        --              --
│    │    │    │    │    │    │    │    └─Linear (out_proj)            [161, 49, 36]        [161, 49, 36]        1,332                  0.00%              True
│    │    │    │    │    │    │    │    └─Dropout (proj_drop)          [161, 49, 36]        [161, 49, 36]        --                        --              --
│    │    │    │    │    │    └─Identity (drop_path)                   [1, 7488, 36]        [1, 7488, 36]        --                        --              --
│    │    │    │    │    │    └─LayerNorm (norm2)                      [1, 7488, 36]        [1, 7488, 36]        72                     0.00%              True
│    │    │    │    │    │    └─CrossFFN (ffn)                         [1, 7488, 36]        [1, 7488, 36]        --                        --              True
│    │    │    │    │    │    │    └─Sequential (layers)               [1, 36, 48, 156]     [1, 36, 48, 156]     --                        --              True
│    │    │    │    │    │    │    │    └─Conv2d (0)                   [1, 36, 48, 156]     [1, 144, 48, 156]    5,328                  0.01%              True
│    │    │    │    │    │    │    │    └─BatchNorm2d (1)              [1, 144, 48, 156]    [1, 144, 48, 156]    288                    0.00%              True
│    │    │    │    │    │    │    │    └─GELU (2)                     [1, 144, 48, 156]    [1, 144, 48, 156]    --                        --              --
│    │    │    │    │    │    │    │    └─Conv2d (3)                   [1, 144, 48, 156]    [1, 144, 48, 156]    1,440                  0.00%              True
│    │    │    │    │    │    │    │    └─BatchNorm2d (4)              [1, 144, 48, 156]    [1, 144, 48, 156]    288                    0.00%              True
│    │    │    │    │    │    │    │    └─GELU (5)                     [1, 144, 48, 156]    [1, 144, 48, 156]    --                        --              --
│    │    │    │    │    │    │    │    └─Conv2d (6)                   [1, 144, 48, 156]    [1, 36, 48, 156]     5,220                  0.01%              True
│    │    │    │    │    │    │    │    └─BatchNorm2d (7)              [1, 36, 48, 156]     [1, 36, 48, 156]     72                     0.00%              True
│    │    │    │    │    │    │    │    └─GELU (8)                     [1, 36, 48, 156]     [1, 36, 48, 156]     --                        --              --
│    │    │    │    │    │    └─Identity (drop_path)                   [1, 7488, 36]        [1, 7488, 36]        --                   (recursive)          --
│    │    │    │    │    └─HRFormerBlock (1)                           [1, 36, 48, 156]     [1, 36, 48, 156]     --                        --              True
│    │    │    │    │    │    └─LayerNorm (norm1)                      [1, 7488, 36]        [1, 7488, 36]        72                     0.00%              True
│    │    │    │    │    │    └─LocalWindowSelfAttention (attn)        [1, 7488, 36]        [1, 7488, 36]        --                        --              True
│    │    │    │    │    │    │    └─WindowMSA (attn)                  [161, 49, 36]        [161, 49, 36]        338                    0.00%              True
│    │    │    │    │    │    │    │    └─Linear (qkv)                 [161, 49, 36]        [161, 49, 108]       3,996                  0.01%              True
│    │    │    │    │    │    │    │    └─Softmax (softmax)            [161, 2, 49, 49]     [161, 2, 49, 49]     --                        --              --
│    │    │    │    │    │    │    │    └─Dropout (attn_drop)          [161, 2, 49, 49]     [161, 2, 49, 49]     --                        --              --
│    │    │    │    │    │    │    │    └─Linear (out_proj)            [161, 49, 36]        [161, 49, 36]        1,332                  0.00%              True
│    │    │    │    │    │    │    │    └─Dropout (proj_drop)          [161, 49, 36]        [161, 49, 36]        --                        --              --
│    │    │    │    │    │    └─Identity (drop_path)                   [1, 7488, 36]        [1, 7488, 36]        --                        --              --
│    │    │    │    │    │    └─LayerNorm (norm2)                      [1, 7488, 36]        [1, 7488, 36]        72                     0.00%              True
│    │    │    │    │    │    └─CrossFFN (ffn)                         [1, 7488, 36]        [1, 7488, 36]        --                        --              True
│    │    │    │    │    │    │    └─Sequential (layers)               [1, 36, 48, 156]     [1, 36, 48, 156]     --                        --              True
│    │    │    │    │    │    │    │    └─Conv2d (0)                   [1, 36, 48, 156]     [1, 144, 48, 156]    5,328                  0.01%              True
│    │    │    │    │    │    │    │    └─BatchNorm2d (1)              [1, 144, 48, 156]    [1, 144, 48, 156]    288                    0.00%              True
│    │    │    │    │    │    │    │    └─GELU (2)                     [1, 144, 48, 156]    [1, 144, 48, 156]    --                        --              --
│    │    │    │    │    │    │    │    └─Conv2d (3)                   [1, 144, 48, 156]    [1, 144, 48, 156]    1,440                  0.00%              True
│    │    │    │    │    │    │    │    └─BatchNorm2d (4)              [1, 144, 48, 156]    [1, 144, 48, 156]    288                    0.00%              True
│    │    │    │    │    │    │    │    └─GELU (5)                     [1, 144, 48, 156]    [1, 144, 48, 156]    --                        --              --
│    │    │    │    │    │    │    │    └─Conv2d (6)                   [1, 144, 48, 156]    [1, 36, 48, 156]     5,220                  0.01%              True
│    │    │    │    │    │    │    │    └─BatchNorm2d (7)              [1, 36, 48, 156]     [1, 36, 48, 156]     72                     0.00%              True
│    │    │    │    │    │    │    │    └─GELU (8)                     [1, 36, 48, 156]     [1, 36, 48, 156]     --                        --              --
│    │    │    │    │    │    └─Identity (drop_path)                   [1, 7488, 36]        [1, 7488, 36]        --                   (recursive)          --
│    │    │    └─ModuleList (fuse_layers)                              --                   --                   (recursive)          (recursive)          True
│    │    │    │    └─ModuleList (0)                                   --                   --                   --                        --              True
│    │    │    │    │    └─Sequential (1)                              [1, 36, 48, 156]     [1, 18, 48, 156]     --                        --              True
│    │    │    │    │    │    └─Conv2d (0)                             [1, 36, 48, 156]     [1, 18, 48, 156]     648                    0.00%              True
│    │    │    │    │    │    └─BatchNorm2d (1)                        [1, 18, 48, 156]     [1, 18, 48, 156]     36                     0.00%              True
│    │    │    └─ReLU (relu)                                           [1, 18, 96, 312]     [1, 18, 96, 312]     --                        --              --
│    │    │    └─ModuleList (fuse_layers)                              --                   --                   (recursive)          (recursive)          True
│    │    │    │    └─ModuleList (1)                                   --                   --                   --                        --              True
│    │    │    │    │    └─Sequential (0)                              [1, 18, 96, 312]     [1, 36, 48, 156]     --                        --              True
│    │    │    │    │    │    └─Sequential (0)                         [1, 18, 96, 312]     [1, 36, 48, 156]     --                        --              True
│    │    │    │    │    │    │    └─Conv2d (0)                        [1, 18, 96, 312]     [1, 18, 48, 156]     162                    0.00%              True
│    │    │    │    │    │    │    └─BatchNorm2d (1)                   [1, 18, 48, 156]     [1, 18, 48, 156]     36                     0.00%              True
│    │    │    │    │    │    │    └─Conv2d (2)                        [1, 18, 48, 156]     [1, 36, 48, 156]     648                    0.00%              True
│    │    │    │    │    │    │    └─BatchNorm2d (3)                   [1, 36, 48, 156]     [1, 36, 48, 156]     72                     0.00%              True
│    │    │    └─ReLU (relu)                                           [1, 36, 48, 156]     [1, 36, 48, 156]     --                   (recursive)          --
│    └─ModuleList (transition2)                                        --                   --                   --                        --              True
│    │    └─Sequential (2)                                             [1, 36, 48, 156]     [1, 72, 24, 78]      --                        --              True
│    │    │    └─Sequential (0)                                        [1, 36, 48, 156]     [1, 72, 24, 78]      --                        --              True
│    │    │    │    └─Conv2d (0)                                       [1, 36, 48, 156]     [1, 72, 24, 78]      23,328                 0.05%              True
│    │    │    │    └─BatchNorm2d (1)                                  [1, 72, 24, 78]      [1, 72, 24, 78]      144                    0.00%              True
│    │    │    │    └─ReLU (2)                                         [1, 72, 24, 78]      [1, 72, 24, 78]      --                        --              --
│    └─Sequential (stage3)                                             [1, 18, 96, 312]     [1, 18, 96, 312]     --                        --              True
│    │    └─HRFomerModule (0)                                          [1, 18, 96, 312]     [1, 18, 96, 312]     --                        --              True
│    │    │    └─ModuleList (branches)                                 --                   --                   --                        --              True
│    │    │    │    └─Sequential (0)                                   [1, 18, 96, 312]     [1, 18, 96, 312]     --                        --              True
│    │    │    │    │    └─HRFormerBlock (0)                           [1, 18, 96, 312]     [1, 18, 96, 312]     --                        --              True
│    │    │    │    │    │    └─LayerNorm (norm1)                      [1, 29952, 18]       [1, 29952, 18]       36                     0.00%              True
│    │    │    │    │    │    └─LocalWindowSelfAttention (attn)        [1, 29952, 18]       [1, 29952, 18]       --                        --              True
│    │    │    │    │    │    │    └─WindowMSA (attn)                  [630, 49, 18]        [630, 49, 18]        169                    0.00%              True
│    │    │    │    │    │    │    │    └─Linear (qkv)                 [630, 49, 18]        [630, 49, 54]        1,026                  0.00%              True
│    │    │    │    │    │    │    │    └─Softmax (softmax)            [630, 1, 49, 49]     [630, 1, 49, 49]     --                        --              --
│    │    │    │    │    │    │    │    └─Dropout (attn_drop)          [630, 1, 49, 49]     [630, 1, 49, 49]     --                        --              --
│    │    │    │    │    │    │    │    └─Linear (out_proj)            [630, 49, 18]        [630, 49, 18]        342                    0.00%              True
│    │    │    │    │    │    │    │    └─Dropout (proj_drop)          [630, 49, 18]        [630, 49, 18]        --                        --              --
│    │    │    │    │    │    └─Identity (drop_path)                   [1, 29952, 18]       [1, 29952, 18]       --                        --              --
│    │    │    │    │    │    └─LayerNorm (norm2)                      [1, 29952, 18]       [1, 29952, 18]       36                     0.00%              True
│    │    │    │    │    │    └─CrossFFN (ffn)                         [1, 29952, 18]       [1, 29952, 18]       --                        --              True
│    │    │    │    │    │    │    └─Sequential (layers)               [1, 18, 96, 312]     [1, 18, 96, 312]     --                        --              True
│    │    │    │    │    │    │    │    └─Conv2d (0)                   [1, 18, 96, 312]     [1, 72, 96, 312]     1,368                  0.00%              True
│    │    │    │    │    │    │    │    └─BatchNorm2d (1)              [1, 72, 96, 312]     [1, 72, 96, 312]     144                    0.00%              True
│    │    │    │    │    │    │    │    └─GELU (2)                     [1, 72, 96, 312]     [1, 72, 96, 312]     --                        --              --
│    │    │    │    │    │    │    │    └─Conv2d (3)                   [1, 72, 96, 312]     [1, 72, 96, 312]     720                    0.00%              True
│    │    │    │    │    │    │    │    └─BatchNorm2d (4)              [1, 72, 96, 312]     [1, 72, 96, 312]     144                    0.00%              True
│    │    │    │    │    │    │    │    └─GELU (5)                     [1, 72, 96, 312]     [1, 72, 96, 312]     --                        --              --
│    │    │    │    │    │    │    │    └─Conv2d (6)                   [1, 72, 96, 312]     [1, 18, 96, 312]     1,314                  0.00%              True
│    │    │    │    │    │    │    │    └─BatchNorm2d (7)              [1, 18, 96, 312]     [1, 18, 96, 312]     36                     0.00%              True
│    │    │    │    │    │    │    │    └─GELU (8)                     [1, 18, 96, 312]     [1, 18, 96, 312]     --                        --              --
│    │    │    │    │    │    └─Identity (drop_path)                   [1, 29952, 18]       [1, 29952, 18]       --                   (recursive)          --
│    │    │    │    │    └─HRFormerBlock (1)                           [1, 18, 96, 312]     [1, 18, 96, 312]     --                        --              True
│    │    │    │    │    │    └─LayerNorm (norm1)                      [1, 29952, 18]       [1, 29952, 18]       36                     0.00%              True
│    │    │    │    │    │    └─LocalWindowSelfAttention (attn)        [1, 29952, 18]       [1, 29952, 18]       --                        --              True
│    │    │    │    │    │    │    └─WindowMSA (attn)                  [630, 49, 18]        [630, 49, 18]        169                    0.00%              True
│    │    │    │    │    │    │    │    └─Linear (qkv)                 [630, 49, 18]        [630, 49, 54]        1,026                  0.00%              True
│    │    │    │    │    │    │    │    └─Softmax (softmax)            [630, 1, 49, 49]     [630, 1, 49, 49]     --                        --              --
│    │    │    │    │    │    │    │    └─Dropout (attn_drop)          [630, 1, 49, 49]     [630, 1, 49, 49]     --                        --              --
│    │    │    │    │    │    │    │    └─Linear (out_proj)            [630, 49, 18]        [630, 49, 18]        342                    0.00%              True
│    │    │    │    │    │    │    │    └─Dropout (proj_drop)          [630, 49, 18]        [630, 49, 18]        --                        --              --
│    │    │    │    │    │    └─Identity (drop_path)                   [1, 29952, 18]       [1, 29952, 18]       --                        --              --
│    │    │    │    │    │    └─LayerNorm (norm2)                      [1, 29952, 18]       [1, 29952, 18]       36                     0.00%              True
│    │    │    │    │    │    └─CrossFFN (ffn)                         [1, 29952, 18]       [1, 29952, 18]       --                        --              True
│    │    │    │    │    │    │    └─Sequential (layers)               [1, 18, 96, 312]     [1, 18, 96, 312]     --                        --              True
│    │    │    │    │    │    │    │    └─Conv2d (0)                   [1, 18, 96, 312]     [1, 72, 96, 312]     1,368                  0.00%              True
│    │    │    │    │    │    │    │    └─BatchNorm2d (1)              [1, 72, 96, 312]     [1, 72, 96, 312]     144                    0.00%              True
│    │    │    │    │    │    │    │    └─GELU (2)                     [1, 72, 96, 312]     [1, 72, 96, 312]     --                        --              --
│    │    │    │    │    │    │    │    └─Conv2d (3)                   [1, 72, 96, 312]     [1, 72, 96, 312]     720                    0.00%              True
│    │    │    │    │    │    │    │    └─BatchNorm2d (4)              [1, 72, 96, 312]     [1, 72, 96, 312]     144                    0.00%              True
│    │    │    │    │    │    │    │    └─GELU (5)                     [1, 72, 96, 312]     [1, 72, 96, 312]     --                        --              --
│    │    │    │    │    │    │    │    └─Conv2d (6)                   [1, 72, 96, 312]     [1, 18, 96, 312]     1,314                  0.00%              True
│    │    │    │    │    │    │    │    └─BatchNorm2d (7)              [1, 18, 96, 312]     [1, 18, 96, 312]     36                     0.00%              True
│    │    │    │    │    │    │    │    └─GELU (8)                     [1, 18, 96, 312]     [1, 18, 96, 312]     --                        --              --
│    │    │    │    │    │    └─Identity (drop_path)                   [1, 29952, 18]       [1, 29952, 18]       --                   (recursive)          --
│    │    │    │    └─Sequential (1)                                   [1, 36, 48, 156]     [1, 36, 48, 156]     --                        --              True
│    │    │    │    │    └─HRFormerBlock (0)                           [1, 36, 48, 156]     [1, 36, 48, 156]     --                        --              True
│    │    │    │    │    │    └─LayerNorm (norm1)                      [1, 7488, 36]        [1, 7488, 36]        72                     0.00%              True
│    │    │    │    │    │    └─LocalWindowSelfAttention (attn)        [1, 7488, 36]        [1, 7488, 36]        --                        --              True
│    │    │    │    │    │    │    └─WindowMSA (attn)                  [161, 49, 36]        [161, 49, 36]        338                    0.00%              True
│    │    │    │    │    │    │    │    └─Linear (qkv)                 [161, 49, 36]        [161, 49, 108]       3,996                  0.01%              True
│    │    │    │    │    │    │    │    └─Softmax (softmax)            [161, 2, 49, 49]     [161, 2, 49, 49]     --                        --              --
│    │    │    │    │    │    │    │    └─Dropout (attn_drop)          [161, 2, 49, 49]     [161, 2, 49, 49]     --                        --              --
│    │    │    │    │    │    │    │    └─Linear (out_proj)            [161, 49, 36]        [161, 49, 36]        1,332                  0.00%              True
│    │    │    │    │    │    │    │    └─Dropout (proj_drop)          [161, 49, 36]        [161, 49, 36]        --                        --              --
│    │    │    │    │    │    └─Identity (drop_path)                   [1, 7488, 36]        [1, 7488, 36]        --                        --              --
│    │    │    │    │    │    └─LayerNorm (norm2)                      [1, 7488, 36]        [1, 7488, 36]        72                     0.00%              True
│    │    │    │    │    │    └─CrossFFN (ffn)                         [1, 7488, 36]        [1, 7488, 36]        --                        --              True
│    │    │    │    │    │    │    └─Sequential (layers)               [1, 36, 48, 156]     [1, 36, 48, 156]     --                        --              True
│    │    │    │    │    │    │    │    └─Conv2d (0)                   [1, 36, 48, 156]     [1, 144, 48, 156]    5,328                  0.01%              True
│    │    │    │    │    │    │    │    └─BatchNorm2d (1)              [1, 144, 48, 156]    [1, 144, 48, 156]    288                    0.00%              True
│    │    │    │    │    │    │    │    └─GELU (2)                     [1, 144, 48, 156]    [1, 144, 48, 156]    --                        --              --
│    │    │    │    │    │    │    │    └─Conv2d (3)                   [1, 144, 48, 156]    [1, 144, 48, 156]    1,440                  0.00%              True
│    │    │    │    │    │    │    │    └─BatchNorm2d (4)              [1, 144, 48, 156]    [1, 144, 48, 156]    288                    0.00%              True
│    │    │    │    │    │    │    │    └─GELU (5)                     [1, 144, 48, 156]    [1, 144, 48, 156]    --                        --              --
│    │    │    │    │    │    │    │    └─Conv2d (6)                   [1, 144, 48, 156]    [1, 36, 48, 156]     5,220                  0.01%              True
│    │    │    │    │    │    │    │    └─BatchNorm2d (7)              [1, 36, 48, 156]     [1, 36, 48, 156]     72                     0.00%              True
│    │    │    │    │    │    │    │    └─GELU (8)                     [1, 36, 48, 156]     [1, 36, 48, 156]     --                        --              --
│    │    │    │    │    │    └─Identity (drop_path)                   [1, 7488, 36]        [1, 7488, 36]        --                   (recursive)          --
│    │    │    │    │    └─HRFormerBlock (1)                           [1, 36, 48, 156]     [1, 36, 48, 156]     --                        --              True
│    │    │    │    │    │    └─LayerNorm (norm1)                      [1, 7488, 36]        [1, 7488, 36]        72                     0.00%              True
│    │    │    │    │    │    └─LocalWindowSelfAttention (attn)        [1, 7488, 36]        [1, 7488, 36]        --                        --              True
│    │    │    │    │    │    │    └─WindowMSA (attn)                  [161, 49, 36]        [161, 49, 36]        338                    0.00%              True
│    │    │    │    │    │    │    │    └─Linear (qkv)                 [161, 49, 36]        [161, 49, 108]       3,996                  0.01%              True
│    │    │    │    │    │    │    │    └─Softmax (softmax)            [161, 2, 49, 49]     [161, 2, 49, 49]     --                        --              --
│    │    │    │    │    │    │    │    └─Dropout (attn_drop)          [161, 2, 49, 49]     [161, 2, 49, 49]     --                        --              --
│    │    │    │    │    │    │    │    └─Linear (out_proj)            [161, 49, 36]        [161, 49, 36]        1,332                  0.00%              True
│    │    │    │    │    │    │    │    └─Dropout (proj_drop)          [161, 49, 36]        [161, 49, 36]        --                        --              --
│    │    │    │    │    │    └─Identity (drop_path)                   [1, 7488, 36]        [1, 7488, 36]        --                        --              --
│    │    │    │    │    │    └─LayerNorm (norm2)                      [1, 7488, 36]        [1, 7488, 36]        72                     0.00%              True
│    │    │    │    │    │    └─CrossFFN (ffn)                         [1, 7488, 36]        [1, 7488, 36]        --                        --              True
│    │    │    │    │    │    │    └─Sequential (layers)               [1, 36, 48, 156]     [1, 36, 48, 156]     --                        --              True
│    │    │    │    │    │    │    │    └─Conv2d (0)                   [1, 36, 48, 156]     [1, 144, 48, 156]    5,328                  0.01%              True
│    │    │    │    │    │    │    │    └─BatchNorm2d (1)              [1, 144, 48, 156]    [1, 144, 48, 156]    288                    0.00%              True
│    │    │    │    │    │    │    │    └─GELU (2)                     [1, 144, 48, 156]    [1, 144, 48, 156]    --                        --              --
│    │    │    │    │    │    │    │    └─Conv2d (3)                   [1, 144, 48, 156]    [1, 144, 48, 156]    1,440                  0.00%              True
│    │    │    │    │    │    │    │    └─BatchNorm2d (4)              [1, 144, 48, 156]    [1, 144, 48, 156]    288                    0.00%              True
│    │    │    │    │    │    │    │    └─GELU (5)                     [1, 144, 48, 156]    [1, 144, 48, 156]    --                        --              --
│    │    │    │    │    │    │    │    └─Conv2d (6)                   [1, 144, 48, 156]    [1, 36, 48, 156]     5,220                  0.01%              True
│    │    │    │    │    │    │    │    └─BatchNorm2d (7)              [1, 36, 48, 156]     [1, 36, 48, 156]     72                     0.00%              True
│    │    │    │    │    │    │    │    └─GELU (8)                     [1, 36, 48, 156]     [1, 36, 48, 156]     --                        --              --
│    │    │    │    │    │    └─Identity (drop_path)                   [1, 7488, 36]        [1, 7488, 36]        --                   (recursive)          --
│    │    │    │    └─Sequential (2)                                   [1, 72, 24, 78]      [1, 72, 24, 78]      --                        --              True
│    │    │    │    │    └─HRFormerBlock (0)                           [1, 72, 24, 78]      [1, 72, 24, 78]      --                        --              True
│    │    │    │    │    │    └─LayerNorm (norm1)                      [1, 1872, 72]        [1, 1872, 72]        144                    0.00%              True
│    │    │    │    │    │    └─LocalWindowSelfAttention (attn)        [1, 1872, 72]        [1, 1872, 72]        --                        --              True
│    │    │    │    │    │    │    └─WindowMSA (attn)                  [48, 49, 72]         [48, 49, 72]         676                    0.00%              True
│    │    │    │    │    │    │    │    └─Linear (qkv)                 [48, 49, 72]         [48, 49, 216]        15,768                 0.03%              True
│    │    │    │    │    │    │    │    └─Softmax (softmax)            [48, 4, 49, 49]      [48, 4, 49, 49]      --                        --              --
│    │    │    │    │    │    │    │    └─Dropout (attn_drop)          [48, 4, 49, 49]      [48, 4, 49, 49]      --                        --              --
│    │    │    │    │    │    │    │    └─Linear (out_proj)            [48, 49, 72]         [48, 49, 72]         5,256                  0.01%              True
│    │    │    │    │    │    │    │    └─Dropout (proj_drop)          [48, 49, 72]         [48, 49, 72]         --                        --              --
│    │    │    │    │    │    └─Identity (drop_path)                   [1, 1872, 72]        [1, 1872, 72]        --                        --              --
│    │    │    │    │    │    └─LayerNorm (norm2)                      [1, 1872, 72]        [1, 1872, 72]        144                    0.00%              True
│    │    │    │    │    │    └─CrossFFN (ffn)                         [1, 1872, 72]        [1, 1872, 72]        --                        --              True
│    │    │    │    │    │    │    └─Sequential (layers)               [1, 72, 24, 78]      [1, 72, 24, 78]      --                        --              True
│    │    │    │    │    │    │    │    └─Conv2d (0)                   [1, 72, 24, 78]      [1, 288, 24, 78]     21,024                 0.04%              True
│    │    │    │    │    │    │    │    └─BatchNorm2d (1)              [1, 288, 24, 78]     [1, 288, 24, 78]     576                    0.00%              True
│    │    │    │    │    │    │    │    └─GELU (2)                     [1, 288, 24, 78]     [1, 288, 24, 78]     --                        --              --
│    │    │    │    │    │    │    │    └─Conv2d (3)                   [1, 288, 24, 78]     [1, 288, 24, 78]     2,880                  0.01%              True
│    │    │    │    │    │    │    │    └─BatchNorm2d (4)              [1, 288, 24, 78]     [1, 288, 24, 78]     576                    0.00%              True
│    │    │    │    │    │    │    │    └─GELU (5)                     [1, 288, 24, 78]     [1, 288, 24, 78]     --                        --              --
│    │    │    │    │    │    │    │    └─Conv2d (6)                   [1, 288, 24, 78]     [1, 72, 24, 78]      20,808                 0.04%              True
│    │    │    │    │    │    │    │    └─BatchNorm2d (7)              [1, 72, 24, 78]      [1, 72, 24, 78]      144                    0.00%              True
│    │    │    │    │    │    │    │    └─GELU (8)                     [1, 72, 24, 78]      [1, 72, 24, 78]      --                        --              --
│    │    │    │    │    │    └─Identity (drop_path)                   [1, 1872, 72]        [1, 1872, 72]        --                   (recursive)          --
│    │    │    │    │    └─HRFormerBlock (1)                           [1, 72, 24, 78]      [1, 72, 24, 78]      --                        --              True
│    │    │    │    │    │    └─LayerNorm (norm1)                      [1, 1872, 72]        [1, 1872, 72]        144                    0.00%              True
│    │    │    │    │    │    └─LocalWindowSelfAttention (attn)        [1, 1872, 72]        [1, 1872, 72]        --                        --              True
│    │    │    │    │    │    │    └─WindowMSA (attn)                  [48, 49, 72]         [48, 49, 72]         676                    0.00%              True
│    │    │    │    │    │    │    │    └─Linear (qkv)                 [48, 49, 72]         [48, 49, 216]        15,768                 0.03%              True
│    │    │    │    │    │    │    │    └─Softmax (softmax)            [48, 4, 49, 49]      [48, 4, 49, 49]      --                        --              --
│    │    │    │    │    │    │    │    └─Dropout (attn_drop)          [48, 4, 49, 49]      [48, 4, 49, 49]      --                        --              --
│    │    │    │    │    │    │    │    └─Linear (out_proj)            [48, 49, 72]         [48, 49, 72]         5,256                  0.01%              True
│    │    │    │    │    │    │    │    └─Dropout (proj_drop)          [48, 49, 72]         [48, 49, 72]         --                        --              --
│    │    │    │    │    │    └─Identity (drop_path)                   [1, 1872, 72]        [1, 1872, 72]        --                        --              --
│    │    │    │    │    │    └─LayerNorm (norm2)                      [1, 1872, 72]        [1, 1872, 72]        144                    0.00%              True
│    │    │    │    │    │    └─CrossFFN (ffn)                         [1, 1872, 72]        [1, 1872, 72]        --                        --              True
│    │    │    │    │    │    │    └─Sequential (layers)               [1, 72, 24, 78]      [1, 72, 24, 78]      --                        --              True
│    │    │    │    │    │    │    │    └─Conv2d (0)                   [1, 72, 24, 78]      [1, 288, 24, 78]     21,024                 0.04%              True
│    │    │    │    │    │    │    │    └─BatchNorm2d (1)              [1, 288, 24, 78]     [1, 288, 24, 78]     576                    0.00%              True
│    │    │    │    │    │    │    │    └─GELU (2)                     [1, 288, 24, 78]     [1, 288, 24, 78]     --                        --              --
│    │    │    │    │    │    │    │    └─Conv2d (3)                   [1, 288, 24, 78]     [1, 288, 24, 78]     2,880                  0.01%              True
│    │    │    │    │    │    │    │    └─BatchNorm2d (4)              [1, 288, 24, 78]     [1, 288, 24, 78]     576                    0.00%              True
│    │    │    │    │    │    │    │    └─GELU (5)                     [1, 288, 24, 78]     [1, 288, 24, 78]     --                        --              --
│    │    │    │    │    │    │    │    └─Conv2d (6)                   [1, 288, 24, 78]     [1, 72, 24, 78]      20,808                 0.04%              True
│    │    │    │    │    │    │    │    └─BatchNorm2d (7)              [1, 72, 24, 78]      [1, 72, 24, 78]      144                    0.00%              True
│    │    │    │    │    │    │    │    └─GELU (8)                     [1, 72, 24, 78]      [1, 72, 24, 78]      --                        --              --
│    │    │    │    │    │    └─Identity (drop_path)                   [1, 1872, 72]        [1, 1872, 72]        --                   (recursive)          --
│    │    │    └─ModuleList (fuse_layers)                              --                   --                   (recursive)          (recursive)          True
│    │    │    │    └─ModuleList (0)                                   --                   --                   --                        --              True
│    │    │    │    │    └─Sequential (1)                              [1, 36, 48, 156]     [1, 18, 48, 156]     --                        --              True
│    │    │    │    │    │    └─Conv2d (0)                             [1, 36, 48, 156]     [1, 18, 48, 156]     648                    0.00%              True
│    │    │    │    │    │    └─BatchNorm2d (1)                        [1, 18, 48, 156]     [1, 18, 48, 156]     36                     0.00%              True
│    │    │    │    │    └─Sequential (2)                              [1, 72, 24, 78]      [1, 18, 24, 78]      --                        --              True
│    │    │    │    │    │    └─Conv2d (0)                             [1, 72, 24, 78]      [1, 18, 24, 78]      1,296                  0.00%              True
│    │    │    │    │    │    └─BatchNorm2d (1)                        [1, 18, 24, 78]      [1, 18, 24, 78]      36                     0.00%              True
│    │    │    └─ReLU (relu)                                           [1, 18, 96, 312]     [1, 18, 96, 312]     --                        --              --
│    │    │    └─ModuleList (fuse_layers)                              --                   --                   (recursive)          (recursive)          True
│    │    │    │    └─ModuleList (1)                                   --                   --                   --                        --              True
│    │    │    │    │    └─Sequential (0)                              [1, 18, 96, 312]     [1, 36, 48, 156]     --                        --              True
│    │    │    │    │    │    └─Sequential (0)                         [1, 18, 96, 312]     [1, 36, 48, 156]     --                        --              True
│    │    │    │    │    │    │    └─Conv2d (0)                        [1, 18, 96, 312]     [1, 18, 48, 156]     162                    0.00%              True
│    │    │    │    │    │    │    └─BatchNorm2d (1)                   [1, 18, 48, 156]     [1, 18, 48, 156]     36                     0.00%              True
│    │    │    │    │    │    │    └─Conv2d (2)                        [1, 18, 48, 156]     [1, 36, 48, 156]     648                    0.00%              True
│    │    │    │    │    │    │    └─BatchNorm2d (3)                   [1, 36, 48, 156]     [1, 36, 48, 156]     72                     0.00%              True
│    │    │    │    │    └─Sequential (2)                              [1, 72, 24, 78]      [1, 36, 24, 78]      --                        --              True
│    │    │    │    │    │    └─Conv2d (0)                             [1, 72, 24, 78]      [1, 36, 24, 78]      2,592                  0.01%              True
│    │    │    │    │    │    └─BatchNorm2d (1)                        [1, 36, 24, 78]      [1, 36, 24, 78]      72                     0.00%              True
│    │    │    └─ReLU (relu)                                           [1, 36, 48, 156]     [1, 36, 48, 156]     --                   (recursive)          --
│    │    │    └─ModuleList (fuse_layers)                              --                   --                   (recursive)          (recursive)          True
│    │    │    │    └─ModuleList (2)                                   --                   --                   --                        --              True
│    │    │    │    │    └─Sequential (0)                              [1, 18, 96, 312]     [1, 72, 24, 78]      --                        --              True
│    │    │    │    │    │    └─Sequential (0)                         [1, 18, 96, 312]     [1, 18, 48, 156]     --                        --              True
│    │    │    │    │    │    │    └─Conv2d (0)                        [1, 18, 96, 312]     [1, 18, 48, 156]     162                    0.00%              True
│    │    │    │    │    │    │    └─BatchNorm2d (1)                   [1, 18, 48, 156]     [1, 18, 48, 156]     36                     0.00%              True
│    │    │    │    │    │    │    └─Conv2d (2)                        [1, 18, 48, 156]     [1, 18, 48, 156]     324                    0.00%              True
│    │    │    │    │    │    │    └─BatchNorm2d (3)                   [1, 18, 48, 156]     [1, 18, 48, 156]     36                     0.00%              True
│    │    │    │    │    │    │    └─ReLU (4)                          [1, 18, 48, 156]     [1, 18, 48, 156]     --                        --              --
│    │    │    │    │    │    └─Sequential (1)                         [1, 18, 48, 156]     [1, 72, 24, 78]      --                        --              True
│    │    │    │    │    │    │    └─Conv2d (0)                        [1, 18, 48, 156]     [1, 18, 24, 78]      162                    0.00%              True
│    │    │    │    │    │    │    └─BatchNorm2d (1)                   [1, 18, 24, 78]      [1, 18, 24, 78]      36                     0.00%              True
│    │    │    │    │    │    │    └─Conv2d (2)                        [1, 18, 24, 78]      [1, 72, 24, 78]      1,296                  0.00%              True
│    │    │    │    │    │    │    └─BatchNorm2d (3)                   [1, 72, 24, 78]      [1, 72, 24, 78]      144                    0.00%              True
│    │    │    │    │    └─Sequential (1)                              [1, 36, 48, 156]     [1, 72, 24, 78]      --                        --              True
│    │    │    │    │    │    └─Sequential (0)                         [1, 36, 48, 156]     [1, 72, 24, 78]      --                        --              True
│    │    │    │    │    │    │    └─Conv2d (0)                        [1, 36, 48, 156]     [1, 36, 24, 78]      324                    0.00%              True
│    │    │    │    │    │    │    └─BatchNorm2d (1)                   [1, 36, 24, 78]      [1, 36, 24, 78]      72                     0.00%              True
│    │    │    │    │    │    │    └─Conv2d (2)                        [1, 36, 24, 78]      [1, 72, 24, 78]      2,592                  0.01%              True
│    │    │    │    │    │    │    └─BatchNorm2d (3)                   [1, 72, 24, 78]      [1, 72, 24, 78]      144                    0.00%              True
│    │    │    └─ReLU (relu)                                           [1, 72, 24, 78]      [1, 72, 24, 78]      --                   (recursive)          --
│    │    └─HRFomerModule (1)                                          [1, 18, 96, 312]     [1, 18, 96, 312]     --                        --              True
│    │    │    └─ModuleList (branches)                                 --                   --                   --                        --              True
│    │    │    │    └─Sequential (0)                                   [1, 18, 96, 312]     [1, 18, 96, 312]     --                        --              True
│    │    │    │    │    └─HRFormerBlock (0)                           [1, 18, 96, 312]     [1, 18, 96, 312]     --                        --              True
│    │    │    │    │    │    └─LayerNorm (norm1)                      [1, 29952, 18]       [1, 29952, 18]       36                     0.00%              True
│    │    │    │    │    │    └─LocalWindowSelfAttention (attn)        [1, 29952, 18]       [1, 29952, 18]       --                        --              True
│    │    │    │    │    │    │    └─WindowMSA (attn)                  [630, 49, 18]        [630, 49, 18]        169                    0.00%              True
│    │    │    │    │    │    │    │    └─Linear (qkv)                 [630, 49, 18]        [630, 49, 54]        1,026                  0.00%              True
│    │    │    │    │    │    │    │    └─Softmax (softmax)            [630, 1, 49, 49]     [630, 1, 49, 49]     --                        --              --
│    │    │    │    │    │    │    │    └─Dropout (attn_drop)          [630, 1, 49, 49]     [630, 1, 49, 49]     --                        --              --
│    │    │    │    │    │    │    │    └─Linear (out_proj)            [630, 49, 18]        [630, 49, 18]        342                    0.00%              True
│    │    │    │    │    │    │    │    └─Dropout (proj_drop)          [630, 49, 18]        [630, 49, 18]        --                        --              --
│    │    │    │    │    │    └─Identity (drop_path)                   [1, 29952, 18]       [1, 29952, 18]       --                        --              --
│    │    │    │    │    │    └─LayerNorm (norm2)                      [1, 29952, 18]       [1, 29952, 18]       36                     0.00%              True
│    │    │    │    │    │    └─CrossFFN (ffn)                         [1, 29952, 18]       [1, 29952, 18]       --                        --              True
│    │    │    │    │    │    │    └─Sequential (layers)               [1, 18, 96, 312]     [1, 18, 96, 312]     --                        --              True
│    │    │    │    │    │    │    │    └─Conv2d (0)                   [1, 18, 96, 312]     [1, 72, 96, 312]     1,368                  0.00%              True
│    │    │    │    │    │    │    │    └─BatchNorm2d (1)              [1, 72, 96, 312]     [1, 72, 96, 312]     144                    0.00%              True
│    │    │    │    │    │    │    │    └─GELU (2)                     [1, 72, 96, 312]     [1, 72, 96, 312]     --                        --              --
│    │    │    │    │    │    │    │    └─Conv2d (3)                   [1, 72, 96, 312]     [1, 72, 96, 312]     720                    0.00%              True
│    │    │    │    │    │    │    │    └─BatchNorm2d (4)              [1, 72, 96, 312]     [1, 72, 96, 312]     144                    0.00%              True
│    │    │    │    │    │    │    │    └─GELU (5)                     [1, 72, 96, 312]     [1, 72, 96, 312]     --                        --              --
│    │    │    │    │    │    │    │    └─Conv2d (6)                   [1, 72, 96, 312]     [1, 18, 96, 312]     1,314                  0.00%              True
│    │    │    │    │    │    │    │    └─BatchNorm2d (7)              [1, 18, 96, 312]     [1, 18, 96, 312]     36                     0.00%              True
│    │    │    │    │    │    │    │    └─GELU (8)                     [1, 18, 96, 312]     [1, 18, 96, 312]     --                        --              --
│    │    │    │    │    │    └─Identity (drop_path)                   [1, 29952, 18]       [1, 29952, 18]       --                   (recursive)          --
│    │    │    │    │    └─HRFormerBlock (1)                           [1, 18, 96, 312]     [1, 18, 96, 312]     --                        --              True
│    │    │    │    │    │    └─LayerNorm (norm1)                      [1, 29952, 18]       [1, 29952, 18]       36                     0.00%              True
│    │    │    │    │    │    └─LocalWindowSelfAttention (attn)        [1, 29952, 18]       [1, 29952, 18]       --                        --              True
│    │    │    │    │    │    │    └─WindowMSA (attn)                  [630, 49, 18]        [630, 49, 18]        169                    0.00%              True
│    │    │    │    │    │    │    │    └─Linear (qkv)                 [630, 49, 18]        [630, 49, 54]        1,026                  0.00%              True
│    │    │    │    │    │    │    │    └─Softmax (softmax)            [630, 1, 49, 49]     [630, 1, 49, 49]     --                        --              --
│    │    │    │    │    │    │    │    └─Dropout (attn_drop)          [630, 1, 49, 49]     [630, 1, 49, 49]     --                        --              --
│    │    │    │    │    │    │    │    └─Linear (out_proj)            [630, 49, 18]        [630, 49, 18]        342                    0.00%              True
│    │    │    │    │    │    │    │    └─Dropout (proj_drop)          [630, 49, 18]        [630, 49, 18]        --                        --              --
│    │    │    │    │    │    └─Identity (drop_path)                   [1, 29952, 18]       [1, 29952, 18]       --                        --              --
│    │    │    │    │    │    └─LayerNorm (norm2)                      [1, 29952, 18]       [1, 29952, 18]       36                     0.00%              True
│    │    │    │    │    │    └─CrossFFN (ffn)                         [1, 29952, 18]       [1, 29952, 18]       --                        --              True
│    │    │    │    │    │    │    └─Sequential (layers)               [1, 18, 96, 312]     [1, 18, 96, 312]     --                        --              True
│    │    │    │    │    │    │    │    └─Conv2d (0)                   [1, 18, 96, 312]     [1, 72, 96, 312]     1,368                  0.00%              True
│    │    │    │    │    │    │    │    └─BatchNorm2d (1)              [1, 72, 96, 312]     [1, 72, 96, 312]     144                    0.00%              True
│    │    │    │    │    │    │    │    └─GELU (2)                     [1, 72, 96, 312]     [1, 72, 96, 312]     --                        --              --
│    │    │    │    │    │    │    │    └─Conv2d (3)                   [1, 72, 96, 312]     [1, 72, 96, 312]     720                    0.00%              True
│    │    │    │    │    │    │    │    └─BatchNorm2d (4)              [1, 72, 96, 312]     [1, 72, 96, 312]     144                    0.00%              True
│    │    │    │    │    │    │    │    └─GELU (5)                     [1, 72, 96, 312]     [1, 72, 96, 312]     --                        --              --
│    │    │    │    │    │    │    │    └─Conv2d (6)                   [1, 72, 96, 312]     [1, 18, 96, 312]     1,314                  0.00%              True
│    │    │    │    │    │    │    │    └─BatchNorm2d (7)              [1, 18, 96, 312]     [1, 18, 96, 312]     36                     0.00%              True
│    │    │    │    │    │    │    │    └─GELU (8)                     [1, 18, 96, 312]     [1, 18, 96, 312]     --                        --              --
│    │    │    │    │    │    └─Identity (drop_path)                   [1, 29952, 18]       [1, 29952, 18]       --                   (recursive)          --
│    │    │    │    └─Sequential (1)                                   [1, 36, 48, 156]     [1, 36, 48, 156]     --                        --              True
│    │    │    │    │    └─HRFormerBlock (0)                           [1, 36, 48, 156]     [1, 36, 48, 156]     --                        --              True
│    │    │    │    │    │    └─LayerNorm (norm1)                      [1, 7488, 36]        [1, 7488, 36]        72                     0.00%              True
│    │    │    │    │    │    └─LocalWindowSelfAttention (attn)        [1, 7488, 36]        [1, 7488, 36]        --                        --              True
│    │    │    │    │    │    │    └─WindowMSA (attn)                  [161, 49, 36]        [161, 49, 36]        338                    0.00%              True
│    │    │    │    │    │    │    │    └─Linear (qkv)                 [161, 49, 36]        [161, 49, 108]       3,996                  0.01%              True
│    │    │    │    │    │    │    │    └─Softmax (softmax)            [161, 2, 49, 49]     [161, 2, 49, 49]     --                        --              --
│    │    │    │    │    │    │    │    └─Dropout (attn_drop)          [161, 2, 49, 49]     [161, 2, 49, 49]     --                        --              --
│    │    │    │    │    │    │    │    └─Linear (out_proj)            [161, 49, 36]        [161, 49, 36]        1,332                  0.00%              True
│    │    │    │    │    │    │    │    └─Dropout (proj_drop)          [161, 49, 36]        [161, 49, 36]        --                        --              --
│    │    │    │    │    │    └─Identity (drop_path)                   [1, 7488, 36]        [1, 7488, 36]        --                        --              --
│    │    │    │    │    │    └─LayerNorm (norm2)                      [1, 7488, 36]        [1, 7488, 36]        72                     0.00%              True
│    │    │    │    │    │    └─CrossFFN (ffn)                         [1, 7488, 36]        [1, 7488, 36]        --                        --              True
│    │    │    │    │    │    │    └─Sequential (layers)               [1, 36, 48, 156]     [1, 36, 48, 156]     --                        --              True
│    │    │    │    │    │    │    │    └─Conv2d (0)                   [1, 36, 48, 156]     [1, 144, 48, 156]    5,328                  0.01%              True
│    │    │    │    │    │    │    │    └─BatchNorm2d (1)              [1, 144, 48, 156]    [1, 144, 48, 156]    288                    0.00%              True
│    │    │    │    │    │    │    │    └─GELU (2)                     [1, 144, 48, 156]    [1, 144, 48, 156]    --                        --              --
│    │    │    │    │    │    │    │    └─Conv2d (3)                   [1, 144, 48, 156]    [1, 144, 48, 156]    1,440                  0.00%              True
│    │    │    │    │    │    │    │    └─BatchNorm2d (4)              [1, 144, 48, 156]    [1, 144, 48, 156]    288                    0.00%              True
│    │    │    │    │    │    │    │    └─GELU (5)                     [1, 144, 48, 156]    [1, 144, 48, 156]    --                        --              --
│    │    │    │    │    │    │    │    └─Conv2d (6)                   [1, 144, 48, 156]    [1, 36, 48, 156]     5,220                  0.01%              True
│    │    │    │    │    │    │    │    └─BatchNorm2d (7)              [1, 36, 48, 156]     [1, 36, 48, 156]     72                     0.00%              True
│    │    │    │    │    │    │    │    └─GELU (8)                     [1, 36, 48, 156]     [1, 36, 48, 156]     --                        --              --
│    │    │    │    │    │    └─Identity (drop_path)                   [1, 7488, 36]        [1, 7488, 36]        --                   (recursive)          --
│    │    │    │    │    └─HRFormerBlock (1)                           [1, 36, 48, 156]     [1, 36, 48, 156]     --                        --              True
│    │    │    │    │    │    └─LayerNorm (norm1)                      [1, 7488, 36]        [1, 7488, 36]        72                     0.00%              True
│    │    │    │    │    │    └─LocalWindowSelfAttention (attn)        [1, 7488, 36]        [1, 7488, 36]        --                        --              True
│    │    │    │    │    │    │    └─WindowMSA (attn)                  [161, 49, 36]        [161, 49, 36]        338                    0.00%              True
│    │    │    │    │    │    │    │    └─Linear (qkv)                 [161, 49, 36]        [161, 49, 108]       3,996                  0.01%              True
│    │    │    │    │    │    │    │    └─Softmax (softmax)            [161, 2, 49, 49]     [161, 2, 49, 49]     --                        --              --
│    │    │    │    │    │    │    │    └─Dropout (attn_drop)          [161, 2, 49, 49]     [161, 2, 49, 49]     --                        --              --
│    │    │    │    │    │    │    │    └─Linear (out_proj)            [161, 49, 36]        [161, 49, 36]        1,332                  0.00%              True
│    │    │    │    │    │    │    │    └─Dropout (proj_drop)          [161, 49, 36]        [161, 49, 36]        --                        --              --
│    │    │    │    │    │    └─Identity (drop_path)                   [1, 7488, 36]        [1, 7488, 36]        --                        --              --
│    │    │    │    │    │    └─LayerNorm (norm2)                      [1, 7488, 36]        [1, 7488, 36]        72                     0.00%              True
│    │    │    │    │    │    └─CrossFFN (ffn)                         [1, 7488, 36]        [1, 7488, 36]        --                        --              True
│    │    │    │    │    │    │    └─Sequential (layers)               [1, 36, 48, 156]     [1, 36, 48, 156]     --                        --              True
│    │    │    │    │    │    │    │    └─Conv2d (0)                   [1, 36, 48, 156]     [1, 144, 48, 156]    5,328                  0.01%              True
│    │    │    │    │    │    │    │    └─BatchNorm2d (1)              [1, 144, 48, 156]    [1, 144, 48, 156]    288                    0.00%              True
│    │    │    │    │    │    │    │    └─GELU (2)                     [1, 144, 48, 156]    [1, 144, 48, 156]    --                        --              --
│    │    │    │    │    │    │    │    └─Conv2d (3)                   [1, 144, 48, 156]    [1, 144, 48, 156]    1,440                  0.00%              True
│    │    │    │    │    │    │    │    └─BatchNorm2d (4)              [1, 144, 48, 156]    [1, 144, 48, 156]    288                    0.00%              True
│    │    │    │    │    │    │    │    └─GELU (5)                     [1, 144, 48, 156]    [1, 144, 48, 156]    --                        --              --
│    │    │    │    │    │    │    │    └─Conv2d (6)                   [1, 144, 48, 156]    [1, 36, 48, 156]     5,220                  0.01%              True
│    │    │    │    │    │    │    │    └─BatchNorm2d (7)              [1, 36, 48, 156]     [1, 36, 48, 156]     72                     0.00%              True
│    │    │    │    │    │    │    │    └─GELU (8)                     [1, 36, 48, 156]     [1, 36, 48, 156]     --                        --              --
│    │    │    │    │    │    └─Identity (drop_path)                   [1, 7488, 36]        [1, 7488, 36]        --                   (recursive)          --
│    │    │    │    └─Sequential (2)                                   [1, 72, 24, 78]      [1, 72, 24, 78]      --                        --              True
│    │    │    │    │    └─HRFormerBlock (0)                           [1, 72, 24, 78]      [1, 72, 24, 78]      --                        --              True
│    │    │    │    │    │    └─LayerNorm (norm1)                      [1, 1872, 72]        [1, 1872, 72]        144                    0.00%              True
│    │    │    │    │    │    └─LocalWindowSelfAttention (attn)        [1, 1872, 72]        [1, 1872, 72]        --                        --              True
│    │    │    │    │    │    │    └─WindowMSA (attn)                  [48, 49, 72]         [48, 49, 72]         676                    0.00%              True
│    │    │    │    │    │    │    │    └─Linear (qkv)                 [48, 49, 72]         [48, 49, 216]        15,768                 0.03%              True
│    │    │    │    │    │    │    │    └─Softmax (softmax)            [48, 4, 49, 49]      [48, 4, 49, 49]      --                        --              --
│    │    │    │    │    │    │    │    └─Dropout (attn_drop)          [48, 4, 49, 49]      [48, 4, 49, 49]      --                        --              --
│    │    │    │    │    │    │    │    └─Linear (out_proj)            [48, 49, 72]         [48, 49, 72]         5,256                  0.01%              True
│    │    │    │    │    │    │    │    └─Dropout (proj_drop)          [48, 49, 72]         [48, 49, 72]         --                        --              --
│    │    │    │    │    │    └─Identity (drop_path)                   [1, 1872, 72]        [1, 1872, 72]        --                        --              --
│    │    │    │    │    │    └─LayerNorm (norm2)                      [1, 1872, 72]        [1, 1872, 72]        144                    0.00%              True
│    │    │    │    │    │    └─CrossFFN (ffn)                         [1, 1872, 72]        [1, 1872, 72]        --                        --              True
│    │    │    │    │    │    │    └─Sequential (layers)               [1, 72, 24, 78]      [1, 72, 24, 78]      --                        --              True
│    │    │    │    │    │    │    │    └─Conv2d (0)                   [1, 72, 24, 78]      [1, 288, 24, 78]     21,024                 0.04%              True
│    │    │    │    │    │    │    │    └─BatchNorm2d (1)              [1, 288, 24, 78]     [1, 288, 24, 78]     576                    0.00%              True
│    │    │    │    │    │    │    │    └─GELU (2)                     [1, 288, 24, 78]     [1, 288, 24, 78]     --                        --              --
│    │    │    │    │    │    │    │    └─Conv2d (3)                   [1, 288, 24, 78]     [1, 288, 24, 78]     2,880                  0.01%              True
│    │    │    │    │    │    │    │    └─BatchNorm2d (4)              [1, 288, 24, 78]     [1, 288, 24, 78]     576                    0.00%              True
│    │    │    │    │    │    │    │    └─GELU (5)                     [1, 288, 24, 78]     [1, 288, 24, 78]     --                        --              --
│    │    │    │    │    │    │    │    └─Conv2d (6)                   [1, 288, 24, 78]     [1, 72, 24, 78]      20,808                 0.04%              True
│    │    │    │    │    │    │    │    └─BatchNorm2d (7)              [1, 72, 24, 78]      [1, 72, 24, 78]      144                    0.00%              True
│    │    │    │    │    │    │    │    └─GELU (8)                     [1, 72, 24, 78]      [1, 72, 24, 78]      --                        --              --
│    │    │    │    │    │    └─Identity (drop_path)                   [1, 1872, 72]        [1, 1872, 72]        --                   (recursive)          --
│    │    │    │    │    └─HRFormerBlock (1)                           [1, 72, 24, 78]      [1, 72, 24, 78]      --                        --              True
│    │    │    │    │    │    └─LayerNorm (norm1)                      [1, 1872, 72]        [1, 1872, 72]        144                    0.00%              True
│    │    │    │    │    │    └─LocalWindowSelfAttention (attn)        [1, 1872, 72]        [1, 1872, 72]        --                        --              True
│    │    │    │    │    │    │    └─WindowMSA (attn)                  [48, 49, 72]         [48, 49, 72]         676                    0.00%              True
│    │    │    │    │    │    │    │    └─Linear (qkv)                 [48, 49, 72]         [48, 49, 216]        15,768                 0.03%              True
│    │    │    │    │    │    │    │    └─Softmax (softmax)            [48, 4, 49, 49]      [48, 4, 49, 49]      --                        --              --
│    │    │    │    │    │    │    │    └─Dropout (attn_drop)          [48, 4, 49, 49]      [48, 4, 49, 49]      --                        --              --
│    │    │    │    │    │    │    │    └─Linear (out_proj)            [48, 49, 72]         [48, 49, 72]         5,256                  0.01%              True
│    │    │    │    │    │    │    │    └─Dropout (proj_drop)          [48, 49, 72]         [48, 49, 72]         --                        --              --
│    │    │    │    │    │    └─Identity (drop_path)                   [1, 1872, 72]        [1, 1872, 72]        --                        --              --
│    │    │    │    │    │    └─LayerNorm (norm2)                      [1, 1872, 72]        [1, 1872, 72]        144                    0.00%              True
│    │    │    │    │    │    └─CrossFFN (ffn)                         [1, 1872, 72]        [1, 1872, 72]        --                        --              True
│    │    │    │    │    │    │    └─Sequential (layers)               [1, 72, 24, 78]      [1, 72, 24, 78]      --                        --              True
│    │    │    │    │    │    │    │    └─Conv2d (0)                   [1, 72, 24, 78]      [1, 288, 24, 78]     21,024                 0.04%              True
│    │    │    │    │    │    │    │    └─BatchNorm2d (1)              [1, 288, 24, 78]     [1, 288, 24, 78]     576                    0.00%              True
│    │    │    │    │    │    │    │    └─GELU (2)                     [1, 288, 24, 78]     [1, 288, 24, 78]     --                        --              --
│    │    │    │    │    │    │    │    └─Conv2d (3)                   [1, 288, 24, 78]     [1, 288, 24, 78]     2,880                  0.01%              True
│    │    │    │    │    │    │    │    └─BatchNorm2d (4)              [1, 288, 24, 78]     [1, 288, 24, 78]     576                    0.00%              True
│    │    │    │    │    │    │    │    └─GELU (5)                     [1, 288, 24, 78]     [1, 288, 24, 78]     --                        --              --
│    │    │    │    │    │    │    │    └─Conv2d (6)                   [1, 288, 24, 78]     [1, 72, 24, 78]      20,808                 0.04%              True
│    │    │    │    │    │    │    │    └─BatchNorm2d (7)              [1, 72, 24, 78]      [1, 72, 24, 78]      144                    0.00%              True
│    │    │    │    │    │    │    │    └─GELU (8)                     [1, 72, 24, 78]      [1, 72, 24, 78]      --                        --              --
│    │    │    │    │    │    └─Identity (drop_path)                   [1, 1872, 72]        [1, 1872, 72]        --                   (recursive)          --
│    │    │    └─ModuleList (fuse_layers)                              --                   --                   (recursive)          (recursive)          True
│    │    │    │    └─ModuleList (0)                                   --                   --                   --                        --              True
│    │    │    │    │    └─Sequential (1)                              [1, 36, 48, 156]     [1, 18, 48, 156]     --                        --              True
│    │    │    │    │    │    └─Conv2d (0)                             [1, 36, 48, 156]     [1, 18, 48, 156]     648                    0.00%              True
│    │    │    │    │    │    └─BatchNorm2d (1)                        [1, 18, 48, 156]     [1, 18, 48, 156]     36                     0.00%              True
│    │    │    │    │    └─Sequential (2)                              [1, 72, 24, 78]      [1, 18, 24, 78]      --                        --              True
│    │    │    │    │    │    └─Conv2d (0)                             [1, 72, 24, 78]      [1, 18, 24, 78]      1,296                  0.00%              True
│    │    │    │    │    │    └─BatchNorm2d (1)                        [1, 18, 24, 78]      [1, 18, 24, 78]      36                     0.00%              True
│    │    │    └─ReLU (relu)                                           [1, 18, 96, 312]     [1, 18, 96, 312]     --                        --              --
│    │    │    └─ModuleList (fuse_layers)                              --                   --                   (recursive)          (recursive)          True
│    │    │    │    └─ModuleList (1)                                   --                   --                   --                        --              True
│    │    │    │    │    └─Sequential (0)                              [1, 18, 96, 312]     [1, 36, 48, 156]     --                        --              True
│    │    │    │    │    │    └─Sequential (0)                         [1, 18, 96, 312]     [1, 36, 48, 156]     --                        --              True
│    │    │    │    │    │    │    └─Conv2d (0)                        [1, 18, 96, 312]     [1, 18, 48, 156]     162                    0.00%              True
│    │    │    │    │    │    │    └─BatchNorm2d (1)                   [1, 18, 48, 156]     [1, 18, 48, 156]     36                     0.00%              True
│    │    │    │    │    │    │    └─Conv2d (2)                        [1, 18, 48, 156]     [1, 36, 48, 156]     648                    0.00%              True
│    │    │    │    │    │    │    └─BatchNorm2d (3)                   [1, 36, 48, 156]     [1, 36, 48, 156]     72                     0.00%              True
│    │    │    │    │    └─Sequential (2)                              [1, 72, 24, 78]      [1, 36, 24, 78]      --                        --              True
│    │    │    │    │    │    └─Conv2d (0)                             [1, 72, 24, 78]      [1, 36, 24, 78]      2,592                  0.01%              True
│    │    │    │    │    │    └─BatchNorm2d (1)                        [1, 36, 24, 78]      [1, 36, 24, 78]      72                     0.00%              True
│    │    │    └─ReLU (relu)                                           [1, 36, 48, 156]     [1, 36, 48, 156]     --                   (recursive)          --
│    │    │    └─ModuleList (fuse_layers)                              --                   --                   (recursive)          (recursive)          True
│    │    │    │    └─ModuleList (2)                                   --                   --                   --                        --              True
│    │    │    │    │    └─Sequential (0)                              [1, 18, 96, 312]     [1, 72, 24, 78]      --                        --              True
│    │    │    │    │    │    └─Sequential (0)                         [1, 18, 96, 312]     [1, 18, 48, 156]     --                        --              True
│    │    │    │    │    │    │    └─Conv2d (0)                        [1, 18, 96, 312]     [1, 18, 48, 156]     162                    0.00%              True
│    │    │    │    │    │    │    └─BatchNorm2d (1)                   [1, 18, 48, 156]     [1, 18, 48, 156]     36                     0.00%              True
│    │    │    │    │    │    │    └─Conv2d (2)                        [1, 18, 48, 156]     [1, 18, 48, 156]     324                    0.00%              True
│    │    │    │    │    │    │    └─BatchNorm2d (3)                   [1, 18, 48, 156]     [1, 18, 48, 156]     36                     0.00%              True
│    │    │    │    │    │    │    └─ReLU (4)                          [1, 18, 48, 156]     [1, 18, 48, 156]     --                        --              --
│    │    │    │    │    │    └─Sequential (1)                         [1, 18, 48, 156]     [1, 72, 24, 78]      --                        --              True
│    │    │    │    │    │    │    └─Conv2d (0)                        [1, 18, 48, 156]     [1, 18, 24, 78]      162                    0.00%              True
│    │    │    │    │    │    │    └─BatchNorm2d (1)                   [1, 18, 24, 78]      [1, 18, 24, 78]      36                     0.00%              True
│    │    │    │    │    │    │    └─Conv2d (2)                        [1, 18, 24, 78]      [1, 72, 24, 78]      1,296                  0.00%              True
│    │    │    │    │    │    │    └─BatchNorm2d (3)                   [1, 72, 24, 78]      [1, 72, 24, 78]      144                    0.00%              True
│    │    │    │    │    └─Sequential (1)                              [1, 36, 48, 156]     [1, 72, 24, 78]      --                        --              True
│    │    │    │    │    │    └─Sequential (0)                         [1, 36, 48, 156]     [1, 72, 24, 78]      --                        --              True
│    │    │    │    │    │    │    └─Conv2d (0)                        [1, 36, 48, 156]     [1, 36, 24, 78]      324                    0.00%              True
│    │    │    │    │    │    │    └─BatchNorm2d (1)                   [1, 36, 24, 78]      [1, 36, 24, 78]      72                     0.00%              True
│    │    │    │    │    │    │    └─Conv2d (2)                        [1, 36, 24, 78]      [1, 72, 24, 78]      2,592                  0.01%              True
│    │    │    │    │    │    │    └─BatchNorm2d (3)                   [1, 72, 24, 78]      [1, 72, 24, 78]      144                    0.00%              True
│    │    │    └─ReLU (relu)                                           [1, 72, 24, 78]      [1, 72, 24, 78]      --                   (recursive)          --
│    │    └─HRFomerModule (2)                                          [1, 18, 96, 312]     [1, 18, 96, 312]     --                        --              True
│    │    │    └─ModuleList (branches)                                 --                   --                   --                        --              True
│    │    │    │    └─Sequential (0)                                   [1, 18, 96, 312]     [1, 18, 96, 312]     --                        --              True
│    │    │    │    │    └─HRFormerBlock (0)                           [1, 18, 96, 312]     [1, 18, 96, 312]     --                        --              True
│    │    │    │    │    │    └─LayerNorm (norm1)                      [1, 29952, 18]       [1, 29952, 18]       36                     0.00%              True
│    │    │    │    │    │    └─LocalWindowSelfAttention (attn)        [1, 29952, 18]       [1, 29952, 18]       --                        --              True
│    │    │    │    │    │    │    └─WindowMSA (attn)                  [630, 49, 18]        [630, 49, 18]        169                    0.00%              True
│    │    │    │    │    │    │    │    └─Linear (qkv)                 [630, 49, 18]        [630, 49, 54]        1,026                  0.00%              True
│    │    │    │    │    │    │    │    └─Softmax (softmax)            [630, 1, 49, 49]     [630, 1, 49, 49]     --                        --              --
│    │    │    │    │    │    │    │    └─Dropout (attn_drop)          [630, 1, 49, 49]     [630, 1, 49, 49]     --                        --              --
│    │    │    │    │    │    │    │    └─Linear (out_proj)            [630, 49, 18]        [630, 49, 18]        342                    0.00%              True
│    │    │    │    │    │    │    │    └─Dropout (proj_drop)          [630, 49, 18]        [630, 49, 18]        --                        --              --
│    │    │    │    │    │    └─Identity (drop_path)                   [1, 29952, 18]       [1, 29952, 18]       --                        --              --
│    │    │    │    │    │    └─LayerNorm (norm2)                      [1, 29952, 18]       [1, 29952, 18]       36                     0.00%              True
│    │    │    │    │    │    └─CrossFFN (ffn)                         [1, 29952, 18]       [1, 29952, 18]       --                        --              True
│    │    │    │    │    │    │    └─Sequential (layers)               [1, 18, 96, 312]     [1, 18, 96, 312]     --                        --              True
│    │    │    │    │    │    │    │    └─Conv2d (0)                   [1, 18, 96, 312]     [1, 72, 96, 312]     1,368                  0.00%              True
│    │    │    │    │    │    │    │    └─BatchNorm2d (1)              [1, 72, 96, 312]     [1, 72, 96, 312]     144                    0.00%              True
│    │    │    │    │    │    │    │    └─GELU (2)                     [1, 72, 96, 312]     [1, 72, 96, 312]     --                        --              --
│    │    │    │    │    │    │    │    └─Conv2d (3)                   [1, 72, 96, 312]     [1, 72, 96, 312]     720                    0.00%              True
│    │    │    │    │    │    │    │    └─BatchNorm2d (4)              [1, 72, 96, 312]     [1, 72, 96, 312]     144                    0.00%              True
│    │    │    │    │    │    │    │    └─GELU (5)                     [1, 72, 96, 312]     [1, 72, 96, 312]     --                        --              --
│    │    │    │    │    │    │    │    └─Conv2d (6)                   [1, 72, 96, 312]     [1, 18, 96, 312]     1,314                  0.00%              True
│    │    │    │    │    │    │    │    └─BatchNorm2d (7)              [1, 18, 96, 312]     [1, 18, 96, 312]     36                     0.00%              True
│    │    │    │    │    │    │    │    └─GELU (8)                     [1, 18, 96, 312]     [1, 18, 96, 312]     --                        --              --
│    │    │    │    │    │    └─Identity (drop_path)                   [1, 29952, 18]       [1, 29952, 18]       --                   (recursive)          --
│    │    │    │    │    └─HRFormerBlock (1)                           [1, 18, 96, 312]     [1, 18, 96, 312]     --                        --              True
│    │    │    │    │    │    └─LayerNorm (norm1)                      [1, 29952, 18]       [1, 29952, 18]       36                     0.00%              True
│    │    │    │    │    │    └─LocalWindowSelfAttention (attn)        [1, 29952, 18]       [1, 29952, 18]       --                        --              True
│    │    │    │    │    │    │    └─WindowMSA (attn)                  [630, 49, 18]        [630, 49, 18]        169                    0.00%              True
│    │    │    │    │    │    │    │    └─Linear (qkv)                 [630, 49, 18]        [630, 49, 54]        1,026                  0.00%              True
│    │    │    │    │    │    │    │    └─Softmax (softmax)            [630, 1, 49, 49]     [630, 1, 49, 49]     --                        --              --
│    │    │    │    │    │    │    │    └─Dropout (attn_drop)          [630, 1, 49, 49]     [630, 1, 49, 49]     --                        --              --
│    │    │    │    │    │    │    │    └─Linear (out_proj)            [630, 49, 18]        [630, 49, 18]        342                    0.00%              True
│    │    │    │    │    │    │    │    └─Dropout (proj_drop)          [630, 49, 18]        [630, 49, 18]        --                        --              --
│    │    │    │    │    │    └─Identity (drop_path)                   [1, 29952, 18]       [1, 29952, 18]       --                        --              --
│    │    │    │    │    │    └─LayerNorm (norm2)                      [1, 29952, 18]       [1, 29952, 18]       36                     0.00%              True
│    │    │    │    │    │    └─CrossFFN (ffn)                         [1, 29952, 18]       [1, 29952, 18]       --                        --              True
│    │    │    │    │    │    │    └─Sequential (layers)               [1, 18, 96, 312]     [1, 18, 96, 312]     --                        --              True
│    │    │    │    │    │    │    │    └─Conv2d (0)                   [1, 18, 96, 312]     [1, 72, 96, 312]     1,368                  0.00%              True
│    │    │    │    │    │    │    │    └─BatchNorm2d (1)              [1, 72, 96, 312]     [1, 72, 96, 312]     144                    0.00%              True
│    │    │    │    │    │    │    │    └─GELU (2)                     [1, 72, 96, 312]     [1, 72, 96, 312]     --                        --              --
│    │    │    │    │    │    │    │    └─Conv2d (3)                   [1, 72, 96, 312]     [1, 72, 96, 312]     720                    0.00%              True
│    │    │    │    │    │    │    │    └─BatchNorm2d (4)              [1, 72, 96, 312]     [1, 72, 96, 312]     144                    0.00%              True
│    │    │    │    │    │    │    │    └─GELU (5)                     [1, 72, 96, 312]     [1, 72, 96, 312]     --                        --              --
│    │    │    │    │    │    │    │    └─Conv2d (6)                   [1, 72, 96, 312]     [1, 18, 96, 312]     1,314                  0.00%              True
│    │    │    │    │    │    │    │    └─BatchNorm2d (7)              [1, 18, 96, 312]     [1, 18, 96, 312]     36                     0.00%              True
│    │    │    │    │    │    │    │    └─GELU (8)                     [1, 18, 96, 312]     [1, 18, 96, 312]     --                        --              --
│    │    │    │    │    │    └─Identity (drop_path)                   [1, 29952, 18]       [1, 29952, 18]       --                   (recursive)          --
│    │    │    │    └─Sequential (1)                                   [1, 36, 48, 156]     [1, 36, 48, 156]     --                        --              True
│    │    │    │    │    └─HRFormerBlock (0)                           [1, 36, 48, 156]     [1, 36, 48, 156]     --                        --              True
│    │    │    │    │    │    └─LayerNorm (norm1)                      [1, 7488, 36]        [1, 7488, 36]        72                     0.00%              True
│    │    │    │    │    │    └─LocalWindowSelfAttention (attn)        [1, 7488, 36]        [1, 7488, 36]        --                        --              True
│    │    │    │    │    │    │    └─WindowMSA (attn)                  [161, 49, 36]        [161, 49, 36]        338                    0.00%              True
│    │    │    │    │    │    │    │    └─Linear (qkv)                 [161, 49, 36]        [161, 49, 108]       3,996                  0.01%              True
│    │    │    │    │    │    │    │    └─Softmax (softmax)            [161, 2, 49, 49]     [161, 2, 49, 49]     --                        --              --
│    │    │    │    │    │    │    │    └─Dropout (attn_drop)          [161, 2, 49, 49]     [161, 2, 49, 49]     --                        --              --
│    │    │    │    │    │    │    │    └─Linear (out_proj)            [161, 49, 36]        [161, 49, 36]        1,332                  0.00%              True
│    │    │    │    │    │    │    │    └─Dropout (proj_drop)          [161, 49, 36]        [161, 49, 36]        --                        --              --
│    │    │    │    │    │    └─Identity (drop_path)                   [1, 7488, 36]        [1, 7488, 36]        --                        --              --
│    │    │    │    │    │    └─LayerNorm (norm2)                      [1, 7488, 36]        [1, 7488, 36]        72                     0.00%              True
│    │    │    │    │    │    └─CrossFFN (ffn)                         [1, 7488, 36]        [1, 7488, 36]        --                        --              True
│    │    │    │    │    │    │    └─Sequential (layers)               [1, 36, 48, 156]     [1, 36, 48, 156]     --                        --              True
│    │    │    │    │    │    │    │    └─Conv2d (0)                   [1, 36, 48, 156]     [1, 144, 48, 156]    5,328                  0.01%              True
│    │    │    │    │    │    │    │    └─BatchNorm2d (1)              [1, 144, 48, 156]    [1, 144, 48, 156]    288                    0.00%              True
│    │    │    │    │    │    │    │    └─GELU (2)                     [1, 144, 48, 156]    [1, 144, 48, 156]    --                        --              --
│    │    │    │    │    │    │    │    └─Conv2d (3)                   [1, 144, 48, 156]    [1, 144, 48, 156]    1,440                  0.00%              True
│    │    │    │    │    │    │    │    └─BatchNorm2d (4)              [1, 144, 48, 156]    [1, 144, 48, 156]    288                    0.00%              True
│    │    │    │    │    │    │    │    └─GELU (5)                     [1, 144, 48, 156]    [1, 144, 48, 156]    --                        --              --
│    │    │    │    │    │    │    │    └─Conv2d (6)                   [1, 144, 48, 156]    [1, 36, 48, 156]     5,220                  0.01%              True
│    │    │    │    │    │    │    │    └─BatchNorm2d (7)              [1, 36, 48, 156]     [1, 36, 48, 156]     72                     0.00%              True
│    │    │    │    │    │    │    │    └─GELU (8)                     [1, 36, 48, 156]     [1, 36, 48, 156]     --                        --              --
│    │    │    │    │    │    └─Identity (drop_path)                   [1, 7488, 36]        [1, 7488, 36]        --                   (recursive)          --
│    │    │    │    │    └─HRFormerBlock (1)                           [1, 36, 48, 156]     [1, 36, 48, 156]     --                        --              True
│    │    │    │    │    │    └─LayerNorm (norm1)                      [1, 7488, 36]        [1, 7488, 36]        72                     0.00%              True
│    │    │    │    │    │    └─LocalWindowSelfAttention (attn)        [1, 7488, 36]        [1, 7488, 36]        --                        --              True
│    │    │    │    │    │    │    └─WindowMSA (attn)                  [161, 49, 36]        [161, 49, 36]        338                    0.00%              True
│    │    │    │    │    │    │    │    └─Linear (qkv)                 [161, 49, 36]        [161, 49, 108]       3,996                  0.01%              True
│    │    │    │    │    │    │    │    └─Softmax (softmax)            [161, 2, 49, 49]     [161, 2, 49, 49]     --                        --              --
│    │    │    │    │    │    │    │    └─Dropout (attn_drop)          [161, 2, 49, 49]     [161, 2, 49, 49]     --                        --              --
│    │    │    │    │    │    │    │    └─Linear (out_proj)            [161, 49, 36]        [161, 49, 36]        1,332                  0.00%              True
│    │    │    │    │    │    │    │    └─Dropout (proj_drop)          [161, 49, 36]        [161, 49, 36]        --                        --              --
│    │    │    │    │    │    └─Identity (drop_path)                   [1, 7488, 36]        [1, 7488, 36]        --                        --              --
│    │    │    │    │    │    └─LayerNorm (norm2)                      [1, 7488, 36]        [1, 7488, 36]        72                     0.00%              True
│    │    │    │    │    │    └─CrossFFN (ffn)                         [1, 7488, 36]        [1, 7488, 36]        --                        --              True
│    │    │    │    │    │    │    └─Sequential (layers)               [1, 36, 48, 156]     [1, 36, 48, 156]     --                        --              True
│    │    │    │    │    │    │    │    └─Conv2d (0)                   [1, 36, 48, 156]     [1, 144, 48, 156]    5,328                  0.01%              True
│    │    │    │    │    │    │    │    └─BatchNorm2d (1)              [1, 144, 48, 156]    [1, 144, 48, 156]    288                    0.00%              True
│    │    │    │    │    │    │    │    └─GELU (2)                     [1, 144, 48, 156]    [1, 144, 48, 156]    --                        --              --
│    │    │    │    │    │    │    │    └─Conv2d (3)                   [1, 144, 48, 156]    [1, 144, 48, 156]    1,440                  0.00%              True
│    │    │    │    │    │    │    │    └─BatchNorm2d (4)              [1, 144, 48, 156]    [1, 144, 48, 156]    288                    0.00%              True
│    │    │    │    │    │    │    │    └─GELU (5)                     [1, 144, 48, 156]    [1, 144, 48, 156]    --                        --              --
│    │    │    │    │    │    │    │    └─Conv2d (6)                   [1, 144, 48, 156]    [1, 36, 48, 156]     5,220                  0.01%              True
│    │    │    │    │    │    │    │    └─BatchNorm2d (7)              [1, 36, 48, 156]     [1, 36, 48, 156]     72                     0.00%              True
│    │    │    │    │    │    │    │    └─GELU (8)                     [1, 36, 48, 156]     [1, 36, 48, 156]     --                        --              --
│    │    │    │    │    │    └─Identity (drop_path)                   [1, 7488, 36]        [1, 7488, 36]        --                   (recursive)          --
│    │    │    │    └─Sequential (2)                                   [1, 72, 24, 78]      [1, 72, 24, 78]      --                        --              True
│    │    │    │    │    └─HRFormerBlock (0)                           [1, 72, 24, 78]      [1, 72, 24, 78]      --                        --              True
│    │    │    │    │    │    └─LayerNorm (norm1)                      [1, 1872, 72]        [1, 1872, 72]        144                    0.00%              True
│    │    │    │    │    │    └─LocalWindowSelfAttention (attn)        [1, 1872, 72]        [1, 1872, 72]        --                        --              True
│    │    │    │    │    │    │    └─WindowMSA (attn)                  [48, 49, 72]         [48, 49, 72]         676                    0.00%              True
│    │    │    │    │    │    │    │    └─Linear (qkv)                 [48, 49, 72]         [48, 49, 216]        15,768                 0.03%              True
│    │    │    │    │    │    │    │    └─Softmax (softmax)            [48, 4, 49, 49]      [48, 4, 49, 49]      --                        --              --
│    │    │    │    │    │    │    │    └─Dropout (attn_drop)          [48, 4, 49, 49]      [48, 4, 49, 49]      --                        --              --
│    │    │    │    │    │    │    │    └─Linear (out_proj)            [48, 49, 72]         [48, 49, 72]         5,256                  0.01%              True
│    │    │    │    │    │    │    │    └─Dropout (proj_drop)          [48, 49, 72]         [48, 49, 72]         --                        --              --
│    │    │    │    │    │    └─Identity (drop_path)                   [1, 1872, 72]        [1, 1872, 72]        --                        --              --
│    │    │    │    │    │    └─LayerNorm (norm2)                      [1, 1872, 72]        [1, 1872, 72]        144                    0.00%              True
│    │    │    │    │    │    └─CrossFFN (ffn)                         [1, 1872, 72]        [1, 1872, 72]        --                        --              True
│    │    │    │    │    │    │    └─Sequential (layers)               [1, 72, 24, 78]      [1, 72, 24, 78]      --                        --              True
│    │    │    │    │    │    │    │    └─Conv2d (0)                   [1, 72, 24, 78]      [1, 288, 24, 78]     21,024                 0.04%              True
│    │    │    │    │    │    │    │    └─BatchNorm2d (1)              [1, 288, 24, 78]     [1, 288, 24, 78]     576                    0.00%              True
│    │    │    │    │    │    │    │    └─GELU (2)                     [1, 288, 24, 78]     [1, 288, 24, 78]     --                        --              --
│    │    │    │    │    │    │    │    └─Conv2d (3)                   [1, 288, 24, 78]     [1, 288, 24, 78]     2,880                  0.01%              True
│    │    │    │    │    │    │    │    └─BatchNorm2d (4)              [1, 288, 24, 78]     [1, 288, 24, 78]     576                    0.00%              True
│    │    │    │    │    │    │    │    └─GELU (5)                     [1, 288, 24, 78]     [1, 288, 24, 78]     --                        --              --
│    │    │    │    │    │    │    │    └─Conv2d (6)                   [1, 288, 24, 78]     [1, 72, 24, 78]      20,808                 0.04%              True
│    │    │    │    │    │    │    │    └─BatchNorm2d (7)              [1, 72, 24, 78]      [1, 72, 24, 78]      144                    0.00%              True
│    │    │    │    │    │    │    │    └─GELU (8)                     [1, 72, 24, 78]      [1, 72, 24, 78]      --                        --              --
│    │    │    │    │    │    └─Identity (drop_path)                   [1, 1872, 72]        [1, 1872, 72]        --                   (recursive)          --
│    │    │    │    │    └─HRFormerBlock (1)                           [1, 72, 24, 78]      [1, 72, 24, 78]      --                        --              True
│    │    │    │    │    │    └─LayerNorm (norm1)                      [1, 1872, 72]        [1, 1872, 72]        144                    0.00%              True
│    │    │    │    │    │    └─LocalWindowSelfAttention (attn)        [1, 1872, 72]        [1, 1872, 72]        --                        --              True
│    │    │    │    │    │    │    └─WindowMSA (attn)                  [48, 49, 72]         [48, 49, 72]         676                    0.00%              True
│    │    │    │    │    │    │    │    └─Linear (qkv)                 [48, 49, 72]         [48, 49, 216]        15,768                 0.03%              True
│    │    │    │    │    │    │    │    └─Softmax (softmax)            [48, 4, 49, 49]      [48, 4, 49, 49]      --                        --              --
│    │    │    │    │    │    │    │    └─Dropout (attn_drop)          [48, 4, 49, 49]      [48, 4, 49, 49]      --                        --              --
│    │    │    │    │    │    │    │    └─Linear (out_proj)            [48, 49, 72]         [48, 49, 72]         5,256                  0.01%              True
│    │    │    │    │    │    │    │    └─Dropout (proj_drop)          [48, 49, 72]         [48, 49, 72]         --                        --              --
│    │    │    │    │    │    └─Identity (drop_path)                   [1, 1872, 72]        [1, 1872, 72]        --                        --              --
│    │    │    │    │    │    └─LayerNorm (norm2)                      [1, 1872, 72]        [1, 1872, 72]        144                    0.00%              True
│    │    │    │    │    │    └─CrossFFN (ffn)                         [1, 1872, 72]        [1, 1872, 72]        --                        --              True
│    │    │    │    │    │    │    └─Sequential (layers)               [1, 72, 24, 78]      [1, 72, 24, 78]      --                        --              True
│    │    │    │    │    │    │    │    └─Conv2d (0)                   [1, 72, 24, 78]      [1, 288, 24, 78]     21,024                 0.04%              True
│    │    │    │    │    │    │    │    └─BatchNorm2d (1)              [1, 288, 24, 78]     [1, 288, 24, 78]     576                    0.00%              True
│    │    │    │    │    │    │    │    └─GELU (2)                     [1, 288, 24, 78]     [1, 288, 24, 78]     --                        --              --
│    │    │    │    │    │    │    │    └─Conv2d (3)                   [1, 288, 24, 78]     [1, 288, 24, 78]     2,880                  0.01%              True
│    │    │    │    │    │    │    │    └─BatchNorm2d (4)              [1, 288, 24, 78]     [1, 288, 24, 78]     576                    0.00%              True
│    │    │    │    │    │    │    │    └─GELU (5)                     [1, 288, 24, 78]     [1, 288, 24, 78]     --                        --              --
│    │    │    │    │    │    │    │    └─Conv2d (6)                   [1, 288, 24, 78]     [1, 72, 24, 78]      20,808                 0.04%              True
│    │    │    │    │    │    │    │    └─BatchNorm2d (7)              [1, 72, 24, 78]      [1, 72, 24, 78]      144                    0.00%              True
│    │    │    │    │    │    │    │    └─GELU (8)                     [1, 72, 24, 78]      [1, 72, 24, 78]      --                        --              --
│    │    │    │    │    │    └─Identity (drop_path)                   [1, 1872, 72]        [1, 1872, 72]        --                   (recursive)          --
│    │    │    └─ModuleList (fuse_layers)                              --                   --                   (recursive)          (recursive)          True
│    │    │    │    └─ModuleList (0)                                   --                   --                   --                        --              True
│    │    │    │    │    └─Sequential (1)                              [1, 36, 48, 156]     [1, 18, 48, 156]     --                        --              True
│    │    │    │    │    │    └─Conv2d (0)                             [1, 36, 48, 156]     [1, 18, 48, 156]     648                    0.00%              True
│    │    │    │    │    │    └─BatchNorm2d (1)                        [1, 18, 48, 156]     [1, 18, 48, 156]     36                     0.00%              True
│    │    │    │    │    └─Sequential (2)                              [1, 72, 24, 78]      [1, 18, 24, 78]      --                        --              True
│    │    │    │    │    │    └─Conv2d (0)                             [1, 72, 24, 78]      [1, 18, 24, 78]      1,296                  0.00%              True
│    │    │    │    │    │    └─BatchNorm2d (1)                        [1, 18, 24, 78]      [1, 18, 24, 78]      36                     0.00%              True
│    │    │    └─ReLU (relu)                                           [1, 18, 96, 312]     [1, 18, 96, 312]     --                        --              --
│    │    │    └─ModuleList (fuse_layers)                              --                   --                   (recursive)          (recursive)          True
│    │    │    │    └─ModuleList (1)                                   --                   --                   --                        --              True
│    │    │    │    │    └─Sequential (0)                              [1, 18, 96, 312]     [1, 36, 48, 156]     --                        --              True
│    │    │    │    │    │    └─Sequential (0)                         [1, 18, 96, 312]     [1, 36, 48, 156]     --                        --              True
│    │    │    │    │    │    │    └─Conv2d (0)                        [1, 18, 96, 312]     [1, 18, 48, 156]     162                    0.00%              True
│    │    │    │    │    │    │    └─BatchNorm2d (1)                   [1, 18, 48, 156]     [1, 18, 48, 156]     36                     0.00%              True
│    │    │    │    │    │    │    └─Conv2d (2)                        [1, 18, 48, 156]     [1, 36, 48, 156]     648                    0.00%              True
│    │    │    │    │    │    │    └─BatchNorm2d (3)                   [1, 36, 48, 156]     [1, 36, 48, 156]     72                     0.00%              True
│    │    │    │    │    └─Sequential (2)                              [1, 72, 24, 78]      [1, 36, 24, 78]      --                        --              True
│    │    │    │    │    │    └─Conv2d (0)                             [1, 72, 24, 78]      [1, 36, 24, 78]      2,592                  0.01%              True
│    │    │    │    │    │    └─BatchNorm2d (1)                        [1, 36, 24, 78]      [1, 36, 24, 78]      72                     0.00%              True
│    │    │    └─ReLU (relu)                                           [1, 36, 48, 156]     [1, 36, 48, 156]     --                   (recursive)          --
│    │    │    └─ModuleList (fuse_layers)                              --                   --                   (recursive)          (recursive)          True
│    │    │    │    └─ModuleList (2)                                   --                   --                   --                        --              True
│    │    │    │    │    └─Sequential (0)                              [1, 18, 96, 312]     [1, 72, 24, 78]      --                        --              True
│    │    │    │    │    │    └─Sequential (0)                         [1, 18, 96, 312]     [1, 18, 48, 156]     --                        --              True
│    │    │    │    │    │    │    └─Conv2d (0)                        [1, 18, 96, 312]     [1, 18, 48, 156]     162                    0.00%              True
│    │    │    │    │    │    │    └─BatchNorm2d (1)                   [1, 18, 48, 156]     [1, 18, 48, 156]     36                     0.00%              True
│    │    │    │    │    │    │    └─Conv2d (2)                        [1, 18, 48, 156]     [1, 18, 48, 156]     324                    0.00%              True
│    │    │    │    │    │    │    └─BatchNorm2d (3)                   [1, 18, 48, 156]     [1, 18, 48, 156]     36                     0.00%              True
│    │    │    │    │    │    │    └─ReLU (4)                          [1, 18, 48, 156]     [1, 18, 48, 156]     --                        --              --
│    │    │    │    │    │    └─Sequential (1)                         [1, 18, 48, 156]     [1, 72, 24, 78]      --                        --              True
│    │    │    │    │    │    │    └─Conv2d (0)                        [1, 18, 48, 156]     [1, 18, 24, 78]      162                    0.00%              True
│    │    │    │    │    │    │    └─BatchNorm2d (1)                   [1, 18, 24, 78]      [1, 18, 24, 78]      36                     0.00%              True
│    │    │    │    │    │    │    └─Conv2d (2)                        [1, 18, 24, 78]      [1, 72, 24, 78]      1,296                  0.00%              True
│    │    │    │    │    │    │    └─BatchNorm2d (3)                   [1, 72, 24, 78]      [1, 72, 24, 78]      144                    0.00%              True
│    │    │    │    │    └─Sequential (1)                              [1, 36, 48, 156]     [1, 72, 24, 78]      --                        --              True
│    │    │    │    │    │    └─Sequential (0)                         [1, 36, 48, 156]     [1, 72, 24, 78]      --                        --              True
│    │    │    │    │    │    │    └─Conv2d (0)                        [1, 36, 48, 156]     [1, 36, 24, 78]      324                    0.00%              True
│    │    │    │    │    │    │    └─BatchNorm2d (1)                   [1, 36, 24, 78]      [1, 36, 24, 78]      72                     0.00%              True
│    │    │    │    │    │    │    └─Conv2d (2)                        [1, 36, 24, 78]      [1, 72, 24, 78]      2,592                  0.01%              True
│    │    │    │    │    │    │    └─BatchNorm2d (3)                   [1, 72, 24, 78]      [1, 72, 24, 78]      144                    0.00%              True
│    │    │    └─ReLU (relu)                                           [1, 72, 24, 78]      [1, 72, 24, 78]      --                   (recursive)          --
│    └─ModuleList (transition3)                                        --                   --                   --                        --              True
│    │    └─Sequential (3)                                             [1, 72, 24, 78]      [1, 144, 12, 39]     --                        --              True
│    │    │    └─Sequential (0)                                        [1, 72, 24, 78]      [1, 144, 12, 39]     --                        --              True
│    │    │    │    └─Conv2d (0)                                       [1, 72, 24, 78]      [1, 144, 12, 39]     93,312                 0.19%              True
│    │    │    │    └─BatchNorm2d (1)                                  [1, 144, 12, 39]     [1, 144, 12, 39]     288                    0.00%              True
│    │    │    │    └─ReLU (2)                                         [1, 144, 12, 39]     [1, 144, 12, 39]     --                        --              --
│    └─Sequential (stage4)                                             [1, 18, 96, 312]     [1, 18, 96, 312]     --                        --              True
│    │    └─HRFomerModule (0)                                          [1, 18, 96, 312]     [1, 18, 96, 312]     --                        --              True
│    │    │    └─ModuleList (branches)                                 --                   --                   --                        --              True
│    │    │    │    └─Sequential (0)                                   [1, 18, 96, 312]     [1, 18, 96, 312]     --                        --              True
│    │    │    │    │    └─HRFormerBlock (0)                           [1, 18, 96, 312]     [1, 18, 96, 312]     --                        --              True
│    │    │    │    │    │    └─LayerNorm (norm1)                      [1, 29952, 18]       [1, 29952, 18]       36                     0.00%              True
│    │    │    │    │    │    └─LocalWindowSelfAttention (attn)        [1, 29952, 18]       [1, 29952, 18]       --                        --              True
│    │    │    │    │    │    │    └─WindowMSA (attn)                  [630, 49, 18]        [630, 49, 18]        169                    0.00%              True
│    │    │    │    │    │    │    │    └─Linear (qkv)                 [630, 49, 18]        [630, 49, 54]        1,026                  0.00%              True
│    │    │    │    │    │    │    │    └─Softmax (softmax)            [630, 1, 49, 49]     [630, 1, 49, 49]     --                        --              --
│    │    │    │    │    │    │    │    └─Dropout (attn_drop)          [630, 1, 49, 49]     [630, 1, 49, 49]     --                        --              --
│    │    │    │    │    │    │    │    └─Linear (out_proj)            [630, 49, 18]        [630, 49, 18]        342                    0.00%              True
│    │    │    │    │    │    │    │    └─Dropout (proj_drop)          [630, 49, 18]        [630, 49, 18]        --                        --              --
│    │    │    │    │    │    └─Identity (drop_path)                   [1, 29952, 18]       [1, 29952, 18]       --                        --              --
│    │    │    │    │    │    └─LayerNorm (norm2)                      [1, 29952, 18]       [1, 29952, 18]       36                     0.00%              True
│    │    │    │    │    │    └─CrossFFN (ffn)                         [1, 29952, 18]       [1, 29952, 18]       --                        --              True
│    │    │    │    │    │    │    └─Sequential (layers)               [1, 18, 96, 312]     [1, 18, 96, 312]     --                        --              True
│    │    │    │    │    │    │    │    └─Conv2d (0)                   [1, 18, 96, 312]     [1, 72, 96, 312]     1,368                  0.00%              True
│    │    │    │    │    │    │    │    └─BatchNorm2d (1)              [1, 72, 96, 312]     [1, 72, 96, 312]     144                    0.00%              True
│    │    │    │    │    │    │    │    └─GELU (2)                     [1, 72, 96, 312]     [1, 72, 96, 312]     --                        --              --
│    │    │    │    │    │    │    │    └─Conv2d (3)                   [1, 72, 96, 312]     [1, 72, 96, 312]     720                    0.00%              True
│    │    │    │    │    │    │    │    └─BatchNorm2d (4)              [1, 72, 96, 312]     [1, 72, 96, 312]     144                    0.00%              True
│    │    │    │    │    │    │    │    └─GELU (5)                     [1, 72, 96, 312]     [1, 72, 96, 312]     --                        --              --
│    │    │    │    │    │    │    │    └─Conv2d (6)                   [1, 72, 96, 312]     [1, 18, 96, 312]     1,314                  0.00%              True
│    │    │    │    │    │    │    │    └─BatchNorm2d (7)              [1, 18, 96, 312]     [1, 18, 96, 312]     36                     0.00%              True
│    │    │    │    │    │    │    │    └─GELU (8)                     [1, 18, 96, 312]     [1, 18, 96, 312]     --                        --              --
│    │    │    │    │    │    └─Identity (drop_path)                   [1, 29952, 18]       [1, 29952, 18]       --                   (recursive)          --
│    │    │    │    │    └─HRFormerBlock (1)                           [1, 18, 96, 312]     [1, 18, 96, 312]     --                        --              True
│    │    │    │    │    │    └─LayerNorm (norm1)                      [1, 29952, 18]       [1, 29952, 18]       36                     0.00%              True
│    │    │    │    │    │    └─LocalWindowSelfAttention (attn)        [1, 29952, 18]       [1, 29952, 18]       --                        --              True
│    │    │    │    │    │    │    └─WindowMSA (attn)                  [630, 49, 18]        [630, 49, 18]        169                    0.00%              True
│    │    │    │    │    │    │    │    └─Linear (qkv)                 [630, 49, 18]        [630, 49, 54]        1,026                  0.00%              True
│    │    │    │    │    │    │    │    └─Softmax (softmax)            [630, 1, 49, 49]     [630, 1, 49, 49]     --                        --              --
│    │    │    │    │    │    │    │    └─Dropout (attn_drop)          [630, 1, 49, 49]     [630, 1, 49, 49]     --                        --              --
│    │    │    │    │    │    │    │    └─Linear (out_proj)            [630, 49, 18]        [630, 49, 18]        342                    0.00%              True
│    │    │    │    │    │    │    │    └─Dropout (proj_drop)          [630, 49, 18]        [630, 49, 18]        --                        --              --
│    │    │    │    │    │    └─Identity (drop_path)                   [1, 29952, 18]       [1, 29952, 18]       --                        --              --
│    │    │    │    │    │    └─LayerNorm (norm2)                      [1, 29952, 18]       [1, 29952, 18]       36                     0.00%              True
│    │    │    │    │    │    └─CrossFFN (ffn)                         [1, 29952, 18]       [1, 29952, 18]       --                        --              True
│    │    │    │    │    │    │    └─Sequential (layers)               [1, 18, 96, 312]     [1, 18, 96, 312]     --                        --              True
│    │    │    │    │    │    │    │    └─Conv2d (0)                   [1, 18, 96, 312]     [1, 72, 96, 312]     1,368                  0.00%              True
│    │    │    │    │    │    │    │    └─BatchNorm2d (1)              [1, 72, 96, 312]     [1, 72, 96, 312]     144                    0.00%              True
│    │    │    │    │    │    │    │    └─GELU (2)                     [1, 72, 96, 312]     [1, 72, 96, 312]     --                        --              --
│    │    │    │    │    │    │    │    └─Conv2d (3)                   [1, 72, 96, 312]     [1, 72, 96, 312]     720                    0.00%              True
│    │    │    │    │    │    │    │    └─BatchNorm2d (4)              [1, 72, 96, 312]     [1, 72, 96, 312]     144                    0.00%              True
│    │    │    │    │    │    │    │    └─GELU (5)                     [1, 72, 96, 312]     [1, 72, 96, 312]     --                        --              --
│    │    │    │    │    │    │    │    └─Conv2d (6)                   [1, 72, 96, 312]     [1, 18, 96, 312]     1,314                  0.00%              True
│    │    │    │    │    │    │    │    └─BatchNorm2d (7)              [1, 18, 96, 312]     [1, 18, 96, 312]     36                     0.00%              True
│    │    │    │    │    │    │    │    └─GELU (8)                     [1, 18, 96, 312]     [1, 18, 96, 312]     --                        --              --
│    │    │    │    │    │    └─Identity (drop_path)                   [1, 29952, 18]       [1, 29952, 18]       --                   (recursive)          --
│    │    │    │    └─Sequential (1)                                   [1, 36, 48, 156]     [1, 36, 48, 156]     --                        --              True
│    │    │    │    │    └─HRFormerBlock (0)                           [1, 36, 48, 156]     [1, 36, 48, 156]     --                        --              True
│    │    │    │    │    │    └─LayerNorm (norm1)                      [1, 7488, 36]        [1, 7488, 36]        72                     0.00%              True
│    │    │    │    │    │    └─LocalWindowSelfAttention (attn)        [1, 7488, 36]        [1, 7488, 36]        --                        --              True
│    │    │    │    │    │    │    └─WindowMSA (attn)                  [161, 49, 36]        [161, 49, 36]        338                    0.00%              True
│    │    │    │    │    │    │    │    └─Linear (qkv)                 [161, 49, 36]        [161, 49, 108]       3,996                  0.01%              True
│    │    │    │    │    │    │    │    └─Softmax (softmax)            [161, 2, 49, 49]     [161, 2, 49, 49]     --                        --              --
│    │    │    │    │    │    │    │    └─Dropout (attn_drop)          [161, 2, 49, 49]     [161, 2, 49, 49]     --                        --              --
│    │    │    │    │    │    │    │    └─Linear (out_proj)            [161, 49, 36]        [161, 49, 36]        1,332                  0.00%              True
│    │    │    │    │    │    │    │    └─Dropout (proj_drop)          [161, 49, 36]        [161, 49, 36]        --                        --              --
│    │    │    │    │    │    └─Identity (drop_path)                   [1, 7488, 36]        [1, 7488, 36]        --                        --              --
│    │    │    │    │    │    └─LayerNorm (norm2)                      [1, 7488, 36]        [1, 7488, 36]        72                     0.00%              True
│    │    │    │    │    │    └─CrossFFN (ffn)                         [1, 7488, 36]        [1, 7488, 36]        --                        --              True
│    │    │    │    │    │    │    └─Sequential (layers)               [1, 36, 48, 156]     [1, 36, 48, 156]     --                        --              True
│    │    │    │    │    │    │    │    └─Conv2d (0)                   [1, 36, 48, 156]     [1, 144, 48, 156]    5,328                  0.01%              True
│    │    │    │    │    │    │    │    └─BatchNorm2d (1)              [1, 144, 48, 156]    [1, 144, 48, 156]    288                    0.00%              True
│    │    │    │    │    │    │    │    └─GELU (2)                     [1, 144, 48, 156]    [1, 144, 48, 156]    --                        --              --
│    │    │    │    │    │    │    │    └─Conv2d (3)                   [1, 144, 48, 156]    [1, 144, 48, 156]    1,440                  0.00%              True
│    │    │    │    │    │    │    │    └─BatchNorm2d (4)              [1, 144, 48, 156]    [1, 144, 48, 156]    288                    0.00%              True
│    │    │    │    │    │    │    │    └─GELU (5)                     [1, 144, 48, 156]    [1, 144, 48, 156]    --                        --              --
│    │    │    │    │    │    │    │    └─Conv2d (6)                   [1, 144, 48, 156]    [1, 36, 48, 156]     5,220                  0.01%              True
│    │    │    │    │    │    │    │    └─BatchNorm2d (7)              [1, 36, 48, 156]     [1, 36, 48, 156]     72                     0.00%              True
│    │    │    │    │    │    │    │    └─GELU (8)                     [1, 36, 48, 156]     [1, 36, 48, 156]     --                        --              --
│    │    │    │    │    │    └─Identity (drop_path)                   [1, 7488, 36]        [1, 7488, 36]        --                   (recursive)          --
│    │    │    │    │    └─HRFormerBlock (1)                           [1, 36, 48, 156]     [1, 36, 48, 156]     --                        --              True
│    │    │    │    │    │    └─LayerNorm (norm1)                      [1, 7488, 36]        [1, 7488, 36]        72                     0.00%              True
│    │    │    │    │    │    └─LocalWindowSelfAttention (attn)        [1, 7488, 36]        [1, 7488, 36]        --                        --              True
│    │    │    │    │    │    │    └─WindowMSA (attn)                  [161, 49, 36]        [161, 49, 36]        338                    0.00%              True
│    │    │    │    │    │    │    │    └─Linear (qkv)                 [161, 49, 36]        [161, 49, 108]       3,996                  0.01%              True
│    │    │    │    │    │    │    │    └─Softmax (softmax)            [161, 2, 49, 49]     [161, 2, 49, 49]     --                        --              --
│    │    │    │    │    │    │    │    └─Dropout (attn_drop)          [161, 2, 49, 49]     [161, 2, 49, 49]     --                        --              --
│    │    │    │    │    │    │    │    └─Linear (out_proj)            [161, 49, 36]        [161, 49, 36]        1,332                  0.00%              True
│    │    │    │    │    │    │    │    └─Dropout (proj_drop)          [161, 49, 36]        [161, 49, 36]        --                        --              --
│    │    │    │    │    │    └─Identity (drop_path)                   [1, 7488, 36]        [1, 7488, 36]        --                        --              --
│    │    │    │    │    │    └─LayerNorm (norm2)                      [1, 7488, 36]        [1, 7488, 36]        72                     0.00%              True
│    │    │    │    │    │    └─CrossFFN (ffn)                         [1, 7488, 36]        [1, 7488, 36]        --                        --              True
│    │    │    │    │    │    │    └─Sequential (layers)               [1, 36, 48, 156]     [1, 36, 48, 156]     --                        --              True
│    │    │    │    │    │    │    │    └─Conv2d (0)                   [1, 36, 48, 156]     [1, 144, 48, 156]    5,328                  0.01%              True
│    │    │    │    │    │    │    │    └─BatchNorm2d (1)              [1, 144, 48, 156]    [1, 144, 48, 156]    288                    0.00%              True
│    │    │    │    │    │    │    │    └─GELU (2)                     [1, 144, 48, 156]    [1, 144, 48, 156]    --                        --              --
│    │    │    │    │    │    │    │    └─Conv2d (3)                   [1, 144, 48, 156]    [1, 144, 48, 156]    1,440                  0.00%              True
│    │    │    │    │    │    │    │    └─BatchNorm2d (4)              [1, 144, 48, 156]    [1, 144, 48, 156]    288                    0.00%              True
│    │    │    │    │    │    │    │    └─GELU (5)                     [1, 144, 48, 156]    [1, 144, 48, 156]    --                        --              --
│    │    │    │    │    │    │    │    └─Conv2d (6)                   [1, 144, 48, 156]    [1, 36, 48, 156]     5,220                  0.01%              True
│    │    │    │    │    │    │    │    └─BatchNorm2d (7)              [1, 36, 48, 156]     [1, 36, 48, 156]     72                     0.00%              True
│    │    │    │    │    │    │    │    └─GELU (8)                     [1, 36, 48, 156]     [1, 36, 48, 156]     --                        --              --
│    │    │    │    │    │    └─Identity (drop_path)                   [1, 7488, 36]        [1, 7488, 36]        --                   (recursive)          --
│    │    │    │    └─Sequential (2)                                   [1, 72, 24, 78]      [1, 72, 24, 78]      --                        --              True
│    │    │    │    │    └─HRFormerBlock (0)                           [1, 72, 24, 78]      [1, 72, 24, 78]      --                        --              True
│    │    │    │    │    │    └─LayerNorm (norm1)                      [1, 1872, 72]        [1, 1872, 72]        144                    0.00%              True
│    │    │    │    │    │    └─LocalWindowSelfAttention (attn)        [1, 1872, 72]        [1, 1872, 72]        --                        --              True
│    │    │    │    │    │    │    └─WindowMSA (attn)                  [48, 49, 72]         [48, 49, 72]         676                    0.00%              True
│    │    │    │    │    │    │    │    └─Linear (qkv)                 [48, 49, 72]         [48, 49, 216]        15,768                 0.03%              True
│    │    │    │    │    │    │    │    └─Softmax (softmax)            [48, 4, 49, 49]      [48, 4, 49, 49]      --                        --              --
│    │    │    │    │    │    │    │    └─Dropout (attn_drop)          [48, 4, 49, 49]      [48, 4, 49, 49]      --                        --              --
│    │    │    │    │    │    │    │    └─Linear (out_proj)            [48, 49, 72]         [48, 49, 72]         5,256                  0.01%              True
│    │    │    │    │    │    │    │    └─Dropout (proj_drop)          [48, 49, 72]         [48, 49, 72]         --                        --              --
│    │    │    │    │    │    └─Identity (drop_path)                   [1, 1872, 72]        [1, 1872, 72]        --                        --              --
│    │    │    │    │    │    └─LayerNorm (norm2)                      [1, 1872, 72]        [1, 1872, 72]        144                    0.00%              True
│    │    │    │    │    │    └─CrossFFN (ffn)                         [1, 1872, 72]        [1, 1872, 72]        --                        --              True
│    │    │    │    │    │    │    └─Sequential (layers)               [1, 72, 24, 78]      [1, 72, 24, 78]      --                        --              True
│    │    │    │    │    │    │    │    └─Conv2d (0)                   [1, 72, 24, 78]      [1, 288, 24, 78]     21,024                 0.04%              True
│    │    │    │    │    │    │    │    └─BatchNorm2d (1)              [1, 288, 24, 78]     [1, 288, 24, 78]     576                    0.00%              True
│    │    │    │    │    │    │    │    └─GELU (2)                     [1, 288, 24, 78]     [1, 288, 24, 78]     --                        --              --
│    │    │    │    │    │    │    │    └─Conv2d (3)                   [1, 288, 24, 78]     [1, 288, 24, 78]     2,880                  0.01%              True
│    │    │    │    │    │    │    │    └─BatchNorm2d (4)              [1, 288, 24, 78]     [1, 288, 24, 78]     576                    0.00%              True
│    │    │    │    │    │    │    │    └─GELU (5)                     [1, 288, 24, 78]     [1, 288, 24, 78]     --                        --              --
│    │    │    │    │    │    │    │    └─Conv2d (6)                   [1, 288, 24, 78]     [1, 72, 24, 78]      20,808                 0.04%              True
│    │    │    │    │    │    │    │    └─BatchNorm2d (7)              [1, 72, 24, 78]      [1, 72, 24, 78]      144                    0.00%              True
│    │    │    │    │    │    │    │    └─GELU (8)                     [1, 72, 24, 78]      [1, 72, 24, 78]      --                        --              --
│    │    │    │    │    │    └─Identity (drop_path)                   [1, 1872, 72]        [1, 1872, 72]        --                   (recursive)          --
│    │    │    │    │    └─HRFormerBlock (1)                           [1, 72, 24, 78]      [1, 72, 24, 78]      --                        --              True
│    │    │    │    │    │    └─LayerNorm (norm1)                      [1, 1872, 72]        [1, 1872, 72]        144                    0.00%              True
│    │    │    │    │    │    └─LocalWindowSelfAttention (attn)        [1, 1872, 72]        [1, 1872, 72]        --                        --              True
│    │    │    │    │    │    │    └─WindowMSA (attn)                  [48, 49, 72]         [48, 49, 72]         676                    0.00%              True
│    │    │    │    │    │    │    │    └─Linear (qkv)                 [48, 49, 72]         [48, 49, 216]        15,768                 0.03%              True
│    │    │    │    │    │    │    │    └─Softmax (softmax)            [48, 4, 49, 49]      [48, 4, 49, 49]      --                        --              --
│    │    │    │    │    │    │    │    └─Dropout (attn_drop)          [48, 4, 49, 49]      [48, 4, 49, 49]      --                        --              --
│    │    │    │    │    │    │    │    └─Linear (out_proj)            [48, 49, 72]         [48, 49, 72]         5,256                  0.01%              True
│    │    │    │    │    │    │    │    └─Dropout (proj_drop)          [48, 49, 72]         [48, 49, 72]         --                        --              --
│    │    │    │    │    │    └─Identity (drop_path)                   [1, 1872, 72]        [1, 1872, 72]        --                        --              --
│    │    │    │    │    │    └─LayerNorm (norm2)                      [1, 1872, 72]        [1, 1872, 72]        144                    0.00%              True
│    │    │    │    │    │    └─CrossFFN (ffn)                         [1, 1872, 72]        [1, 1872, 72]        --                        --              True
│    │    │    │    │    │    │    └─Sequential (layers)               [1, 72, 24, 78]      [1, 72, 24, 78]      --                        --              True
│    │    │    │    │    │    │    │    └─Conv2d (0)                   [1, 72, 24, 78]      [1, 288, 24, 78]     21,024                 0.04%              True
│    │    │    │    │    │    │    │    └─BatchNorm2d (1)              [1, 288, 24, 78]     [1, 288, 24, 78]     576                    0.00%              True
│    │    │    │    │    │    │    │    └─GELU (2)                     [1, 288, 24, 78]     [1, 288, 24, 78]     --                        --              --
│    │    │    │    │    │    │    │    └─Conv2d (3)                   [1, 288, 24, 78]     [1, 288, 24, 78]     2,880                  0.01%              True
│    │    │    │    │    │    │    │    └─BatchNorm2d (4)              [1, 288, 24, 78]     [1, 288, 24, 78]     576                    0.00%              True
│    │    │    │    │    │    │    │    └─GELU (5)                     [1, 288, 24, 78]     [1, 288, 24, 78]     --                        --              --
│    │    │    │    │    │    │    │    └─Conv2d (6)                   [1, 288, 24, 78]     [1, 72, 24, 78]      20,808                 0.04%              True
│    │    │    │    │    │    │    │    └─BatchNorm2d (7)              [1, 72, 24, 78]      [1, 72, 24, 78]      144                    0.00%              True
│    │    │    │    │    │    │    │    └─GELU (8)                     [1, 72, 24, 78]      [1, 72, 24, 78]      --                        --              --
│    │    │    │    │    │    └─Identity (drop_path)                   [1, 1872, 72]        [1, 1872, 72]        --                   (recursive)          --
│    │    │    │    └─Sequential (3)                                   [1, 144, 12, 39]     [1, 144, 12, 39]     --                        --              True
│    │    │    │    │    └─HRFormerBlock (0)                           [1, 144, 12, 39]     [1, 144, 12, 39]     --                        --              True
│    │    │    │    │    │    └─LayerNorm (norm1)                      [1, 468, 144]        [1, 468, 144]        288                    0.00%              True
│    │    │    │    │    │    └─LocalWindowSelfAttention (attn)        [1, 468, 144]        [1, 468, 144]        --                        --              True
│    │    │    │    │    │    │    └─WindowMSA (attn)                  [12, 49, 144]        [12, 49, 144]        1,352                  0.00%              True
│    │    │    │    │    │    │    │    └─Linear (qkv)                 [12, 49, 144]        [12, 49, 432]        62,640                 0.13%              True
│    │    │    │    │    │    │    │    └─Softmax (softmax)            [12, 8, 49, 49]      [12, 8, 49, 49]      --                        --              --
│    │    │    │    │    │    │    │    └─Dropout (attn_drop)          [12, 8, 49, 49]      [12, 8, 49, 49]      --                        --              --
│    │    │    │    │    │    │    │    └─Linear (out_proj)            [12, 49, 144]        [12, 49, 144]        20,880                 0.04%              True
│    │    │    │    │    │    │    │    └─Dropout (proj_drop)          [12, 49, 144]        [12, 49, 144]        --                        --              --
│    │    │    │    │    │    └─Identity (drop_path)                   [1, 468, 144]        [1, 468, 144]        --                        --              --
│    │    │    │    │    │    └─LayerNorm (norm2)                      [1, 468, 144]        [1, 468, 144]        288                    0.00%              True
│    │    │    │    │    │    └─CrossFFN (ffn)                         [1, 468, 144]        [1, 468, 144]        --                        --              True
│    │    │    │    │    │    │    └─Sequential (layers)               [1, 144, 12, 39]     [1, 144, 12, 39]     --                        --              True
│    │    │    │    │    │    │    │    └─Conv2d (0)                   [1, 144, 12, 39]     [1, 576, 12, 39]     83,520                 0.17%              True
│    │    │    │    │    │    │    │    └─BatchNorm2d (1)              [1, 576, 12, 39]     [1, 576, 12, 39]     1,152                  0.00%              True
│    │    │    │    │    │    │    │    └─GELU (2)                     [1, 576, 12, 39]     [1, 576, 12, 39]     --                        --              --
│    │    │    │    │    │    │    │    └─Conv2d (3)                   [1, 576, 12, 39]     [1, 576, 12, 39]     5,760                  0.01%              True
│    │    │    │    │    │    │    │    └─BatchNorm2d (4)              [1, 576, 12, 39]     [1, 576, 12, 39]     1,152                  0.00%              True
│    │    │    │    │    │    │    │    └─GELU (5)                     [1, 576, 12, 39]     [1, 576, 12, 39]     --                        --              --
│    │    │    │    │    │    │    │    └─Conv2d (6)                   [1, 576, 12, 39]     [1, 144, 12, 39]     83,088                 0.17%              True
│    │    │    │    │    │    │    │    └─BatchNorm2d (7)              [1, 144, 12, 39]     [1, 144, 12, 39]     288                    0.00%              True
│    │    │    │    │    │    │    │    └─GELU (8)                     [1, 144, 12, 39]     [1, 144, 12, 39]     --                        --              --
│    │    │    │    │    │    └─Identity (drop_path)                   [1, 468, 144]        [1, 468, 144]        --                   (recursive)          --
│    │    │    │    │    └─HRFormerBlock (1)                           [1, 144, 12, 39]     [1, 144, 12, 39]     --                        --              True
│    │    │    │    │    │    └─LayerNorm (norm1)                      [1, 468, 144]        [1, 468, 144]        288                    0.00%              True
│    │    │    │    │    │    └─LocalWindowSelfAttention (attn)        [1, 468, 144]        [1, 468, 144]        --                        --              True
│    │    │    │    │    │    │    └─WindowMSA (attn)                  [12, 49, 144]        [12, 49, 144]        1,352                  0.00%              True
│    │    │    │    │    │    │    │    └─Linear (qkv)                 [12, 49, 144]        [12, 49, 432]        62,640                 0.13%              True
│    │    │    │    │    │    │    │    └─Softmax (softmax)            [12, 8, 49, 49]      [12, 8, 49, 49]      --                        --              --
│    │    │    │    │    │    │    │    └─Dropout (attn_drop)          [12, 8, 49, 49]      [12, 8, 49, 49]      --                        --              --
│    │    │    │    │    │    │    │    └─Linear (out_proj)            [12, 49, 144]        [12, 49, 144]        20,880                 0.04%              True
│    │    │    │    │    │    │    │    └─Dropout (proj_drop)          [12, 49, 144]        [12, 49, 144]        --                        --              --
│    │    │    │    │    │    └─Identity (drop_path)                   [1, 468, 144]        [1, 468, 144]        --                        --              --
│    │    │    │    │    │    └─LayerNorm (norm2)                      [1, 468, 144]        [1, 468, 144]        288                    0.00%              True
│    │    │    │    │    │    └─CrossFFN (ffn)                         [1, 468, 144]        [1, 468, 144]        --                        --              True
│    │    │    │    │    │    │    └─Sequential (layers)               [1, 144, 12, 39]     [1, 144, 12, 39]     --                        --              True
│    │    │    │    │    │    │    │    └─Conv2d (0)                   [1, 144, 12, 39]     [1, 576, 12, 39]     83,520                 0.17%              True
│    │    │    │    │    │    │    │    └─BatchNorm2d (1)              [1, 576, 12, 39]     [1, 576, 12, 39]     1,152                  0.00%              True
│    │    │    │    │    │    │    │    └─GELU (2)                     [1, 576, 12, 39]     [1, 576, 12, 39]     --                        --              --
│    │    │    │    │    │    │    │    └─Conv2d (3)                   [1, 576, 12, 39]     [1, 576, 12, 39]     5,760                  0.01%              True
│    │    │    │    │    │    │    │    └─BatchNorm2d (4)              [1, 576, 12, 39]     [1, 576, 12, 39]     1,152                  0.00%              True
│    │    │    │    │    │    │    │    └─GELU (5)                     [1, 576, 12, 39]     [1, 576, 12, 39]     --                        --              --
│    │    │    │    │    │    │    │    └─Conv2d (6)                   [1, 576, 12, 39]     [1, 144, 12, 39]     83,088                 0.17%              True
│    │    │    │    │    │    │    │    └─BatchNorm2d (7)              [1, 144, 12, 39]     [1, 144, 12, 39]     288                    0.00%              True
│    │    │    │    │    │    │    │    └─GELU (8)                     [1, 144, 12, 39]     [1, 144, 12, 39]     --                        --              --
│    │    │    │    │    │    └─Identity (drop_path)                   [1, 468, 144]        [1, 468, 144]        --                   (recursive)          --
│    │    │    └─ModuleList (fuse_layers)                              --                   --                   (recursive)          (recursive)          True
│    │    │    │    └─ModuleList (0)                                   --                   --                   --                        --              True
│    │    │    │    │    └─Sequential (1)                              [1, 36, 48, 156]     [1, 18, 48, 156]     --                        --              True
│    │    │    │    │    │    └─Conv2d (0)                             [1, 36, 48, 156]     [1, 18, 48, 156]     648                    0.00%              True
│    │    │    │    │    │    └─BatchNorm2d (1)                        [1, 18, 48, 156]     [1, 18, 48, 156]     36                     0.00%              True
│    │    │    │    │    └─Sequential (2)                              [1, 72, 24, 78]      [1, 18, 24, 78]      --                        --              True
│    │    │    │    │    │    └─Conv2d (0)                             [1, 72, 24, 78]      [1, 18, 24, 78]      1,296                  0.00%              True
│    │    │    │    │    │    └─BatchNorm2d (1)                        [1, 18, 24, 78]      [1, 18, 24, 78]      36                     0.00%              True
│    │    │    │    │    └─Sequential (3)                              [1, 144, 12, 39]     [1, 18, 12, 39]      --                        --              True
│    │    │    │    │    │    └─Conv2d (0)                             [1, 144, 12, 39]     [1, 18, 12, 39]      2,592                  0.01%              True
│    │    │    │    │    │    └─BatchNorm2d (1)                        [1, 18, 12, 39]      [1, 18, 12, 39]      36                     0.00%              True
│    │    │    └─ReLU (relu)                                           [1, 18, 96, 312]     [1, 18, 96, 312]     --                        --              --
│    │    │    └─ModuleList (fuse_layers)                              --                   --                   (recursive)          (recursive)          True
│    │    │    │    └─ModuleList (1)                                   --                   --                   --                        --              True
│    │    │    │    │    └─Sequential (0)                              [1, 18, 96, 312]     [1, 36, 48, 156]     --                        --              True
│    │    │    │    │    │    └─Sequential (0)                         [1, 18, 96, 312]     [1, 36, 48, 156]     --                        --              True
│    │    │    │    │    │    │    └─Conv2d (0)                        [1, 18, 96, 312]     [1, 18, 48, 156]     162                    0.00%              True
│    │    │    │    │    │    │    └─BatchNorm2d (1)                   [1, 18, 48, 156]     [1, 18, 48, 156]     36                     0.00%              True
│    │    │    │    │    │    │    └─Conv2d (2)                        [1, 18, 48, 156]     [1, 36, 48, 156]     648                    0.00%              True
│    │    │    │    │    │    │    └─BatchNorm2d (3)                   [1, 36, 48, 156]     [1, 36, 48, 156]     72                     0.00%              True
│    │    │    │    │    └─Sequential (2)                              [1, 72, 24, 78]      [1, 36, 24, 78]      --                        --              True
│    │    │    │    │    │    └─Conv2d (0)                             [1, 72, 24, 78]      [1, 36, 24, 78]      2,592                  0.01%              True
│    │    │    │    │    │    └─BatchNorm2d (1)                        [1, 36, 24, 78]      [1, 36, 24, 78]      72                     0.00%              True
│    │    │    │    │    └─Sequential (3)                              [1, 144, 12, 39]     [1, 36, 12, 39]      --                        --              True
…
│    │    │    │    │    │    └─Identity (drop_path)                   [1, 7488, 36]        [1, 7488, 36]        --                        --              --
│    │    │    │    │    │    └─LayerNorm (norm2)                      [1, 7488, 36]        [1, 7488, 36]        72                     0.00%              True
│    │    │    │    │    │    └─CrossFFN (ffn)                         [1, 7488, 36]        [1, 7488, 36]        --                        --              True
│    │    │    │    │    │    │    └─Sequential (layers)               [1, 36, 48, 156]     [1, 36, 48, 156]     --                        --              True
│    │    │    │    │    │    │    │    └─Conv2d (0)                   [1, 36, 48, 156]     [1, 144, 48, 156]    5,328                  0.01%              True
│    │    │    │    │    │    │    │    └─BatchNorm2d (1)              [1, 144, 48, 156]    [1, 144, 48, 156]    288                    0.00%              True
│    │    │    │    │    │    │    │    └─GELU (2)                     [1, 144, 48, 156]    [1, 144, 48, 156]    --                        --              --
│    │    │    │    │    │    │    │    └─Conv2d (3)                   [1, 144, 48, 156]    [1, 144, 48, 156]    1,440                  0.00%              True
│    │    │    │    │    │    │    │    └─BatchNorm2d (4)              [1, 144, 48, 156]    [1, 144, 48, 156]    288                    0.00%              True
│    │    │    │    │    │    │    │    └─GELU (5)                     [1, 144, 48, 156]    [1, 144, 48, 156]    --                        --              --
│    │    │    │    │    │    │    │    └─Conv2d (6)                   [1, 144, 48, 156]    [1, 36, 48, 156]     5,220                  0.01%              True
│    │    │    │    │    │    │    │    └─BatchNorm2d (7)              [1, 36, 48, 156]     [1, 36, 48, 156]     72                     0.00%              True
│    │    │    │    │    │    │    │    └─GELU (8)                     [1, 36, 48, 156]     [1, 36, 48, 156]     --                        --              --
│    │    │    │    │    │    └─Identity (drop_path)                   [1, 7488, 36]        [1, 7488, 36]        --                   (recursive)          --
│    │    │    │    │    └─HRFormerBlock (1)                           [1, 36, 48, 156]     [1, 36, 48, 156]     --                        --              True
│    │    │    │    │    │    └─LayerNorm (norm1)                      [1, 7488, 36]        [1, 7488, 36]        72                     0.00%              True
│    │    │    │    │    │    └─LocalWindowSelfAttention (attn)        [1, 7488, 36]        [1, 7488, 36]        --                        --              True
│    │    │    │    │    │    │    └─WindowMSA (attn)                  [161, 49, 36]        [161, 49, 36]        338                    0.00%              True
│    │    │    │    │    │    │    │    └─Linear (qkv)                 [161, 49, 36]        [161, 49, 108]       3,996                  0.01%              True
│    │    │    │    │    │    │    │    └─Softmax (softmax)            [161, 2, 49, 49]     [161, 2, 49, 49]     --                        --              --
│    │    │    │    │    │    │    │    └─Dropout (attn_drop)          [161, 2, 49, 49]     [161, 2, 49, 49]     --                        --              --
│    │    │    │    │    │    │    │    └─Linear (out_proj)            [161, 49, 36]        [161, 49, 36]        1,332                  0.00%              True
│    │    │    │    │    │    │    │    └─Dropout (proj_drop)          [161, 49, 36]        [161, 49, 36]        --                        --              --
│    │    │    │    │    │    └─Identity (drop_path)                   [1, 7488, 36]        [1, 7488, 36]        --                        --              --
│    │    │    │    │    │    └─LayerNorm (norm2)                      [1, 7488, 36]        [1, 7488, 36]        72                     0.00%              True
│    │    │    │    │    │    └─CrossFFN (ffn)                         [1, 7488, 36]        [1, 7488, 36]        --                        --              True
│    │    │    │    │    │    │    └─Sequential (layers)               [1, 36, 48, 156]     [1, 36, 48, 156]     --                        --              True
│    │    │    │    │    │    │    │    └─Conv2d (0)                   [1, 36, 48, 156]     [1, 144, 48, 156]    5,328                  0.01%              True
│    │    │    │    │    │    │    │    └─BatchNorm2d (1)              [1, 144, 48, 156]    [1, 144, 48, 156]    288                    0.00%              True
│    │    │    │    │    │    │    │    └─GELU (2)                     [1, 144, 48, 156]    [1, 144, 48, 156]    --                        --              --
│    │    │    │    │    │    │    │    └─Conv2d (3)                   [1, 144, 48, 156]    [1, 144, 48, 156]    1,440                  0.00%              True
│    │    │    │    │    │    │    │    └─BatchNorm2d (4)              [1, 144, 48, 156]    [1, 144, 48, 156]    288                    0.00%              True
│    │    │    │    │    │    │    │    └─GELU (5)                     [1, 144, 48, 156]    [1, 144, 48, 156]    --                        --              --
│    │    │    │    │    │    │    │    └─Conv2d (6)                   [1, 144, 48, 156]    [1, 36, 48, 156]     5,220                  0.01%              True
│    │    │    │    │    │    │    │    └─BatchNorm2d (7)              [1, 36, 48, 156]     [1, 36, 48, 156]     72                     0.00%              True
│    │    │    │    │    │    │    │    └─GELU (8)                     [1, 36, 48, 156]     [1, 36, 48, 156]     --                        --              --
│    │    │    │    │    │    └─Identity (drop_path)                   [1, 7488, 36]        [1, 7488, 36]        --                   (recursive)          --
│    │    │    │    └─Sequential (2)                                   [1, 72, 24, 78]      [1, 72, 24, 78]      --                        --              True
│    │    │    │    │    └─HRFormerBlock (0)                           [1, 72, 24, 78]      [1, 72, 24, 78]      --                        --              True
│    │    │    │    │    │    └─LayerNorm (norm1)                      [1, 1872, 72]        [1, 1872, 72]        144                    0.00%              True
│    │    │    │    │    │    └─LocalWindowSelfAttention (attn)        [1, 1872, 72]        [1, 1872, 72]        --                        --              True
│    │    │    │    │    │    │    └─WindowMSA (attn)                  [48, 49, 72]         [48, 49, 72]         676                    0.00%              True
│    │    │    │    │    │    │    │    └─Linear (qkv)                 [48, 49, 72]         [48, 49, 216]        15,768                 0.03%              True
│    │    │    │    │    │    │    │    └─Softmax (softmax)            [48, 4, 49, 49]      [48, 4, 49, 49]      --                        --              --
│    │    │    │    │    │    │    │    └─Dropout (attn_drop)          [48, 4, 49, 49]      [48, 4, 49, 49]      --                        --              --
│    │    │    │    │    │    │    │    └─Linear (out_proj)            [48, 49, 72]         [48, 49, 72]         5,256                  0.01%              True
│    │    │    │    │    │    │    │    └─Dropout (proj_drop)          [48, 49, 72]         [48, 49, 72]         --                        --              --
│    │    │    │    │    │    └─Identity (drop_path)                   [1, 1872, 72]        [1, 1872, 72]        --                        --              --
│    │    │    │    │    │    └─LayerNorm (norm2)                      [1, 1872, 72]        [1, 1872, 72]        144                    0.00%              True
│    │    │    │    │    │    └─CrossFFN (ffn)                         [1, 1872, 72]        [1, 1872, 72]        --                        --              True
│    │    │    │    │    │    │    └─Sequential (layers)               [1, 72, 24, 78]      [1, 72, 24, 78]      --                        --              True
│    │    │    │    │    │    │    │    └─Conv2d (0)                   [1, 72, 24, 78]      [1, 288, 24, 78]     21,024                 0.04%              True
│    │    │    │    │    │    │    │    └─BatchNorm2d (1)              [1, 288, 24, 78]     [1, 288, 24, 78]     576                    0.00%              True
│    │    │    │    │    │    │    │    └─GELU (2)                     [1, 288, 24, 78]     [1, 288, 24, 78]     --                        --              --
│    │    │    │    │    │    │    │    └─Conv2d (3)                   [1, 288, 24, 78]     [1, 288, 24, 78]     2,880                  0.01%              True
│    │    │    │    │    │    │    │    └─BatchNorm2d (4)              [1, 288, 24, 78]     [1, 288, 24, 78]     576                    0.00%              True
│    │    │    │    │    │    │    │    └─GELU (5)                     [1, 288, 24, 78]     [1, 288, 24, 78]     --                        --              --
│    │    │    │    │    │    │    │    └─Conv2d (6)                   [1, 288, 24, 78]     [1, 72, 24, 78]      20,808                 0.04%              True
│    │    │    │    │    │    │    │    └─BatchNorm2d (7)              [1, 72, 24, 78]      [1, 72, 24, 78]      144                    0.00%              True
│    │    │    │    │    │    │    │    └─GELU (8)                     [1, 72, 24, 78]      [1, 72, 24, 78]      --                        --              --
│    │    │    │    │    │    └─Identity (drop_path)                   [1, 1872, 72]        [1, 1872, 72]        --                   (recursive)          --
│    │    │    │    │    └─HRFormerBlock (1)                           [1, 72, 24, 78]      [1, 72, 24, 78]      --                        --              True
│    │    │    │    │    │    └─LayerNorm (norm1)                      [1, 1872, 72]        [1, 1872, 72]        144                    0.00%              True
│    │    │    │    │    │    └─LocalWindowSelfAttention (attn)        [1, 1872, 72]        [1, 1872, 72]        --                        --              True
│    │    │    │    │    │    │    └─WindowMSA (attn)                  [48, 49, 72]         [48, 49, 72]         676                    0.00%              True
│    │    │    │    │    │    │    │    └─Linear (qkv)                 [48, 49, 72]         [48, 49, 216]        15,768                 0.03%              True
│    │    │    │    │    │    │    │    └─Softmax (softmax)            [48, 4, 49, 49]      [48, 4, 49, 49]      --                        --              --
│    │    │    │    │    │    │    │    └─Dropout (attn_drop)          [48, 4, 49, 49]      [48, 4, 49, 49]      --                        --              --
│    │    │    │    │    │    │    │    └─Linear (out_proj)            [48, 49, 72]         [48, 49, 72]         5,256                  0.01%              True
│    │    │    │    │    │    │    │    └─Dropout (proj_drop)          [48, 49, 72]         [48, 49, 72]         --                        --              --
│    │    │    │    │    │    └─Identity (drop_path)                   [1, 1872, 72]        [1, 1872, 72]        --                        --              --
│    │    │    │    │    │    └─LayerNorm (norm2)                      [1, 1872, 72]        [1, 1872, 72]        144                    0.00%              True
│    │    │    │    │    │    └─CrossFFN (ffn)                         [1, 1872, 72]        [1, 1872, 72]        --                        --              True
│    │    │    │    │    │    │    └─Sequential (layers)               [1, 72, 24, 78]      [1, 72, 24, 78]      --                        --              True
│    │    │    │    │    │    │    │    └─Conv2d (0)                   [1, 72, 24, 78]      [1, 288, 24, 78]     21,024                 0.04%              True
│    │    │    │    │    │    │    │    └─BatchNorm2d (1)              [1, 288, 24, 78]     [1, 288, 24, 78]     576                    0.00%              True
│    │    │    │    │    │    │    │    └─GELU (2)                     [1, 288, 24, 78]     [1, 288, 24, 78]     --                        --              --
│    │    │    │    │    │    │    │    └─Conv2d (3)                   [1, 288, 24, 78]     [1, 288, 24, 78]     2,880                  0.01%              True
│    │    │    │    │    │    │    │    └─BatchNorm2d (4)              [1, 288, 24, 78]     [1, 288, 24, 78]     576                    0.00%              True
│    │    │    │    │    │    │    │    └─GELU (5)                     [1, 288, 24, 78]     [1, 288, 24, 78]     --                        --              --
│    │    │    │    │    │    │    │    └─Conv2d (6)                   [1, 288, 24, 78]     [1, 72, 24, 78]      20,808                 0.04%              True
│    │    │    │    │    │    │    │    └─BatchNorm2d (7)              [1, 72, 24, 78]      [1, 72, 24, 78]      144                    0.00%              True
│    │    │    │    │    │    │    │    └─GELU (8)                     [1, 72, 24, 78]      [1, 72, 24, 78]      --                        --              --
│    │    │    │    │    │    └─Identity (drop_path)                   [1, 1872, 72]        [1, 1872, 72]        --                   (recursive)          --
│    │    │    │    └─Sequential (3)                                   [1, 144, 12, 39]     [1, 144, 12, 39]     --                        --              True
│    │    │    │    │    └─HRFormerBlock (0)                           [1, 144, 12, 39]     [1, 144, 12, 39]     --                        --              True
│    │    │    │    │    │    └─LayerNorm (norm1)                      [1, 468, 144]        [1, 468, 144]        288                    0.00%              True
│    │    │    │    │    │    └─LocalWindowSelfAttention (attn)        [1, 468, 144]        [1, 468, 144]        --                        --              True
│    │    │    │    │    │    │    └─WindowMSA (attn)                  [12, 49, 144]        [12, 49, 144]        1,352                  0.00%              True
│    │    │    │    │    │    │    │    └─Linear (qkv)                 [12, 49, 144]        [12, 49, 432]        62,640                 0.13%              True
│    │    │    │    │    │    │    │    └─Softmax (softmax)            [12, 8, 49, 49]      [12, 8, 49, 49]      --                        --              --
│    │    │    │    │    │    │    │    └─Dropout (attn_drop)          [12, 8, 49, 49]      [12, 8, 49, 49]      --                        --              --
│    │    │    │    │    │    │    │    └─Linear (out_proj)            [12, 49, 144]        [12, 49, 144]        20,880                 0.04%              True
│    │    │    │    │    │    │    │    └─Dropout (proj_drop)          [12, 49, 144]        [12, 49, 144]        --                        --              --
│    │    │    │    │    │    └─Identity (drop_path)                   [1, 468, 144]        [1, 468, 144]        --                        --              --
│    │    │    │    │    │    └─LayerNorm (norm2)                      [1, 468, 144]        [1, 468, 144]        288                    0.00%              True
│    │    │    │    │    │    └─CrossFFN (ffn)                         [1, 468, 144]        [1, 468, 144]        --                        --              True
│    │    │    │    │    │    │    └─Sequential (layers)               [1, 144, 12, 39]     [1, 144, 12, 39]     --                        --              True
│    │    │    │    │    │    │    │    └─Conv2d (0)                   [1, 144, 12, 39]     [1, 576, 12, 39]     83,520                 0.17%              True
│    │    │    │    │    │    │    │    └─BatchNorm2d (1)              [1, 576, 12, 39]     [1, 576, 12, 39]     1,152                  0.00%              True
│    │    │    │    │    │    │    │    └─GELU (2)                     [1, 576, 12, 39]     [1, 576, 12, 39]     --                        --              --
│    │    │    │    │    │    │    │    └─Conv2d (3)                   [1, 576, 12, 39]     [1, 576, 12, 39]     5,760                  0.01%              True
│    │    │    │    │    │    │    │    └─BatchNorm2d (4)              [1, 576, 12, 39]     [1, 576, 12, 39]     1,152                  0.00%              True
│    │    │    │    │    │    │    │    └─GELU (5)                     [1, 576, 12, 39]     [1, 576, 12, 39]     --                        --              --
│    │    │    │    │    │    │    │    └─Conv2d (6)                   [1, 576, 12, 39]     [1, 144, 12, 39]     83,088                 0.17%              True
│    │    │    │    │    │    │    │    └─BatchNorm2d (7)              [1, 144, 12, 39]     [1, 144, 12, 39]     288                    0.00%              True
│    │    │    │    │    │    │    │    └─GELU (8)                     [1, 144, 12, 39]     [1, 144, 12, 39]     --                        --              --
│    │    │    │    │    │    └─Identity (drop_path)                   [1, 468, 144]        [1, 468, 144]        --                   (recursive)          --
│    │    │    │    │    └─HRFormerBlock (1)                           [1, 144, 12, 39]     [1, 144, 12, 39]     --                        --              True
│    │    │    │    │    │    └─LayerNorm (norm1)                      [1, 468, 144]        [1, 468, 144]        288                    0.00%              True
│    │    │    │    │    │    └─LocalWindowSelfAttention (attn)        [1, 468, 144]        [1, 468, 144]        --                        --              True
│    │    │    │    │    │    │    └─WindowMSA (attn)                  [12, 49, 144]        [12, 49, 144]        1,352                  0.00%              True
│    │    │    │    │    │    │    │    └─Linear (qkv)                 [12, 49, 144]        [12, 49, 432]        62,640                 0.13%              True
│    │    │    │    │    │    │    │    └─Softmax (softmax)            [12, 8, 49, 49]      [12, 8, 49, 49]      --                        --              --
│    │    │    │    │    │    │    │    └─Dropout (attn_drop)          [12, 8, 49, 49]      [12, 8, 49, 49]      --                        --              --
│    │    │    │    │    │    │    │    └─Linear (out_proj)            [12, 49, 144]        [12, 49, 144]        20,880                 0.04%              True
│    │    │    │    │    │    │    │    └─Dropout (proj_drop)          [12, 49, 144]        [12, 49, 144]        --                        --              --
│    │    │    │    │    │    └─Identity (drop_path)                   [1, 468, 144]        [1, 468, 144]        --                        --              --
│    │    │    │    │    │    └─LayerNorm (norm2)                      [1, 468, 144]        [1, 468, 144]        288                    0.00%              True
│    │    │    │    │    │    └─CrossFFN (ffn)                         [1, 468, 144]        [1, 468, 144]        --                        --              True
│    │    │    │    │    │    │    └─Sequential (layers)               [1, 144, 12, 39]     [1, 144, 12, 39]     --                        --              True
│    │    │    │    │    │    │    │    └─Conv2d (0)                   [1, 144, 12, 39]     [1, 576, 12, 39]     83,520                 0.17%              True
│    │    │    │    │    │    │    │    └─BatchNorm2d (1)              [1, 576, 12, 39]     [1, 576, 12, 39]     1,152                  0.00%              True
│    │    │    │    │    │    │    │    └─GELU (2)                     [1, 576, 12, 39]     [1, 576, 12, 39]     --                        --              --
│    │    │    │    │    │    │    │    └─Conv2d (3)                   [1, 576, 12, 39]     [1, 576, 12, 39]     5,760                  0.01%              True
│    │    │    │    │    │    │    │    └─BatchNorm2d (4)              [1, 576, 12, 39]     [1, 576, 12, 39]     1,152                  0.00%              True
│    │    │    │    │    │    │    │    └─GELU (5)                     [1, 576, 12, 39]     [1, 576, 12, 39]     --                        --              --
│    │    │    │    │    │    │    │    └─Conv2d (6)                   [1, 576, 12, 39]     [1, 144, 12, 39]     83,088                 0.17%              True
│    │    │    │    │    │    │    │    └─BatchNorm2d (7)              [1, 144, 12, 39]     [1, 144, 12, 39]     288                    0.00%              True
│    │    │    │    │    │    │    │    └─GELU (8)                     [1, 144, 12, 39]     [1, 144, 12, 39]     --                        --              --
│    │    │    │    │    │    └─Identity (drop_path)                   [1, 468, 144]        [1, 468, 144]        --                   (recursive)          --
│    │    │    └─ModuleList (fuse_layers)                              --                   --                   (recursive)          (recursive)          True
│    │    │    │    └─ModuleList (0)                                   --                   --                   --                        --              True
│    │    │    │    │    └─Sequential (1)                              [1, 36, 48, 156]     [1, 18, 48, 156]     --                        --              True
│    │    │    │    │    │    └─Conv2d (0)                             [1, 36, 48, 156]     [1, 18, 48, 156]     648                    0.00%              True
│    │    │    │    │    │    └─BatchNorm2d (1)                        [1, 18, 48, 156]     [1, 18, 48, 156]     36                     0.00%              True
│    │    │    │    │    └─Sequential (2)                              [1, 72, 24, 78]      [1, 18, 24, 78]      --                        --              True
│    │    │    │    │    │    └─Conv2d (0)                             [1, 72, 24, 78]      [1, 18, 24, 78]      1,296                  0.00%              True
│    │    │    │    │    │    └─BatchNorm2d (1)                        [1, 18, 24, 78]      [1, 18, 24, 78]      36                     0.00%              True
│    │    │    │    │    └─Sequential (3)                              [1, 144, 12, 39]     [1, 18, 12, 39]      --                        --              True
│    │    │    │    │    │    └─Conv2d (0)                             [1, 144, 12, 39]     [1, 18, 12, 39]      2,592                  0.01%              True
│    │    │    │    │    │    └─BatchNorm2d (1)                        [1, 18, 12, 39]      [1, 18, 12, 39]      36                     0.00%              True
│    │    │    └─ReLU (relu)                                           [1, 18, 96, 312]     [1, 18, 96, 312]     --                        --              --
│    │    │    └─ModuleList (fuse_layers)                              --                   --                   (recursive)          (recursive)          True
│    │    │    │    └─ModuleList (1)                                   --                   --                   --                        --              True
│    │    │    │    │    └─Sequential (0)                              [1, 18, 96, 312]     [1, 36, 48, 156]     --                        --              True
│    │    │    │    │    │    └─Sequential (0)                         [1, 18, 96, 312]     [1, 36, 48, 156]     --                        --              True
│    │    │    │    │    │    │    └─Conv2d (0)                        [1, 18, 96, 312]     [1, 18, 48, 156]     162                    0.00%              True
│    │    │    │    │    │    │    └─BatchNorm2d (1)                   [1, 18, 48, 156]     [1, 18, 48, 156]     36                     0.00%              True
│    │    │    │    │    │    │    └─Conv2d (2)                        [1, 18, 48, 156]     [1, 36, 48, 156]     648                    0.00%              True
│    │    │    │    │    │    │    └─BatchNorm2d (3)                   [1, 36, 48, 156]     [1, 36, 48, 156]     72                     0.00%              True
│    │    │    │    │    └─Sequential (2)                              [1, 72, 24, 78]      [1, 36, 24, 78]      --                        --              True
│    │    │    │    │    │    └─Conv2d (0)                             [1, 72, 24, 78]      [1, 36, 24, 78]      2,592                  0.01%              True
│    │    │    │    │    │    └─BatchNorm2d (1)                        [1, 36, 24, 78]      [1, 36, 24, 78]      72                     0.00%              True
│    │    │    │    │    └─Sequential (3)                              [1, 144, 12, 39]     [1, 36, 12, 39]      --                        --              True
│    │    │    │    │    │    └─Conv2d (0)                             [1, 144, 12, 39]     [1, 36, 12, 39]      5,184                  0.01%              True
│    │    │    │    │    │    └─BatchNorm2d (1)                        [1, 36, 12, 39]      [1, 36, 12, 39]      72                     0.00%              True
│    │    │    └─ReLU (relu)                                           [1, 36, 48, 156]     [1, 36, 48, 156]     --                   (recursive)          --
│    │    │    └─ModuleList (fuse_layers)                              --                   --                   (recursive)          (recursive)          True
│    │    │    │    └─ModuleList (2)                                   --                   --                   --                        --              True
│    │    │    │    │    └─Sequential (0)                              [1, 18, 96, 312]     [1, 72, 24, 78]      --                        --              True
│    │    │    │    │    │    └─Sequential (0)                         [1, 18, 96, 312]     [1, 18, 48, 156]     --                        --              True
│    │    │    │    │    │    │    └─Conv2d (0)                        [1, 18, 96, 312]     [1, 18, 48, 156]     162                    0.00%              True
│    │    │    │    │    │    │    └─BatchNorm2d (1)                   [1, 18, 48, 156]     [1, 18, 48, 156]     36                     0.00%              True
│    │    │    │    │    │    │    └─Conv2d (2)                        [1, 18, 48, 156]     [1, 18, 48, 156]     324                    0.00%              True
│    │    │    │    │    │    │    └─BatchNorm2d (3)                   [1, 18, 48, 156]     [1, 18, 48, 156]     36                     0.00%              True
│    │    │    │    │    │    │    └─ReLU (4)                          [1, 18, 48, 156]     [1, 18, 48, 156]     --                        --              --
│    │    │    │    │    │    └─Sequential (1)                         [1, 18, 48, 156]     [1, 72, 24, 78]      --                        --              True
│    │    │    │    │    │    │    └─Conv2d (0)                        [1, 18, 48, 156]     [1, 18, 24, 78]      162                    0.00%              True
│    │    │    │    │    │    │    └─BatchNorm2d (1)                   [1, 18, 24, 78]      [1, 18, 24, 78]      36                     0.00%              True
│    │    │    │    │    │    │    └─Conv2d (2)                        [1, 18, 24, 78]      [1, 72, 24, 78]      1,296                  0.00%              True
│    │    │    │    │    │    │    └─BatchNorm2d (3)                   [1, 72, 24, 78]      [1, 72, 24, 78]      144                    0.00%              True
│    │    │    │    │    └─Sequential (1)                              [1, 36, 48, 156]     [1, 72, 24, 78]      --                        --              True
│    │    │    │    │    │    └─Sequential (0)                         [1, 36, 48, 156]     [1, 72, 24, 78]      --                        --              True
│    │    │    │    │    │    │    └─Conv2d (0)                        [1, 36, 48, 156]     [1, 36, 24, 78]      324                    0.00%              True
│    │    │    │    │    │    │    └─BatchNorm2d (1)                   [1, 36, 24, 78]      [1, 36, 24, 78]      72                     0.00%              True
│    │    │    │    │    │    │    └─Conv2d (2)                        [1, 36, 24, 78]      [1, 72, 24, 78]      2,592                  0.01%              True
│    │    │    │    │    │    │    └─BatchNorm2d (3)                   [1, 72, 24, 78]      [1, 72, 24, 78]      144                    0.00%              True
│    │    │    │    │    └─Sequential (3)                              [1, 144, 12, 39]     [1, 72, 12, 39]      --                        --              True
│    │    │    │    │    │    └─Conv2d (0)                             [1, 144, 12, 39]     [1, 72, 12, 39]      10,368                 0.02%              True
│    │    │    │    │    │    └─BatchNorm2d (1)                        [1, 72, 12, 39]      [1, 72, 12, 39]      144                    0.00%              True
│    │    │    └─ReLU (relu)                                           [1, 72, 24, 78]      [1, 72, 24, 78]      --                   (recursive)          --
│    │    │    └─ModuleList (fuse_layers)                              --                   --                   (recursive)          (recursive)          True
│    │    │    │    └─ModuleList (3)                                   --                   --                   --                        --              True
│    │    │    │    │    └─Sequential (0)                              [1, 18, 96, 312]     [1, 144, 12, 39]     --                        --              True
│    │    │    │    │    │    └─Sequential (0)                         [1, 18, 96, 312]     [1, 18, 48, 156]     --                        --              True
│    │    │    │    │    │    │    └─Conv2d (0)                        [1, 18, 96, 312]     [1, 18, 48, 156]     162                    0.00%              True
│    │    │    │    │    │    │    └─BatchNorm2d (1)                   [1, 18, 48, 156]     [1, 18, 48, 156]     36                     0.00%              True
│    │    │    │    │    │    │    └─Conv2d (2)                        [1, 18, 48, 156]     [1, 18, 48, 156]     324                    0.00%              True
│    │    │    │    │    │    │    └─BatchNorm2d (3)                   [1, 18, 48, 156]     [1, 18, 48, 156]     36                     0.00%              True
│    │    │    │    │    │    │    └─ReLU (4)                          [1, 18, 48, 156]     [1, 18, 48, 156]     --                        --              --
│    │    │    │    │    │    └─Sequential (1)                         [1, 18, 48, 156]     [1, 18, 24, 78]      --                        --              True
│    │    │    │    │    │    │    └─Conv2d (0)                        [1, 18, 48, 156]     [1, 18, 24, 78]      162                    0.00%              True
│    │    │    │    │    │    │    └─BatchNorm2d (1)                   [1, 18, 24, 78]      [1, 18, 24, 78]      36                     0.00%              True
│    │    │    │    │    │    │    └─Conv2d (2)                        [1, 18, 24, 78]      [1, 18, 24, 78]      324                    0.00%              True
│    │    │    │    │    │    │    └─BatchNorm2d (3)                   [1, 18, 24, 78]      [1, 18, 24, 78]      36                     0.00%              True
│    │    │    │    │    │    │    └─ReLU (4)                          [1, 18, 24, 78]      [1, 18, 24, 78]      --                        --              --
│    │    │    │    │    │    └─Sequential (2)                         [1, 18, 24, 78]      [1, 144, 12, 39]     --                        --              True
│    │    │    │    │    │    │    └─Conv2d (0)                        [1, 18, 24, 78]      [1, 18, 12, 39]      162                    0.00%              True
│    │    │    │    │    │    │    └─BatchNorm2d (1)                   [1, 18, 12, 39]      [1, 18, 12, 39]      36                     0.00%              True
│    │    │    │    │    │    │    └─Conv2d (2)                        [1, 18, 12, 39]      [1, 144, 12, 39]     2,592                  0.01%              True
│    │    │    │    │    │    │    └─BatchNorm2d (3)                   [1, 144, 12, 39]     [1, 144, 12, 39]     288                    0.00%              True
│    │    │    │    │    └─Sequential (1)                              [1, 36, 48, 156]     [1, 144, 12, 39]     --                        --              True
│    │    │    │    │    │    └─Sequential (0)                         [1, 36, 48, 156]     [1, 36, 24, 78]      --                        --              True
│    │    │    │    │    │    │    └─Conv2d (0)                        [1, 36, 48, 156]     [1, 36, 24, 78]      324                    0.00%              True
│    │    │    │    │    │    │    └─BatchNorm2d (1)                   [1, 36, 24, 78]      [1, 36, 24, 78]      72                     0.00%              True
│    │    │    │    │    │    │    └─Conv2d (2)                        [1, 36, 24, 78]      [1, 36, 24, 78]      1,296                  0.00%              True
│    │    │    │    │    │    │    └─BatchNorm2d (3)                   [1, 36, 24, 78]      [1, 36, 24, 78]      72                     0.00%              True
│    │    │    │    │    │    │    └─ReLU (4)                          [1, 36, 24, 78]      [1, 36, 24, 78]      --                        --              --
│    │    │    │    │    │    └─Sequential (1)                         [1, 36, 24, 78]      [1, 144, 12, 39]     --                        --              True
│    │    │    │    │    │    │    └─Conv2d (0)                        [1, 36, 24, 78]      [1, 36, 12, 39]      324                    0.00%              True
│    │    │    │    │    │    │    └─BatchNorm2d (1)                   [1, 36, 12, 39]      [1, 36, 12, 39]      72                     0.00%              True
│    │    │    │    │    │    │    └─Conv2d (2)                        [1, 36, 12, 39]      [1, 144, 12, 39]     5,184                  0.01%              True
│    │    │    │    │    │    │    └─BatchNorm2d (3)                   [1, 144, 12, 39]     [1, 144, 12, 39]     288                    0.00%              True
│    │    │    │    │    └─Sequential (2)                              [1, 72, 24, 78]      [1, 144, 12, 39]     --                        --              True
│    │    │    │    │    │    └─Sequential (0)                         [1, 72, 24, 78]      [1, 144, 12, 39]     --                        --              True
│    │    │    │    │    │    │    └─Conv2d (0)                        [1, 72, 24, 78]      [1, 72, 12, 39]      648                    0.00%              True
│    │    │    │    │    │    │    └─BatchNorm2d (1)                   [1, 72, 12, 39]      [1, 72, 12, 39]      144                    0.00%              True
│    │    │    │    │    │    │    └─Conv2d (2)                        [1, 72, 12, 39]      [1, 144, 12, 39]     10,368                 0.02%              True
│    │    │    │    │    │    │    └─BatchNorm2d (3)                   [1, 144, 12, 39]     [1, 144, 12, 39]     288                    0.00%              True
│    │    │    └─ReLU (relu)                                           [1, 144, 12, 39]     [1, 144, 12, 39]     --                   (recursive)          --
├─HRFPN (neck)                                                         [1, 18, 96, 312]     [1, 256, 96, 312]    --                        --              True
│    └─ConvModule (reduction_conv)                                     [1, 270, 96, 312]    [1, 256, 96, 312]    --                        --              True
│    │    └─Conv2d (conv)                                              [1, 270, 96, 312]    [1, 256, 96, 312]    69,376                 0.14%              True
│    └─ModuleList (fpn_convs)                                          --                   --                   --                        --              True
│    │    └─ConvModule (0)                                             [1, 256, 96, 312]    [1, 256, 96, 312]    --                        --              True
│    │    │    └─Conv2d (conv)                                         [1, 256, 96, 312]    [1, 256, 96, 312]    590,080                1.23%              True
│    │    └─ConvModule (1)                                             [1, 256, 48, 156]    [1, 256, 48, 156]    --                        --              True
│    │    │    └─Conv2d (conv)                                         [1, 256, 48, 156]    [1, 256, 48, 156]    590,080                1.23%              True
│    │    └─ConvModule (2)                                             [1, 256, 24, 78]     [1, 256, 24, 78]     --                        --              True
│    │    │    └─Conv2d (conv)                                         [1, 256, 24, 78]     [1, 256, 24, 78]     590,080                1.23%              True
│    │    └─ConvModule (3)                                             [1, 256, 12, 39]     [1, 256, 12, 39]     --                        --              True
│    │    │    └─Conv2d (conv)                                         [1, 256, 12, 39]     [1, 256, 12, 39]     590,080                1.23%              True
│    │    └─ConvModule (4)                                             [1, 256, 6, 19]      [1, 256, 6, 19]      --                        --              True
│    │    │    └─Conv2d (conv)                                         [1, 256, 6, 19]      [1, 256, 6, 19]      590,080                1.23%              True
├─RPNHead (rpn_head)                                                   [1, 256, 96, 312]    [1, 3, 96, 312]      --                        --              True
│    └─Conv2d (rpn_conv)                                               [1, 256, 96, 312]    [1, 256, 96, 312]    590,080                1.23%              True
│    └─Conv2d (rpn_cls)                                                [1, 256, 96, 312]    [1, 3, 96, 312]      771                    0.00%              True
│    └─Conv2d (rpn_reg)                                                [1, 256, 96, 312]    [1, 12, 96, 312]     3,084                  0.01%              True
│    └─Conv2d (rpn_conv)                                               [1, 256, 48, 156]    [1, 256, 48, 156]    (recursive)          (recursive)          True
│    └─Conv2d (rpn_cls)                                                [1, 256, 48, 156]    [1, 3, 48, 156]      (recursive)          (recursive)          True
│    └─Conv2d (rpn_reg)                                                [1, 256, 48, 156]    [1, 12, 48, 156]     (recursive)          (recursive)          True
…
│    └─Conv2d (rpn_reg)                                                [1, 256, 12, 39]     [1, 12, 12, 39]      (recursive)          (recursive)          True
│    └─Conv2d (rpn_conv)                                               [1, 256, 6, 19]      [1, 256, 6, 19]      (recursive)          (recursive)          True
│    └─Conv2d (rpn_cls)                                                [1, 256, 6, 19]      [1, 3, 6, 19]        (recursive)          (recursive)          True
│    └─Conv2d (rpn_reg)                                                [1, 256, 6, 19]      [1, 12, 6, 19]       (recursive)          (recursive)          True
│    └─CrossEntropyLoss (loss_cls)                                     [89856, 1]           --                   --                        --              --
│    └─SmoothL1Loss (loss_bbox)                                        [89856, 4]           --                   --                        --              --
│    └─CrossEntropyLoss (loss_cls)                                     [22464, 1]           --                   --                   (recursive)          --
│    └─SmoothL1Loss (loss_bbox)                                        [22464, 4]           --                   --                   (recursive)          --
│    └─CrossEntropyLoss (loss_cls)                                     [5616, 1]            --                   --                   (recursive)          --
│    └─SmoothL1Loss (loss_bbox)                                        [5616, 4]            --                   --                   (recursive)          --
│    └─CrossEntropyLoss (loss_cls)                                     [1404, 1]            --                   --                   (recursive)          --
│    └─SmoothL1Loss (loss_bbox)                                        [1404, 4]            --                   --                   (recursive)          --
│    └─CrossEntropyLoss (loss_cls)                                     [342, 1]             --                   --                   (recursive)          --
│    └─SmoothL1Loss (loss_bbox)                                        [342, 4]             --                   --                   (recursive)          --
├─CascadeRoIHead (roi_head)                                            --                   --                   --                        --              True
│    └─ModuleList (bbox_roi_extractor)                                 --                   --                   --                   (recursive)          --
│    │    └─SingleRoIExtractor (0)                                     [1, 256, 96, 312]    [512, 256, 7, 7]     --                        --              --
│    │    │    └─ModuleList (roi_layers)                               --                   --                   --                        --              --
│    │    │    │    └─RoIAlign (0)                                     [1, 256, 96, 312]    [323, 256, 7, 7]     --                        --              --
│    │    │    │    └─RoIAlign (1)                                     [1, 256, 48, 156]    [160, 256, 7, 7]     --                        --              --
│    │    │    │    └─RoIAlign (2)                                     [1, 256, 24, 78]     [29, 256, 7, 7]      --                        --              --
│    └─ModuleList (bbox_head)                                          --                   --                   (recursive)          (recursive)          True
│    │    └─Shared2FCBBoxHead (0)                                      [512, 256, 7, 7]     [512, 4]             --                        --              True
│    │    │    └─ModuleList (shared_fcs)                               --                   --                   (recursive)          (recursive)          True
│    │    │    │    └─Linear (0)                                       [512, 12544]         [512, 1024]          12,846,080            26.82%              True
│    │    │    └─ReLU (relu)                                           [512, 1024]          [512, 1024]          --                        --              --
│    │    │    └─ModuleList (shared_fcs)                               --                   --                   (recursive)          (recursive)          True
│    │    │    │    └─Linear (1)                                       [512, 1024]          [512, 1024]          1,049,600              2.19%              True
│    │    │    └─ReLU (relu)                                           [512, 1024]          [512, 1024]          --                   (recursive)          --
│    │    │    └─Linear (fc_cls)                                       [512, 1024]          [512, 4]             4,100                  0.01%              True
│    │    │    └─Linear (fc_reg)                                       [512, 1024]          [512, 4]             4,100                  0.01%              True
│    │    │    └─CrossEntropyLoss (loss_cls)                           [512, 4]             --                   --                        --              --
│    │    │    └─SmoothL1Loss (loss_bbox)                              [10, 4]              --                   --                        --              --
│    └─ModuleList (bbox_roi_extractor)                                 --                   --                   --                   (recursive)          --
│    │    └─SingleRoIExtractor (1)                                     [1, 256, 96, 312]    [512, 256, 7, 7]     --                        --              --
│    │    │    └─ModuleList (roi_layers)                               --                   --                   --                        --              --
│    │    │    │    └─RoIAlign (0)                                     [1, 256, 96, 312]    [322, 256, 7, 7]     --                        --              --
│    │    │    │    └─RoIAlign (1)                                     [1, 256, 48, 156]    [161, 256, 7, 7]     --                        --              --
│    │    │    │    └─RoIAlign (2)                                     [1, 256, 24, 78]     [29, 256, 7, 7]      --                        --              --
│    └─ModuleList (bbox_head)                                          --                   --                   (recursive)          (recursive)          True
│    │    └─Shared2FCBBoxHead (1)                                      [512, 256, 7, 7]     [512, 4]             --                        --              True
│    │    │    └─ModuleList (shared_fcs)                               --                   --                   (recursive)          (recursive)          True
│    │    │    │    └─Linear (0)                                       [512, 12544]         [512, 1024]          12,846,080            26.82%              True
│    │    │    └─ReLU (relu)                                           [512, 1024]          [512, 1024]          --                        --              --
│    │    │    └─ModuleList (shared_fcs)                               --                   --                   (recursive)          (recursive)          True
│    │    │    │    └─Linear (1)                                       [512, 1024]          [512, 1024]          1,049,600              2.19%              True
│    │    │    └─ReLU (relu)                                           [512, 1024]          [512, 1024]          --                   (recursive)          --
│    │    │    └─Linear (fc_cls)                                       [512, 1024]          [512, 4]             4,100                  0.01%              True
│    │    │    └─Linear (fc_reg)                                       [512, 1024]          [512, 4]             4,100                  0.01%              True
│    │    │    └─CrossEntropyLoss (loss_cls)                           [512, 4]             --                   --                        --              --
│    │    │    └─SmoothL1Loss (loss_bbox)                              [7, 4]               --                   --                        --              --
│    └─ModuleList (bbox_roi_extractor)                                 --                   --                   --                   (recursive)          --
│    │    └─SingleRoIExtractor (2)                                     [1, 256, 96, 312]    [512, 256, 7, 7]     --                        --              --
│    │    │    └─ModuleList (roi_layers)                               --                   --                   --                        --              --
│    │    │    │    └─RoIAlign (0)                                     [1, 256, 96, 312]    [321, 256, 7, 7]     --                        --              --
│    │    │    │    └─RoIAlign (1)                                     [1, 256, 48, 156]    [162, 256, 7, 7]     --                        --              --
│    │    │    │    └─RoIAlign (2)                                     [1, 256, 24, 78]     [29, 256, 7, 7]      --                        --              --
│    └─ModuleList (bbox_head)                                          --                   --                   (recursive)          (recursive)          True
│    │    └─Shared2FCBBoxHead (2)                                      [512, 256, 7, 7]     [512, 4]             --                        --              True
│    │    │    └─ModuleList (shared_fcs)                               --                   --                   (recursive)          (recursive)          True
│    │    │    │    └─Linear (0)                                       [512, 12544]         [512, 1024]          12,846,080            26.82%              True
│    │    │    └─ReLU (relu)                                           [512, 1024]          [512, 1024]          --                        --              --
│    │    │    └─ModuleList (shared_fcs)                               --                   --                   (recursive)          (recursive)          True
│    │    │    │    └─Linear (1)                                       [512, 1024]          [512, 1024]          1,049,600              2.19%              True
│    │    │    └─ReLU (relu)                                           [512, 1024]          [512, 1024]          --                   (recursive)          --
│    │    │    └─Linear (fc_cls)                                       [512, 1024]          [512, 4]             4,100                  0.01%              True
│    │    │    └─Linear (fc_reg)                                       [512, 1024]          [512, 4]             4,100                  0.01%              True
│    │    │    └─CrossEntropyLoss (loss_cls)                           [512, 4]             --                   --                        --              --
│    │    │    └─SmoothL1Loss (loss_bbox)                              [7, 4]               --                   --                        --              --
==========================================================================================================================================================================
Total params: 47,897,739
Trainable params: 47,897,739
Non-trainable params: 0
Total mult-adds (G): 81.93
==========================================================================================================================================================================
…
